{"format": "graph-model", "generatedBy": "2.12.0", "convertedBy": "TensorFlow.js Converter v4.6.0", "signature": {"outputs": {"Identity:0": {"name": "Identity:0"}}}, "modelTopology": {"node": [{"name": "ConstantFolding/PartitionedCall/model_1/tf.math.divide/truediv_recip", "op": "Const", "attr": {"value": {"tensor": {"dtype": "DT_FLOAT", "tensorShape": {"dim": [{"size": "1"}, {"size": "1"}, {"size": "1"}]}}}, "dtype": {"type": "DT_FLOAT"}}}, {"name": "1900", "op": "Const", "attr": {"value": {"tensor": {"dtype": "DT_FLOAT", "tensorShape": {"dim": [{"size": "1"}, {"size": "2"}, {"size": "3549"}]}}}, "dtype": {"type": "DT_FLOAT"}}}, {"name": "1892", "op": "Const", "attr": {"value": {"tensor": {"dtype": "DT_INT64", "tensorShape": {"dim": [{"size": "3"}]}}}, "dtype": {"type": "DT_INT64"}}}, {"name": "1894", "op": "Const", "attr": {"value": {"tensor": {"dtype": "DT_INT64", "tensorShape": {"dim": [{"size": "3"}]}}}, "dtype": {"type": "DT_INT64"}}}, {"name": "PartitionedCall/model_1/tf.strided_slice_39/ones_like", "op": "Const", "attr": {"value": {"tensor": {"dtype": "DT_INT64", "tensorShape": {"dim": [{"size": "3"}]}}}, "dtype": {"type": "DT_INT64"}}}, {"name": "1902", "op": "Const", "attr": {"value": {"tensor": {"dtype": "DT_FLOAT", "tensorShape": {"dim": [{"size": "1"}, {"size": "2"}, {"size": "3549"}]}}}, "dtype": {"type": "DT_FLOAT"}}}, {"name": "1886", "op": "Const", "attr": {"value": {"tensor": {"dtype": "DT_INT64", "tensorShape": {"dim": [{"size": "3"}]}}}, "dtype": {"type": "DT_INT64"}}}, {"name": "1888", "op": "Const", "attr": {"value": {"tensor": {"dtype": "DT_INT64", "tensorShape": {"dim": [{"size": "3"}]}}}, "dtype": {"type": "DT_INT64"}}}, {"name": "PartitionedCall/model_1/tf.strided_slice_33/StridedSlice/strides", "op": "Const", "attr": {"value": {"tensor": {"dtype": "DT_INT64", "tensorShape": {"dim": [{"size": "3"}]}}}, "dtype": {"type": "DT_INT64"}}}, {"name": "PartitionedCall/model_1/tf.reshape_3/Reshape/shape", "op": "Const", "attr": {"dtype": {"type": "DT_INT32"}, "value": {"tensor": {"dtype": "DT_INT32", "tensorShape": {"dim": [{"size": "4"}]}}}}}, {"name": "PartitionedCall/model_1/tf.compat.v1.transpose_4/transpose/perm", "op": "Const", "attr": {"value": {"tensor": {"dtype": "DT_INT32", "tensorShape": {"dim": [{"size": "4"}]}}}, "dtype": {"type": "DT_INT32"}}}, {"name": "PartitionedCall/model_1/tf.compat.v1.transpose_5/transpose/perm", "op": "Const", "attr": {"value": {"tensor": {"dtype": "DT_INT32", "tensorShape": {"dim": [{"size": "4"}]}}}, "dtype": {"type": "DT_INT32"}}}, {"name": "1890", "op": "Const", "attr": {"dtype": {"type": "DT_FLOAT"}, "value": {"tensor": {"dtype": "DT_FLOAT", "tensorShape": {"dim": [{"size": "1"}, {"size": "1"}, {"size": "16"}, {"size": "1"}]}}}}}, {"name": "PartitionedCall/model_1/tf.compat.v1.transpose_8/transpose/perm", "op": "Const", "attr": {"value": {"tensor": {"dtype": "DT_INT32", "tensorShape": {"dim": [{"size": "4"}]}}}, "dtype": {"type": "DT_INT32"}}}, {"name": "PartitionedCall/model_1/tf.reshape_4/Reshape/shape", "op": "Const", "attr": {"dtype": {"type": "DT_INT32"}, "value": {"tensor": {"dtype": "DT_INT32", "tensorShape": {"dim": [{"size": "3"}]}}}}}, {"name": "1896", "op": "Const", "attr": {"dtype": {"type": "DT_INT64"}, "value": {"tensor": {"dtype": "DT_INT64", "tensorShape": {"dim": [{"size": "3"}]}}}}}, {"name": "1898", "op": "Const", "attr": {"value": {"tensor": {"dtype": "DT_INT64", "tensorShape": {"dim": [{"size": "3"}]}}}, "dtype": {"type": "DT_INT64"}}}, {"name": "PartitionedCall/model_1/tf.strided_slice_37/ones_like", "op": "Const", "attr": {"value": {"tensor": {"dtype": "DT_INT64", "tensorShape": {"dim": [{"size": "3"}]}}}, "dtype": {"type": "DT_INT64"}}}, {"name": "PartitionedCall/model_1/tf.concat_17/concat/axis", "op": "Const", "attr": {"value": {"tensor": {"dtype": "DT_INT32", "tensorShape": {}}}, "dtype": {"type": "DT_INT32"}}}, {"name": "PartitionedCall/model_1/tf.math.multiply_317/Mul/y", "op": "Const", "attr": {"value": {"tensor": {"dtype": "DT_FLOAT", "tensorShape": {"dim": [{"size": "1"}, {"size": "1"}, {"size": "3549"}]}}}, "dtype": {"type": "DT_FLOAT"}}}, {"name": "1824", "op": "Const", "attr": {"value": {"tensor": {"dtype": "DT_FLOAT", "tensorShape": {"dim": [{"size": "3"}, {"size": "3"}, {"size": "320"}, {"size": "80"}]}}}, "dtype": {"type": "DT_FLOAT"}}}, {"name": "1836", "op": "Const", "attr": {"dtype": {"type": "DT_FLOAT"}, "value": {"tensor": {"dtype": "DT_FLOAT", "tensorShape": {"dim": [{"size": "80"}]}}}}}, {"name": "1848", "op": "Const", "attr": {"value": {"tensor": {"dtype": "DT_FLOAT", "tensorShape": {"dim": [{"size": "3"}, {"size": "3"}, {"size": "80"}, {"size": "80"}]}}}, "dtype": {"type": "DT_FLOAT"}}}, {"name": "1860", "op": "Const", "attr": {"value": {"tensor": {"dtype": "DT_FLOAT", "tensorShape": {"dim": [{"size": "80"}]}}}, "dtype": {"type": "DT_FLOAT"}}}, {"name": "1872", "op": "Const", "attr": {"value": {"tensor": {"dtype": "DT_FLOAT", "tensorShape": {"dim": [{"size": "1"}, {"size": "1"}, {"size": "80"}, {"size": "64"}]}}}, "dtype": {"type": "DT_FLOAT"}}}, {"name": "1882", "op": "Const", "attr": {"dtype": {"type": "DT_FLOAT"}, "value": {"tensor": {"dtype": "DT_FLOAT", "tensorShape": {"dim": [{"size": "64"}]}}}}}, {"name": "1822", "op": "Const", "attr": {"value": {"tensor": {"dtype": "DT_FLOAT", "tensorShape": {"dim": [{"size": "3"}, {"size": "3"}, {"size": "320"}, {"size": "320"}]}}}, "dtype": {"type": "DT_FLOAT"}}}, {"name": "1834", "op": "Const", "attr": {"dtype": {"type": "DT_FLOAT"}, "value": {"tensor": {"dtype": "DT_FLOAT", "tensorShape": {"dim": [{"size": "320"}]}}}}}, {"name": "1846", "op": "Const", "attr": {"value": {"tensor": {"dtype": "DT_FLOAT", "tensorShape": {"dim": [{"size": "3"}, {"size": "3"}, {"size": "320"}, {"size": "320"}]}}}, "dtype": {"type": "DT_FLOAT"}}}, {"name": "1858", "op": "Const", "attr": {"dtype": {"type": "DT_FLOAT"}, "value": {"tensor": {"dtype": "DT_FLOAT", "tensorShape": {"dim": [{"size": "320"}]}}}}}, {"name": "1870", "op": "Const", "attr": {"dtype": {"type": "DT_FLOAT"}, "value": {"tensor": {"dtype": "DT_FLOAT", "tensorShape": {"dim": [{"size": "1"}, {"size": "1"}, {"size": "320"}, {"size": "1"}]}}}}}, {"name": "1884", "op": "Const", "attr": {"dtype": {"type": "DT_FLOAT"}, "value": {"tensor": {"dtype": "DT_FLOAT", "tensorShape": {"dim": [{"size": "1"}]}}}}}, {"name": "PartitionedCall/model_1/tf.concat_10/concat/axis", "op": "Const", "attr": {"dtype": {"type": "DT_INT32"}, "value": {"tensor": {"dtype": "DT_INT32", "tensorShape": {}}}}}, {"name": "PartitionedCall/model_1/tf.compat.v1.transpose/transpose/perm", "op": "Const", "attr": {"dtype": {"type": "DT_INT32"}, "value": {"tensor": {"dtype": "DT_INT32", "tensorShape": {"dim": [{"size": "4"}]}}}}}, {"name": "PartitionedCall/model_1/tf.reshape/Reshape/shape", "op": "Const", "attr": {"dtype": {"type": "DT_INT32"}, "value": {"tensor": {"dtype": "DT_INT32", "tensorShape": {"dim": [{"size": "3"}]}}}}}, {"name": "1820", "op": "Const", "attr": {"dtype": {"type": "DT_FLOAT"}, "value": {"tensor": {"dtype": "DT_FLOAT", "tensorShape": {"dim": [{"size": "3"}, {"size": "3"}, {"size": "640"}, {"size": "80"}]}}}}}, {"name": "1832", "op": "Const", "attr": {"dtype": {"type": "DT_FLOAT"}, "value": {"tensor": {"dtype": "DT_FLOAT", "tensorShape": {"dim": [{"size": "80"}]}}}}}, {"name": "1844", "op": "Const", "attr": {"value": {"tensor": {"dtype": "DT_FLOAT", "tensorShape": {"dim": [{"size": "3"}, {"size": "3"}, {"size": "80"}, {"size": "80"}]}}}, "dtype": {"type": "DT_FLOAT"}}}, {"name": "1856", "op": "Const", "attr": {"value": {"tensor": {"dtype": "DT_FLOAT", "tensorShape": {"dim": [{"size": "80"}]}}}, "dtype": {"type": "DT_FLOAT"}}}, {"name": "1868", "op": "Const", "attr": {"dtype": {"type": "DT_FLOAT"}, "value": {"tensor": {"dtype": "DT_FLOAT", "tensorShape": {"dim": [{"size": "1"}, {"size": "1"}, {"size": "80"}, {"size": "64"}]}}}}}, {"name": "1878", "op": "Const", "attr": {"value": {"tensor": {"dtype": "DT_FLOAT", "tensorShape": {"dim": [{"size": "64"}]}}}, "dtype": {"type": "DT_FLOAT"}}}, {"name": "1818", "op": "Const", "attr": {"value": {"tensor": {"dtype": "DT_FLOAT", "tensorShape": {"dim": [{"size": "3"}, {"size": "3"}, {"size": "640"}, {"size": "320"}]}}}, "dtype": {"type": "DT_FLOAT"}}}, {"name": "1830", "op": "Const", "attr": {"value": {"tensor": {"dtype": "DT_FLOAT", "tensorShape": {"dim": [{"size": "320"}]}}}, "dtype": {"type": "DT_FLOAT"}}}, {"name": "1842", "op": "Const", "attr": {"dtype": {"type": "DT_FLOAT"}, "value": {"tensor": {"dtype": "DT_FLOAT", "tensorShape": {"dim": [{"size": "3"}, {"size": "3"}, {"size": "320"}, {"size": "320"}]}}}}}, {"name": "1854", "op": "Const", "attr": {"value": {"tensor": {"dtype": "DT_FLOAT", "tensorShape": {"dim": [{"size": "320"}]}}}, "dtype": {"type": "DT_FLOAT"}}}, {"name": "1866", "op": "Const", "attr": {"value": {"tensor": {"dtype": "DT_FLOAT", "tensorShape": {"dim": [{"size": "1"}, {"size": "1"}, {"size": "320"}, {"size": "1"}]}}}, "dtype": {"type": "DT_FLOAT"}}}, {"name": "1880", "op": "Const", "attr": {"value": {"tensor": {"dtype": "DT_FLOAT", "tensorShape": {"dim": [{"size": "1"}]}}}, "dtype": {"type": "DT_FLOAT"}}}, {"name": "PartitionedCall/model_1/tf.concat_13/concat/axis", "op": "Const", "attr": {"dtype": {"type": "DT_INT32"}, "value": {"tensor": {"dtype": "DT_INT32", "tensorShape": {}}}}}, {"name": "PartitionedCall/model_1/tf.compat.v1.transpose_1/transpose/perm", "op": "Const", "attr": {"value": {"tensor": {"dtype": "DT_INT32", "tensorShape": {"dim": [{"size": "4"}]}}}, "dtype": {"type": "DT_INT32"}}}, {"name": "PartitionedCall/model_1/tf.reshape_1/Reshape/shape", "op": "Const", "attr": {"value": {"tensor": {"dtype": "DT_INT32", "tensorShape": {"dim": [{"size": "3"}]}}}, "dtype": {"type": "DT_INT32"}}}, {"name": "1816", "op": "Const", "attr": {"value": {"tensor": {"dtype": "DT_FLOAT", "tensorShape": {"dim": [{"size": "3"}, {"size": "3"}, {"size": "640"}, {"size": "80"}]}}}, "dtype": {"type": "DT_FLOAT"}}}, {"name": "1828", "op": "Const", "attr": {"value": {"tensor": {"dtype": "DT_FLOAT", "tensorShape": {"dim": [{"size": "80"}]}}}, "dtype": {"type": "DT_FLOAT"}}}, {"name": "1840", "op": "Const", "attr": {"value": {"tensor": {"dtype": "DT_FLOAT", "tensorShape": {"dim": [{"size": "3"}, {"size": "3"}, {"size": "80"}, {"size": "80"}]}}}, "dtype": {"type": "DT_FLOAT"}}}, {"name": "1852", "op": "Const", "attr": {"dtype": {"type": "DT_FLOAT"}, "value": {"tensor": {"dtype": "DT_FLOAT", "tensorShape": {"dim": [{"size": "80"}]}}}}}, {"name": "1864", "op": "Const", "attr": {"dtype": {"type": "DT_FLOAT"}, "value": {"tensor": {"dtype": "DT_FLOAT", "tensorShape": {"dim": [{"size": "1"}, {"size": "1"}, {"size": "80"}, {"size": "64"}]}}}}}, {"name": "1874", "op": "Const", "attr": {"dtype": {"type": "DT_FLOAT"}, "value": {"tensor": {"dtype": "DT_FLOAT", "tensorShape": {"dim": [{"size": "64"}]}}}}}, {"name": "1806", "op": "Const", "attr": {"dtype": {"type": "DT_INT64"}, "value": {"tensor": {"dtype": "DT_INT64", "tensorShape": {"dim": [{"size": "4"}]}}}}}, {"name": "1808", "op": "Const", "attr": {"dtype": {"type": "DT_INT64"}, "value": {"tensor": {"dtype": "DT_INT64", "tensorShape": {"dim": [{"size": "4"}]}}}}}, {"name": "PartitionedCall/model_1/tf.strided_slice_29/ones_like", "op": "Const", "attr": {"value": {"tensor": {"dtype": "DT_INT64", "tensorShape": {"dim": [{"size": "4"}]}}}, "dtype": {"type": "DT_INT64"}}}, {"name": "1760", "op": "Const", "attr": {"dtype": {"type": "DT_INT64"}, "value": {"tensor": {"dtype": "DT_INT64", "tensorShape": {"dim": [{"size": "4"}]}}}}}, {"name": "1762", "op": "Const", "attr": {"dtype": {"type": "DT_INT64"}, "value": {"tensor": {"dtype": "DT_INT64", "tensorShape": {"dim": [{"size": "4"}]}}}}}, {"name": "PartitionedCall/model_1/tf.strided_slice_25/ones_like", "op": "Const", "attr": {"value": {"tensor": {"dtype": "DT_INT64", "tensorShape": {"dim": [{"size": "4"}]}}}, "dtype": {"type": "DT_INT64"}}}, {"name": "1714", "op": "Const", "attr": {"value": {"tensor": {"dtype": "DT_INT64", "tensorShape": {"dim": [{"size": "4"}]}}}, "dtype": {"type": "DT_INT64"}}}, {"name": "1716", "op": "Const", "attr": {"value": {"tensor": {"dtype": "DT_INT64", "tensorShape": {"dim": [{"size": "4"}]}}}, "dtype": {"type": "DT_INT64"}}}, {"name": "PartitionedCall/model_1/tf.strided_slice_21/ones_like", "op": "Const", "attr": {"dtype": {"type": "DT_INT64"}, "value": {"tensor": {"dtype": "DT_INT64", "tensorShape": {"dim": [{"size": "4"}]}}}}}, {"name": "PartitionedCall/model_1/lambda_1//model.13/Resize/size", "op": "Const", "attr": {"value": {"tensor": {"dtype": "DT_INT32", "tensorShape": {"dim": [{"size": "2"}]}}}, "dtype": {"type": "DT_INT32"}}}, {"name": "PartitionedCall/model_1/tf.concat_7/concat/axis", "op": "Const", "attr": {"dtype": {"type": "DT_INT32"}, "value": {"tensor": {"dtype": "DT_INT32", "tensorShape": {}}}}}, {"name": "1682", "op": "Const", "attr": {"dtype": {"type": "DT_FLOAT"}, "value": {"tensor": {"dtype": "DT_FLOAT", "tensorShape": {"dim": [{"size": "1"}, {"size": "1"}, {"size": "960"}, {"size": "320"}]}}}}}, {"name": "1684", "op": "Const", "attr": {"value": {"tensor": {"dtype": "DT_FLOAT", "tensorShape": {"dim": [{"size": "320"}]}}}, "dtype": {"type": "DT_FLOAT"}}}, {"name": "1686", "op": "Const", "attr": {"value": {"tensor": {"dtype": "DT_INT64", "tensorShape": {"dim": [{"size": "4"}]}}}, "dtype": {"type": "DT_INT64"}}}, {"name": "1688", "op": "Const", "attr": {"dtype": {"type": "DT_INT64"}, "value": {"tensor": {"dtype": "DT_INT64", "tensorShape": {"dim": [{"size": "4"}]}}}}}, {"name": "PartitionedCall/model_1/tf.strided_slice_23/ones_like", "op": "Const", "attr": {"dtype": {"type": "DT_INT64"}, "value": {"tensor": {"dtype": "DT_INT64", "tensorShape": {"dim": [{"size": "4"}]}}}}}, {"name": "1690", "op": "Const", "attr": {"dtype": {"type": "DT_FLOAT"}, "value": {"tensor": {"dtype": "DT_FLOAT", "tensorShape": {"dim": [{"size": "3"}, {"size": "3"}, {"size": "160"}, {"size": "160"}]}}}}}, {"name": "1692", "op": "Const", "attr": {"dtype": {"type": "DT_FLOAT"}, "value": {"tensor": {"dtype": "DT_FLOAT", "tensorShape": {"dim": [{"size": "160"}]}}}}}, {"name": "1694", "op": "Const", "attr": {"dtype": {"type": "DT_FLOAT"}, "value": {"tensor": {"dtype": "DT_FLOAT", "tensorShape": {"dim": [{"size": "3"}, {"size": "3"}, {"size": "160"}, {"size": "160"}]}}}}}, {"name": "1696", "op": "Const", "attr": {"value": {"tensor": {"dtype": "DT_FLOAT", "tensorShape": {"dim": [{"size": "160"}]}}}, "dtype": {"type": "DT_FLOAT"}}}, {"name": "1698", "op": "Const", "attr": {"dtype": {"type": "DT_FLOAT"}, "value": {"tensor": {"dtype": "DT_FLOAT", "tensorShape": {"dim": [{"size": "3"}, {"size": "3"}, {"size": "160"}, {"size": "160"}]}}}}}, {"name": "1700", "op": "Const", "attr": {"value": {"tensor": {"dtype": "DT_FLOAT", "tensorShape": {"dim": [{"size": "160"}]}}}, "dtype": {"type": "DT_FLOAT"}}}, {"name": "1702", "op": "Const", "attr": {"value": {"tensor": {"dtype": "DT_FLOAT", "tensorShape": {"dim": [{"size": "3"}, {"size": "3"}, {"size": "160"}, {"size": "160"}]}}}, "dtype": {"type": "DT_FLOAT"}}}, {"name": "1704", "op": "Const", "attr": {"value": {"tensor": {"dtype": "DT_FLOAT", "tensorShape": {"dim": [{"size": "160"}]}}}, "dtype": {"type": "DT_FLOAT"}}}, {"name": "1706", "op": "Const", "attr": {"value": {"tensor": {"dtype": "DT_FLOAT", "tensorShape": {"dim": [{"size": "3"}, {"size": "3"}, {"size": "160"}, {"size": "160"}]}}}, "dtype": {"type": "DT_FLOAT"}}}, {"name": "1708", "op": "Const", "attr": {"dtype": {"type": "DT_FLOAT"}, "value": {"tensor": {"dtype": "DT_FLOAT", "tensorShape": {"dim": [{"size": "160"}]}}}}}, {"name": "1710", "op": "Const", "attr": {"dtype": {"type": "DT_FLOAT"}, "value": {"tensor": {"dtype": "DT_FLOAT", "tensorShape": {"dim": [{"size": "3"}, {"size": "3"}, {"size": "160"}, {"size": "160"}]}}}}}, {"name": "1712", "op": "Const", "attr": {"value": {"tensor": {"dtype": "DT_FLOAT", "tensorShape": {"dim": [{"size": "160"}]}}}, "dtype": {"type": "DT_FLOAT"}}}, {"name": "PartitionedCall/model_1/tf.concat_8/concat/axis", "op": "Const", "attr": {"value": {"tensor": {"dtype": "DT_INT32", "tensorShape": {}}}, "dtype": {"type": "DT_INT32"}}}, {"name": "1718", "op": "Const", "attr": {"value": {"tensor": {"dtype": "DT_FLOAT", "tensorShape": {"dim": [{"size": "1"}, {"size": "1"}, {"size": "800"}, {"size": "320"}]}}}, "dtype": {"type": "DT_FLOAT"}}}, {"name": "1720", "op": "Const", "attr": {"dtype": {"type": "DT_FLOAT"}, "value": {"tensor": {"dtype": "DT_FLOAT", "tensorShape": {"dim": [{"size": "320"}]}}}}}, {"name": "1722", "op": "Const", "attr": {"value": {"tensor": {"dtype": "DT_INT32", "tensorShape": {"dim": [{"size": "4"}, {"size": "2"}]}}}, "dtype": {"type": "DT_INT32"}}}, {"name": "1724", "op": "Const", "attr": {"value": {"tensor": {"dtype": "DT_FLOAT", "tensorShape": {"dim": [{"size": "3"}, {"size": "3"}, {"size": "320"}, {"size": "320"}]}}}, "dtype": {"type": "DT_FLOAT"}}}, {"name": "1726", "op": "Const", "attr": {"value": {"tensor": {"dtype": "DT_FLOAT", "tensorShape": {"dim": [{"size": "320"}]}}}, "dtype": {"type": "DT_FLOAT"}}}, {"name": "1674", "op": "Const", "attr": {"value": {"tensor": {"dtype": "DT_INT64", "tensorShape": {"dim": [{"size": "4"}]}}}, "dtype": {"type": "DT_INT64"}}}, {"name": "1676", "op": "Const", "attr": {"dtype": {"type": "DT_INT64"}, "value": {"tensor": {"dtype": "DT_INT64", "tensorShape": {"dim": [{"size": "4"}]}}}}}, {"name": "PartitionedCall/model_1/tf.strided_slice_17/ones_like", "op": "Const", "attr": {"value": {"tensor": {"dtype": "DT_INT64", "tensorShape": {"dim": [{"size": "4"}]}}}, "dtype": {"type": "DT_INT64"}}}, {"name": "PartitionedCall/model_1/lambda//model.10/Resize/size", "op": "Const", "attr": {"value": {"tensor": {"dtype": "DT_INT32", "tensorShape": {"dim": [{"size": "2"}]}}}, "dtype": {"type": "DT_INT32"}}}, {"name": "PartitionedCall/model_1/tf.concat_5/concat/axis", "op": "Const", "attr": {"dtype": {"type": "DT_INT32"}, "value": {"tensor": {"dtype": "DT_INT32", "tensorShape": {}}}}}, {"name": "1642", "op": "Const", "attr": {"value": {"tensor": {"dtype": "DT_FLOAT", "tensorShape": {"dim": [{"size": "1"}, {"size": "1"}, {"size": "1280"}, {"size": "640"}]}}}, "dtype": {"type": "DT_FLOAT"}}}, {"name": "1644", "op": "Const", "attr": {"dtype": {"type": "DT_FLOAT"}, "value": {"tensor": {"dtype": "DT_FLOAT", "tensorShape": {"dim": [{"size": "640"}]}}}}}, {"name": "1646", "op": "Const", "attr": {"dtype": {"type": "DT_INT64"}, "value": {"tensor": {"dtype": "DT_INT64", "tensorShape": {"dim": [{"size": "4"}]}}}}}, {"name": "1648", "op": "Const", "attr": {"value": {"tensor": {"dtype": "DT_INT64", "tensorShape": {"dim": [{"size": "4"}]}}}, "dtype": {"type": "DT_INT64"}}}, {"name": "PartitionedCall/model_1/tf.strided_slice_19/ones_like", "op": "Const", "attr": {"value": {"tensor": {"dtype": "DT_INT64", "tensorShape": {"dim": [{"size": "4"}]}}}, "dtype": {"type": "DT_INT64"}}}, {"name": "1650", "op": "Const", "attr": {"value": {"tensor": {"dtype": "DT_FLOAT", "tensorShape": {"dim": [{"size": "3"}, {"size": "3"}, {"size": "320"}, {"size": "320"}]}}}, "dtype": {"type": "DT_FLOAT"}}}, {"name": "1652", "op": "Const", "attr": {"dtype": {"type": "DT_FLOAT"}, "value": {"tensor": {"dtype": "DT_FLOAT", "tensorShape": {"dim": [{"size": "320"}]}}}}}, {"name": "1654", "op": "Const", "attr": {"value": {"tensor": {"dtype": "DT_FLOAT", "tensorShape": {"dim": [{"size": "3"}, {"size": "3"}, {"size": "320"}, {"size": "320"}]}}}, "dtype": {"type": "DT_FLOAT"}}}, {"name": "1656", "op": "Const", "attr": {"dtype": {"type": "DT_FLOAT"}, "value": {"tensor": {"dtype": "DT_FLOAT", "tensorShape": {"dim": [{"size": "320"}]}}}}}, {"name": "1658", "op": "Const", "attr": {"value": {"tensor": {"dtype": "DT_FLOAT", "tensorShape": {"dim": [{"size": "3"}, {"size": "3"}, {"size": "320"}, {"size": "320"}]}}}, "dtype": {"type": "DT_FLOAT"}}}, {"name": "1660", "op": "Const", "attr": {"dtype": {"type": "DT_FLOAT"}, "value": {"tensor": {"dtype": "DT_FLOAT", "tensorShape": {"dim": [{"size": "320"}]}}}}}, {"name": "1662", "op": "Const", "attr": {"value": {"tensor": {"dtype": "DT_FLOAT", "tensorShape": {"dim": [{"size": "3"}, {"size": "3"}, {"size": "320"}, {"size": "320"}]}}}, "dtype": {"type": "DT_FLOAT"}}}, {"name": "1664", "op": "Const", "attr": {"value": {"tensor": {"dtype": "DT_FLOAT", "tensorShape": {"dim": [{"size": "320"}]}}}, "dtype": {"type": "DT_FLOAT"}}}, {"name": "1666", "op": "Const", "attr": {"value": {"tensor": {"dtype": "DT_FLOAT", "tensorShape": {"dim": [{"size": "3"}, {"size": "3"}, {"size": "320"}, {"size": "320"}]}}}, "dtype": {"type": "DT_FLOAT"}}}, {"name": "1668", "op": "Const", "attr": {"value": {"tensor": {"dtype": "DT_FLOAT", "tensorShape": {"dim": [{"size": "320"}]}}}, "dtype": {"type": "DT_FLOAT"}}}, {"name": "1670", "op": "Const", "attr": {"dtype": {"type": "DT_FLOAT"}, "value": {"tensor": {"dtype": "DT_FLOAT", "tensorShape": {"dim": [{"size": "3"}, {"size": "3"}, {"size": "320"}, {"size": "320"}]}}}}}, {"name": "1672", "op": "Const", "attr": {"value": {"tensor": {"dtype": "DT_FLOAT", "tensorShape": {"dim": [{"size": "320"}]}}}, "dtype": {"type": "DT_FLOAT"}}}, {"name": "PartitionedCall/model_1/tf.concat_6/concat/axis", "op": "Const", "attr": {"value": {"tensor": {"dtype": "DT_INT32", "tensorShape": {}}}, "dtype": {"type": "DT_INT32"}}}, {"name": "1678", "op": "Const", "attr": {"dtype": {"type": "DT_FLOAT"}, "value": {"tensor": {"dtype": "DT_FLOAT", "tensorShape": {"dim": [{"size": "1"}, {"size": "1"}, {"size": "1600"}, {"size": "640"}]}}}}}, {"name": "1680", "op": "Const", "attr": {"dtype": {"type": "DT_FLOAT"}, "value": {"tensor": {"dtype": "DT_FLOAT", "tensorShape": {"dim": [{"size": "640"}]}}}}}, {"name": "PartitionedCall/model_1/tf.concat_9/concat/axis", "op": "Const", "attr": {"value": {"tensor": {"dtype": "DT_INT32", "tensorShape": {}}}, "dtype": {"type": "DT_INT32"}}}, {"name": "1728", "op": "Const", "attr": {"dtype": {"type": "DT_FLOAT"}, "value": {"tensor": {"dtype": "DT_FLOAT", "tensorShape": {"dim": [{"size": "1"}, {"size": "1"}, {"size": "960"}, {"size": "640"}]}}}}}, {"name": "1730", "op": "Const", "attr": {"value": {"tensor": {"dtype": "DT_FLOAT", "tensorShape": {"dim": [{"size": "640"}]}}}, "dtype": {"type": "DT_FLOAT"}}}, {"name": "1732", "op": "Const", "attr": {"value": {"tensor": {"dtype": "DT_INT64", "tensorShape": {"dim": [{"size": "4"}]}}}, "dtype": {"type": "DT_INT64"}}}, {"name": "1734", "op": "Const", "attr": {"value": {"tensor": {"dtype": "DT_INT64", "tensorShape": {"dim": [{"size": "4"}]}}}, "dtype": {"type": "DT_INT64"}}}, {"name": "PartitionedCall/model_1/tf.strided_slice_27/ones_like", "op": "Const", "attr": {"dtype": {"type": "DT_INT64"}, "value": {"tensor": {"dtype": "DT_INT64", "tensorShape": {"dim": [{"size": "4"}]}}}}}, {"name": "1736", "op": "Const", "attr": {"dtype": {"type": "DT_FLOAT"}, "value": {"tensor": {"dtype": "DT_FLOAT", "tensorShape": {"dim": [{"size": "3"}, {"size": "3"}, {"size": "320"}, {"size": "320"}]}}}}}, {"name": "1738", "op": "Const", "attr": {"value": {"tensor": {"dtype": "DT_FLOAT", "tensorShape": {"dim": [{"size": "320"}]}}}, "dtype": {"type": "DT_FLOAT"}}}, {"name": "1740", "op": "Const", "attr": {"dtype": {"type": "DT_FLOAT"}, "value": {"tensor": {"dtype": "DT_FLOAT", "tensorShape": {"dim": [{"size": "3"}, {"size": "3"}, {"size": "320"}, {"size": "320"}]}}}}}, {"name": "1742", "op": "Const", "attr": {"value": {"tensor": {"dtype": "DT_FLOAT", "tensorShape": {"dim": [{"size": "320"}]}}}, "dtype": {"type": "DT_FLOAT"}}}, {"name": "1744", "op": "Const", "attr": {"value": {"tensor": {"dtype": "DT_FLOAT", "tensorShape": {"dim": [{"size": "3"}, {"size": "3"}, {"size": "320"}, {"size": "320"}]}}}, "dtype": {"type": "DT_FLOAT"}}}, {"name": "1746", "op": "Const", "attr": {"dtype": {"type": "DT_FLOAT"}, "value": {"tensor": {"dtype": "DT_FLOAT", "tensorShape": {"dim": [{"size": "320"}]}}}}}, {"name": "1748", "op": "Const", "attr": {"dtype": {"type": "DT_FLOAT"}, "value": {"tensor": {"dtype": "DT_FLOAT", "tensorShape": {"dim": [{"size": "3"}, {"size": "3"}, {"size": "320"}, {"size": "320"}]}}}}}, {"name": "1750", "op": "Const", "attr": {"dtype": {"type": "DT_FLOAT"}, "value": {"tensor": {"dtype": "DT_FLOAT", "tensorShape": {"dim": [{"size": "320"}]}}}}}, {"name": "1752", "op": "Const", "attr": {"dtype": {"type": "DT_FLOAT"}, "value": {"tensor": {"dtype": "DT_FLOAT", "tensorShape": {"dim": [{"size": "3"}, {"size": "3"}, {"size": "320"}, {"size": "320"}]}}}}}, {"name": "1754", "op": "Const", "attr": {"value": {"tensor": {"dtype": "DT_FLOAT", "tensorShape": {"dim": [{"size": "320"}]}}}, "dtype": {"type": "DT_FLOAT"}}}, {"name": "1756", "op": "Const", "attr": {"value": {"tensor": {"dtype": "DT_FLOAT", "tensorShape": {"dim": [{"size": "3"}, {"size": "3"}, {"size": "320"}, {"size": "320"}]}}}, "dtype": {"type": "DT_FLOAT"}}}, {"name": "1758", "op": "Const", "attr": {"dtype": {"type": "DT_FLOAT"}, "value": {"tensor": {"dtype": "DT_FLOAT", "tensorShape": {"dim": [{"size": "320"}]}}}}}, {"name": "PartitionedCall/model_1/tf.concat_11/concat/axis", "op": "Const", "attr": {"dtype": {"type": "DT_INT32"}, "value": {"tensor": {"dtype": "DT_INT32", "tensorShape": {}}}}}, {"name": "1764", "op": "Const", "attr": {"value": {"tensor": {"dtype": "DT_FLOAT", "tensorShape": {"dim": [{"size": "1"}, {"size": "1"}, {"size": "1600"}, {"size": "640"}]}}}, "dtype": {"type": "DT_FLOAT"}}}, {"name": "1766", "op": "Const", "attr": {"value": {"tensor": {"dtype": "DT_FLOAT", "tensorShape": {"dim": [{"size": "640"}]}}}, "dtype": {"type": "DT_FLOAT"}}}, {"name": "1768", "op": "Const", "attr": {"dtype": {"type": "DT_INT32"}, "value": {"tensor": {"dtype": "DT_INT32", "tensorShape": {"dim": [{"size": "4"}, {"size": "2"}]}}}}}, {"name": "1770", "op": "Const", "attr": {"dtype": {"type": "DT_FLOAT"}, "value": {"tensor": {"dtype": "DT_FLOAT", "tensorShape": {"dim": [{"size": "3"}, {"size": "3"}, {"size": "640"}, {"size": "640"}]}}}}}, {"name": "1772", "op": "Const", "attr": {"dtype": {"type": "DT_FLOAT"}, "value": {"tensor": {"dtype": "DT_FLOAT", "tensorShape": {"dim": [{"size": "640"}]}}}}}, {"name": "1626", "op": "Const", "attr": {"value": {"tensor": {"dtype": "DT_INT64", "tensorShape": {"dim": [{"size": "4"}]}}}, "dtype": {"type": "DT_INT64"}}}, {"name": "1628", "op": "Const", "attr": {"value": {"tensor": {"dtype": "DT_INT64", "tensorShape": {"dim": [{"size": "4"}]}}}, "dtype": {"type": "DT_INT64"}}}, {"name": "PartitionedCall/model_1/tf.strided_slice_13/ones_like", "op": "Const", "attr": {"dtype": {"type": "DT_INT64"}, "value": {"tensor": {"dtype": "DT_INT64", "tensorShape": {"dim": [{"size": "4"}]}}}}}, {"name": "1580", "op": "Const", "attr": {"value": {"tensor": {"dtype": "DT_INT64", "tensorShape": {"dim": [{"size": "4"}]}}}, "dtype": {"type": "DT_INT64"}}}, {"name": "1582", "op": "Const", "attr": {"dtype": {"type": "DT_INT64"}, "value": {"tensor": {"dtype": "DT_INT64", "tensorShape": {"dim": [{"size": "4"}]}}}}}, {"name": "PartitionedCall/model_1/tf.strided_slice_9/ones_like", "op": "Const", "attr": {"dtype": {"type": "DT_INT64"}, "value": {"tensor": {"dtype": "DT_INT64", "tensorShape": {"dim": [{"size": "4"}]}}}}}, {"name": "1510", "op": "Const", "attr": {"dtype": {"type": "DT_INT64"}, "value": {"tensor": {"dtype": "DT_INT64", "tensorShape": {"dim": [{"size": "4"}]}}}}}, {"name": "1512", "op": "Const", "attr": {"dtype": {"type": "DT_INT64"}, "value": {"tensor": {"dtype": "DT_INT64", "tensorShape": {"dim": [{"size": "4"}]}}}}}, {"name": "PartitionedCall/model_1/tf.strided_slice_5/ones_like", "op": "Const", "attr": {"value": {"tensor": {"dtype": "DT_INT64", "tensorShape": {"dim": [{"size": "4"}]}}}, "dtype": {"type": "DT_INT64"}}}, {"name": "1440", "op": "Const", "attr": {"dtype": {"type": "DT_INT64"}, "value": {"tensor": {"dtype": "DT_INT64", "tensorShape": {"dim": [{"size": "4"}]}}}}}, {"name": "1442", "op": "Const", "attr": {"dtype": {"type": "DT_INT64"}, "value": {"tensor": {"dtype": "DT_INT64", "tensorShape": {"dim": [{"size": "4"}]}}}}}, {"name": "PartitionedCall/model_1/tf.strided_slice_1/ones_like", "op": "Const", "attr": {"value": {"tensor": {"dtype": "DT_INT64", "tensorShape": {"dim": [{"size": "4"}]}}}, "dtype": {"type": "DT_INT64"}}}, {"name": "1396", "op": "Const", "attr": {"dtype": {"type": "DT_INT32"}, "value": {"tensor": {"dtype": "DT_INT32", "tensorShape": {"dim": [{"size": "4"}, {"size": "2"}]}}}}}, {"name": "1398", "op": "Const", "attr": {"value": {"tensor": {"dtype": "DT_FLOAT", "tensorShape": {"dim": [{"size": "3"}, {"size": "3"}, {"size": "3"}, {"size": "80"}]}}}, "dtype": {"type": "DT_FLOAT"}}}, {"name": "1400", "op": "Const", "attr": {"dtype": {"type": "DT_FLOAT"}, "value": {"tensor": {"dtype": "DT_FLOAT", "tensorShape": {"dim": [{"size": "80"}]}}}}}, {"name": "1402", "op": "Const", "attr": {"value": {"tensor": {"dtype": "DT_INT32", "tensorShape": {"dim": [{"size": "4"}, {"size": "2"}]}}}, "dtype": {"type": "DT_INT32"}}}, {"name": "1404", "op": "Const", "attr": {"value": {"tensor": {"dtype": "DT_FLOAT", "tensorShape": {"dim": [{"size": "3"}, {"size": "3"}, {"size": "80"}, {"size": "160"}]}}}, "dtype": {"type": "DT_FLOAT"}}}, {"name": "1406", "op": "Const", "attr": {"dtype": {"type": "DT_FLOAT"}, "value": {"tensor": {"dtype": "DT_FLOAT", "tensorShape": {"dim": [{"size": "160"}]}}}}}, {"name": "1408", "op": "Const", "attr": {"dtype": {"type": "DT_FLOAT"}, "value": {"tensor": {"dtype": "DT_FLOAT", "tensorShape": {"dim": [{"size": "1"}, {"size": "1"}, {"size": "160"}, {"size": "160"}]}}}}}, {"name": "1410", "op": "Const", "attr": {"dtype": {"type": "DT_FLOAT"}, "value": {"tensor": {"dtype": "DT_FLOAT", "tensorShape": {"dim": [{"size": "160"}]}}}}}, {"name": "1412", "op": "Const", "attr": {"dtype": {"type": "DT_INT64"}, "value": {"tensor": {"dtype": "DT_INT64", "tensorShape": {"dim": [{"size": "4"}]}}}}}, {"name": "1414", "op": "Const", "attr": {"value": {"tensor": {"dtype": "DT_INT64", "tensorShape": {"dim": [{"size": "4"}]}}}, "dtype": {"type": "DT_INT64"}}}, {"name": "PartitionedCall/model_1/tf.strided_slice_3/ones_like", "op": "Const", "attr": {"dtype": {"type": "DT_INT64"}, "value": {"tensor": {"dtype": "DT_INT64", "tensorShape": {"dim": [{"size": "4"}]}}}}}, {"name": "1416", "op": "Const", "attr": {"value": {"tensor": {"dtype": "DT_FLOAT", "tensorShape": {"dim": [{"size": "3"}, {"size": "3"}, {"size": "80"}, {"size": "80"}]}}}, "dtype": {"type": "DT_FLOAT"}}}, {"name": "1418", "op": "Const", "attr": {"dtype": {"type": "DT_FLOAT"}, "value": {"tensor": {"dtype": "DT_FLOAT", "tensorShape": {"dim": [{"size": "80"}]}}}}}, {"name": "1420", "op": "Const", "attr": {"value": {"tensor": {"dtype": "DT_FLOAT", "tensorShape": {"dim": [{"size": "3"}, {"size": "3"}, {"size": "80"}, {"size": "80"}]}}}, "dtype": {"type": "DT_FLOAT"}}}, {"name": "1422", "op": "Const", "attr": {"value": {"tensor": {"dtype": "DT_FLOAT", "tensorShape": {"dim": [{"size": "80"}]}}}, "dtype": {"type": "DT_FLOAT"}}}, {"name": "1424", "op": "Const", "attr": {"value": {"tensor": {"dtype": "DT_FLOAT", "tensorShape": {"dim": [{"size": "3"}, {"size": "3"}, {"size": "80"}, {"size": "80"}]}}}, "dtype": {"type": "DT_FLOAT"}}}, {"name": "1426", "op": "Const", "attr": {"dtype": {"type": "DT_FLOAT"}, "value": {"tensor": {"dtype": "DT_FLOAT", "tensorShape": {"dim": [{"size": "80"}]}}}}}, {"name": "1428", "op": "Const", "attr": {"dtype": {"type": "DT_FLOAT"}, "value": {"tensor": {"dtype": "DT_FLOAT", "tensorShape": {"dim": [{"size": "3"}, {"size": "3"}, {"size": "80"}, {"size": "80"}]}}}}}, {"name": "1430", "op": "Const", "attr": {"dtype": {"type": "DT_FLOAT"}, "value": {"tensor": {"dtype": "DT_FLOAT", "tensorShape": {"dim": [{"size": "80"}]}}}}}, {"name": "1432", "op": "Const", "attr": {"value": {"tensor": {"dtype": "DT_FLOAT", "tensorShape": {"dim": [{"size": "3"}, {"size": "3"}, {"size": "80"}, {"size": "80"}]}}}, "dtype": {"type": "DT_FLOAT"}}}, {"name": "1434", "op": "Const", "attr": {"value": {"tensor": {"dtype": "DT_FLOAT", "tensorShape": {"dim": [{"size": "80"}]}}}, "dtype": {"type": "DT_FLOAT"}}}, {"name": "1436", "op": "Const", "attr": {"value": {"tensor": {"dtype": "DT_FLOAT", "tensorShape": {"dim": [{"size": "3"}, {"size": "3"}, {"size": "80"}, {"size": "80"}]}}}, "dtype": {"type": "DT_FLOAT"}}}, {"name": "1438", "op": "Const", "attr": {"value": {"tensor": {"dtype": "DT_FLOAT", "tensorShape": {"dim": [{"size": "80"}]}}}, "dtype": {"type": "DT_FLOAT"}}}, {"name": "PartitionedCall/model_1/tf.concat/concat/axis", "op": "Const", "attr": {"value": {"tensor": {"dtype": "DT_INT32", "tensorShape": {}}}, "dtype": {"type": "DT_INT32"}}}, {"name": "1444", "op": "Const", "attr": {"dtype": {"type": "DT_FLOAT"}, "value": {"tensor": {"dtype": "DT_FLOAT", "tensorShape": {"dim": [{"size": "1"}, {"size": "1"}, {"size": "400"}, {"size": "160"}]}}}}}, {"name": "1446", "op": "Const", "attr": {"value": {"tensor": {"dtype": "DT_FLOAT", "tensorShape": {"dim": [{"size": "160"}]}}}, "dtype": {"type": "DT_FLOAT"}}}, {"name": "1448", "op": "Const", "attr": {"dtype": {"type": "DT_INT32"}, "value": {"tensor": {"dtype": "DT_INT32", "tensorShape": {"dim": [{"size": "4"}, {"size": "2"}]}}}}}, {"name": "1450", "op": "Const", "attr": {"dtype": {"type": "DT_FLOAT"}, "value": {"tensor": {"dtype": "DT_FLOAT", "tensorShape": {"dim": [{"size": "3"}, {"size": "3"}, {"size": "160"}, {"size": "320"}]}}}}}, {"name": "1452", "op": "Const", "attr": {"value": {"tensor": {"dtype": "DT_FLOAT", "tensorShape": {"dim": [{"size": "320"}]}}}, "dtype": {"type": "DT_FLOAT"}}}, {"name": "1454", "op": "Const", "attr": {"value": {"tensor": {"dtype": "DT_FLOAT", "tensorShape": {"dim": [{"size": "1"}, {"size": "1"}, {"size": "320"}, {"size": "320"}]}}}, "dtype": {"type": "DT_FLOAT"}}}, {"name": "1456", "op": "Const", "attr": {"value": {"tensor": {"dtype": "DT_FLOAT", "tensorShape": {"dim": [{"size": "320"}]}}}, "dtype": {"type": "DT_FLOAT"}}}, {"name": "1458", "op": "Const", "attr": {"dtype": {"type": "DT_INT64"}, "value": {"tensor": {"dtype": "DT_INT64", "tensorShape": {"dim": [{"size": "4"}]}}}}}, {"name": "1460", "op": "Const", "attr": {"value": {"tensor": {"dtype": "DT_INT64", "tensorShape": {"dim": [{"size": "4"}]}}}, "dtype": {"type": "DT_INT64"}}}, {"name": "PartitionedCall/model_1/tf.strided_slice_7/ones_like", "op": "Const", "attr": {"dtype": {"type": "DT_INT64"}, "value": {"tensor": {"dtype": "DT_INT64", "tensorShape": {"dim": [{"size": "4"}]}}}}}, {"name": "1462", "op": "Const", "attr": {"dtype": {"type": "DT_FLOAT"}, "value": {"tensor": {"dtype": "DT_FLOAT", "tensorShape": {"dim": [{"size": "3"}, {"size": "3"}, {"size": "160"}, {"size": "160"}]}}}}}, {"name": "1464", "op": "Const", "attr": {"value": {"tensor": {"dtype": "DT_FLOAT", "tensorShape": {"dim": [{"size": "160"}]}}}, "dtype": {"type": "DT_FLOAT"}}}, {"name": "1466", "op": "Const", "attr": {"value": {"tensor": {"dtype": "DT_FLOAT", "tensorShape": {"dim": [{"size": "3"}, {"size": "3"}, {"size": "160"}, {"size": "160"}]}}}, "dtype": {"type": "DT_FLOAT"}}}, {"name": "1468", "op": "Const", "attr": {"value": {"tensor": {"dtype": "DT_FLOAT", "tensorShape": {"dim": [{"size": "160"}]}}}, "dtype": {"type": "DT_FLOAT"}}}, {"name": "1470", "op": "Const", "attr": {"value": {"tensor": {"dtype": "DT_FLOAT", "tensorShape": {"dim": [{"size": "3"}, {"size": "3"}, {"size": "160"}, {"size": "160"}]}}}, "dtype": {"type": "DT_FLOAT"}}}, {"name": "1472", "op": "Const", "attr": {"value": {"tensor": {"dtype": "DT_FLOAT", "tensorShape": {"dim": [{"size": "160"}]}}}, "dtype": {"type": "DT_FLOAT"}}}, {"name": "1474", "op": "Const", "attr": {"dtype": {"type": "DT_FLOAT"}, "value": {"tensor": {"dtype": "DT_FLOAT", "tensorShape": {"dim": [{"size": "3"}, {"size": "3"}, {"size": "160"}, {"size": "160"}]}}}}}, {"name": "1476", "op": "Const", "attr": {"dtype": {"type": "DT_FLOAT"}, "value": {"tensor": {"dtype": "DT_FLOAT", "tensorShape": {"dim": [{"size": "160"}]}}}}}, {"name": "1478", "op": "Const", "attr": {"value": {"tensor": {"dtype": "DT_FLOAT", "tensorShape": {"dim": [{"size": "3"}, {"size": "3"}, {"size": "160"}, {"size": "160"}]}}}, "dtype": {"type": "DT_FLOAT"}}}, {"name": "1480", "op": "Const", "attr": {"value": {"tensor": {"dtype": "DT_FLOAT", "tensorShape": {"dim": [{"size": "160"}]}}}, "dtype": {"type": "DT_FLOAT"}}}, {"name": "1482", "op": "Const", "attr": {"dtype": {"type": "DT_FLOAT"}, "value": {"tensor": {"dtype": "DT_FLOAT", "tensorShape": {"dim": [{"size": "3"}, {"size": "3"}, {"size": "160"}, {"size": "160"}]}}}}}, {"name": "1484", "op": "Const", "attr": {"dtype": {"type": "DT_FLOAT"}, "value": {"tensor": {"dtype": "DT_FLOAT", "tensorShape": {"dim": [{"size": "160"}]}}}}}, {"name": "1486", "op": "Const", "attr": {"value": {"tensor": {"dtype": "DT_FLOAT", "tensorShape": {"dim": [{"size": "3"}, {"size": "3"}, {"size": "160"}, {"size": "160"}]}}}, "dtype": {"type": "DT_FLOAT"}}}, {"name": "1488", "op": "Const", "attr": {"value": {"tensor": {"dtype": "DT_FLOAT", "tensorShape": {"dim": [{"size": "160"}]}}}, "dtype": {"type": "DT_FLOAT"}}}, {"name": "1490", "op": "Const", "attr": {"dtype": {"type": "DT_FLOAT"}, "value": {"tensor": {"dtype": "DT_FLOAT", "tensorShape": {"dim": [{"size": "3"}, {"size": "3"}, {"size": "160"}, {"size": "160"}]}}}}}, {"name": "1492", "op": "Const", "attr": {"dtype": {"type": "DT_FLOAT"}, "value": {"tensor": {"dtype": "DT_FLOAT", "tensorShape": {"dim": [{"size": "160"}]}}}}}, {"name": "1494", "op": "Const", "attr": {"value": {"tensor": {"dtype": "DT_FLOAT", "tensorShape": {"dim": [{"size": "3"}, {"size": "3"}, {"size": "160"}, {"size": "160"}]}}}, "dtype": {"type": "DT_FLOAT"}}}, {"name": "1496", "op": "Const", "attr": {"value": {"tensor": {"dtype": "DT_FLOAT", "tensorShape": {"dim": [{"size": "160"}]}}}, "dtype": {"type": "DT_FLOAT"}}}, {"name": "1498", "op": "Const", "attr": {"value": {"tensor": {"dtype": "DT_FLOAT", "tensorShape": {"dim": [{"size": "3"}, {"size": "3"}, {"size": "160"}, {"size": "160"}]}}}, "dtype": {"type": "DT_FLOAT"}}}, {"name": "1500", "op": "Const", "attr": {"dtype": {"type": "DT_FLOAT"}, "value": {"tensor": {"dtype": "DT_FLOAT", "tensorShape": {"dim": [{"size": "160"}]}}}}}, {"name": "1502", "op": "Const", "attr": {"dtype": {"type": "DT_FLOAT"}, "value": {"tensor": {"dtype": "DT_FLOAT", "tensorShape": {"dim": [{"size": "3"}, {"size": "3"}, {"size": "160"}, {"size": "160"}]}}}}}, {"name": "1504", "op": "Const", "attr": {"value": {"tensor": {"dtype": "DT_FLOAT", "tensorShape": {"dim": [{"size": "160"}]}}}, "dtype": {"type": "DT_FLOAT"}}}, {"name": "1506", "op": "Const", "attr": {"dtype": {"type": "DT_FLOAT"}, "value": {"tensor": {"dtype": "DT_FLOAT", "tensorShape": {"dim": [{"size": "3"}, {"size": "3"}, {"size": "160"}, {"size": "160"}]}}}}}, {"name": "1508", "op": "Const", "attr": {"value": {"tensor": {"dtype": "DT_FLOAT", "tensorShape": {"dim": [{"size": "160"}]}}}, "dtype": {"type": "DT_FLOAT"}}}, {"name": "PartitionedCall/model_1/tf.concat_1/concat/axis", "op": "Const", "attr": {"value": {"tensor": {"dtype": "DT_INT32", "tensorShape": {}}}, "dtype": {"type": "DT_INT32"}}}, {"name": "1514", "op": "Const", "attr": {"value": {"tensor": {"dtype": "DT_FLOAT", "tensorShape": {"dim": [{"size": "1"}, {"size": "1"}, {"size": "1280"}, {"size": "320"}]}}}, "dtype": {"type": "DT_FLOAT"}}}, {"name": "1516", "op": "Const", "attr": {"value": {"tensor": {"dtype": "DT_FLOAT", "tensorShape": {"dim": [{"size": "320"}]}}}, "dtype": {"type": "DT_FLOAT"}}}, {"name": "1518", "op": "Const", "attr": {"dtype": {"type": "DT_INT32"}, "value": {"tensor": {"dtype": "DT_INT32", "tensorShape": {"dim": [{"size": "4"}, {"size": "2"}]}}}}}, {"name": "1520", "op": "Const", "attr": {"dtype": {"type": "DT_FLOAT"}, "value": {"tensor": {"dtype": "DT_FLOAT", "tensorShape": {"dim": [{"size": "3"}, {"size": "3"}, {"size": "320"}, {"size": "640"}]}}}}}, {"name": "1522", "op": "Const", "attr": {"value": {"tensor": {"dtype": "DT_FLOAT", "tensorShape": {"dim": [{"size": "640"}]}}}, "dtype": {"type": "DT_FLOAT"}}}, {"name": "1524", "op": "Const", "attr": {"value": {"tensor": {"dtype": "DT_FLOAT", "tensorShape": {"dim": [{"size": "1"}, {"size": "1"}, {"size": "640"}, {"size": "640"}]}}}, "dtype": {"type": "DT_FLOAT"}}}, {"name": "1526", "op": "Const", "attr": {"value": {"tensor": {"dtype": "DT_FLOAT", "tensorShape": {"dim": [{"size": "640"}]}}}, "dtype": {"type": "DT_FLOAT"}}}, {"name": "1528", "op": "Const", "attr": {"value": {"tensor": {"dtype": "DT_INT64", "tensorShape": {"dim": [{"size": "4"}]}}}, "dtype": {"type": "DT_INT64"}}}, {"name": "1530", "op": "Const", "attr": {"dtype": {"type": "DT_INT64"}, "value": {"tensor": {"dtype": "DT_INT64", "tensorShape": {"dim": [{"size": "4"}]}}}}}, {"name": "PartitionedCall/model_1/tf.strided_slice_11/ones_like", "op": "Const", "attr": {"dtype": {"type": "DT_INT64"}, "value": {"tensor": {"dtype": "DT_INT64", "tensorShape": {"dim": [{"size": "4"}]}}}}}, {"name": "1532", "op": "Const", "attr": {"dtype": {"type": "DT_FLOAT"}, "value": {"tensor": {"dtype": "DT_FLOAT", "tensorShape": {"dim": [{"size": "3"}, {"size": "3"}, {"size": "320"}, {"size": "320"}]}}}}}, {"name": "1534", "op": "Const", "attr": {"value": {"tensor": {"dtype": "DT_FLOAT", "tensorShape": {"dim": [{"size": "320"}]}}}, "dtype": {"type": "DT_FLOAT"}}}, {"name": "1536", "op": "Const", "attr": {"value": {"tensor": {"dtype": "DT_FLOAT", "tensorShape": {"dim": [{"size": "3"}, {"size": "3"}, {"size": "320"}, {"size": "320"}]}}}, "dtype": {"type": "DT_FLOAT"}}}, {"name": "1538", "op": "Const", "attr": {"dtype": {"type": "DT_FLOAT"}, "value": {"tensor": {"dtype": "DT_FLOAT", "tensorShape": {"dim": [{"size": "320"}]}}}}}, {"name": "1540", "op": "Const", "attr": {"dtype": {"type": "DT_FLOAT"}, "value": {"tensor": {"dtype": "DT_FLOAT", "tensorShape": {"dim": [{"size": "3"}, {"size": "3"}, {"size": "320"}, {"size": "320"}]}}}}}, {"name": "1542", "op": "Const", "attr": {"value": {"tensor": {"dtype": "DT_FLOAT", "tensorShape": {"dim": [{"size": "320"}]}}}, "dtype": {"type": "DT_FLOAT"}}}, {"name": "1544", "op": "Const", "attr": {"dtype": {"type": "DT_FLOAT"}, "value": {"tensor": {"dtype": "DT_FLOAT", "tensorShape": {"dim": [{"size": "3"}, {"size": "3"}, {"size": "320"}, {"size": "320"}]}}}}}, {"name": "1546", "op": "Const", "attr": {"value": {"tensor": {"dtype": "DT_FLOAT", "tensorShape": {"dim": [{"size": "320"}]}}}, "dtype": {"type": "DT_FLOAT"}}}, {"name": "1548", "op": "Const", "attr": {"value": {"tensor": {"dtype": "DT_FLOAT", "tensorShape": {"dim": [{"size": "3"}, {"size": "3"}, {"size": "320"}, {"size": "320"}]}}}, "dtype": {"type": "DT_FLOAT"}}}, {"name": "1550", "op": "Const", "attr": {"value": {"tensor": {"dtype": "DT_FLOAT", "tensorShape": {"dim": [{"size": "320"}]}}}, "dtype": {"type": "DT_FLOAT"}}}, {"name": "1552", "op": "Const", "attr": {"dtype": {"type": "DT_FLOAT"}, "value": {"tensor": {"dtype": "DT_FLOAT", "tensorShape": {"dim": [{"size": "3"}, {"size": "3"}, {"size": "320"}, {"size": "320"}]}}}}}, {"name": "1554", "op": "Const", "attr": {"dtype": {"type": "DT_FLOAT"}, "value": {"tensor": {"dtype": "DT_FLOAT", "tensorShape": {"dim": [{"size": "320"}]}}}}}, {"name": "1556", "op": "Const", "attr": {"dtype": {"type": "DT_FLOAT"}, "value": {"tensor": {"dtype": "DT_FLOAT", "tensorShape": {"dim": [{"size": "3"}, {"size": "3"}, {"size": "320"}, {"size": "320"}]}}}}}, {"name": "1558", "op": "Const", "attr": {"value": {"tensor": {"dtype": "DT_FLOAT", "tensorShape": {"dim": [{"size": "320"}]}}}, "dtype": {"type": "DT_FLOAT"}}}, {"name": "1560", "op": "Const", "attr": {"value": {"tensor": {"dtype": "DT_FLOAT", "tensorShape": {"dim": [{"size": "3"}, {"size": "3"}, {"size": "320"}, {"size": "320"}]}}}, "dtype": {"type": "DT_FLOAT"}}}, {"name": "1562", "op": "Const", "attr": {"value": {"tensor": {"dtype": "DT_FLOAT", "tensorShape": {"dim": [{"size": "320"}]}}}, "dtype": {"type": "DT_FLOAT"}}}, {"name": "1564", "op": "Const", "attr": {"dtype": {"type": "DT_FLOAT"}, "value": {"tensor": {"dtype": "DT_FLOAT", "tensorShape": {"dim": [{"size": "3"}, {"size": "3"}, {"size": "320"}, {"size": "320"}]}}}}}, {"name": "1566", "op": "Const", "attr": {"dtype": {"type": "DT_FLOAT"}, "value": {"tensor": {"dtype": "DT_FLOAT", "tensorShape": {"dim": [{"size": "320"}]}}}}}, {"name": "1568", "op": "Const", "attr": {"dtype": {"type": "DT_FLOAT"}, "value": {"tensor": {"dtype": "DT_FLOAT", "tensorShape": {"dim": [{"size": "3"}, {"size": "3"}, {"size": "320"}, {"size": "320"}]}}}}}, {"name": "1570", "op": "Const", "attr": {"dtype": {"type": "DT_FLOAT"}, "value": {"tensor": {"dtype": "DT_FLOAT", "tensorShape": {"dim": [{"size": "320"}]}}}}}, {"name": "1572", "op": "Const", "attr": {"dtype": {"type": "DT_FLOAT"}, "value": {"tensor": {"dtype": "DT_FLOAT", "tensorShape": {"dim": [{"size": "3"}, {"size": "3"}, {"size": "320"}, {"size": "320"}]}}}}}, {"name": "1574", "op": "Const", "attr": {"dtype": {"type": "DT_FLOAT"}, "value": {"tensor": {"dtype": "DT_FLOAT", "tensorShape": {"dim": [{"size": "320"}]}}}}}, {"name": "1576", "op": "Const", "attr": {"dtype": {"type": "DT_FLOAT"}, "value": {"tensor": {"dtype": "DT_FLOAT", "tensorShape": {"dim": [{"size": "3"}, {"size": "3"}, {"size": "320"}, {"size": "320"}]}}}}}, {"name": "1578", "op": "Const", "attr": {"value": {"tensor": {"dtype": "DT_FLOAT", "tensorShape": {"dim": [{"size": "320"}]}}}, "dtype": {"type": "DT_FLOAT"}}}, {"name": "PartitionedCall/model_1/tf.concat_2/concat/axis", "op": "Const", "attr": {"value": {"tensor": {"dtype": "DT_INT32", "tensorShape": {}}}, "dtype": {"type": "DT_INT32"}}}, {"name": "1584", "op": "Const", "attr": {"dtype": {"type": "DT_FLOAT"}, "value": {"tensor": {"dtype": "DT_FLOAT", "tensorShape": {"dim": [{"size": "1"}, {"size": "1"}, {"size": "2560"}, {"size": "640"}]}}}}}, {"name": "1586", "op": "Const", "attr": {"dtype": {"type": "DT_FLOAT"}, "value": {"tensor": {"dtype": "DT_FLOAT", "tensorShape": {"dim": [{"size": "640"}]}}}}}, {"name": "1588", "op": "Const", "attr": {"value": {"tensor": {"dtype": "DT_INT32", "tensorShape": {"dim": [{"size": "4"}, {"size": "2"}]}}}, "dtype": {"type": "DT_INT32"}}}, {"name": "1590", "op": "Const", "attr": {"dtype": {"type": "DT_FLOAT"}, "value": {"tensor": {"dtype": "DT_FLOAT", "tensorShape": {"dim": [{"size": "3"}, {"size": "3"}, {"size": "640"}, {"size": "640"}]}}}}}, {"name": "1592", "op": "Const", "attr": {"dtype": {"type": "DT_FLOAT"}, "value": {"tensor": {"dtype": "DT_FLOAT", "tensorShape": {"dim": [{"size": "640"}]}}}}}, {"name": "1594", "op": "Const", "attr": {"value": {"tensor": {"dtype": "DT_FLOAT", "tensorShape": {"dim": [{"size": "1"}, {"size": "1"}, {"size": "640"}, {"size": "640"}]}}}, "dtype": {"type": "DT_FLOAT"}}}, {"name": "1596", "op": "Const", "attr": {"dtype": {"type": "DT_FLOAT"}, "value": {"tensor": {"dtype": "DT_FLOAT", "tensorShape": {"dim": [{"size": "640"}]}}}}}, {"name": "1598", "op": "Const", "attr": {"dtype": {"type": "DT_INT64"}, "value": {"tensor": {"dtype": "DT_INT64", "tensorShape": {"dim": [{"size": "4"}]}}}}}, {"name": "1600", "op": "Const", "attr": {"dtype": {"type": "DT_INT64"}, "value": {"tensor": {"dtype": "DT_INT64", "tensorShape": {"dim": [{"size": "4"}]}}}}}, {"name": "PartitionedCall/model_1/tf.strided_slice_15/ones_like", "op": "Const", "attr": {"value": {"tensor": {"dtype": "DT_INT64", "tensorShape": {"dim": [{"size": "4"}]}}}, "dtype": {"type": "DT_INT64"}}}, {"name": "1602", "op": "Const", "attr": {"dtype": {"type": "DT_FLOAT"}, "value": {"tensor": {"dtype": "DT_FLOAT", "tensorShape": {"dim": [{"size": "3"}, {"size": "3"}, {"size": "320"}, {"size": "320"}]}}}}}, {"name": "1604", "op": "Const", "attr": {"dtype": {"type": "DT_FLOAT"}, "value": {"tensor": {"dtype": "DT_FLOAT", "tensorShape": {"dim": [{"size": "320"}]}}}}}, {"name": "1606", "op": "Const", "attr": {"dtype": {"type": "DT_FLOAT"}, "value": {"tensor": {"dtype": "DT_FLOAT", "tensorShape": {"dim": [{"size": "3"}, {"size": "3"}, {"size": "320"}, {"size": "320"}]}}}}}, {"name": "1608", "op": "Const", "attr": {"value": {"tensor": {"dtype": "DT_FLOAT", "tensorShape": {"dim": [{"size": "320"}]}}}, "dtype": {"type": "DT_FLOAT"}}}, {"name": "1610", "op": "Const", "attr": {"value": {"tensor": {"dtype": "DT_FLOAT", "tensorShape": {"dim": [{"size": "3"}, {"size": "3"}, {"size": "320"}, {"size": "320"}]}}}, "dtype": {"type": "DT_FLOAT"}}}, {"name": "1612", "op": "Const", "attr": {"value": {"tensor": {"dtype": "DT_FLOAT", "tensorShape": {"dim": [{"size": "320"}]}}}, "dtype": {"type": "DT_FLOAT"}}}, {"name": "1614", "op": "Const", "attr": {"dtype": {"type": "DT_FLOAT"}, "value": {"tensor": {"dtype": "DT_FLOAT", "tensorShape": {"dim": [{"size": "3"}, {"size": "3"}, {"size": "320"}, {"size": "320"}]}}}}}, {"name": "1616", "op": "Const", "attr": {"value": {"tensor": {"dtype": "DT_FLOAT", "tensorShape": {"dim": [{"size": "320"}]}}}, "dtype": {"type": "DT_FLOAT"}}}, {"name": "1618", "op": "Const", "attr": {"value": {"tensor": {"dtype": "DT_FLOAT", "tensorShape": {"dim": [{"size": "3"}, {"size": "3"}, {"size": "320"}, {"size": "320"}]}}}, "dtype": {"type": "DT_FLOAT"}}}, {"name": "1620", "op": "Const", "attr": {"dtype": {"type": "DT_FLOAT"}, "value": {"tensor": {"dtype": "DT_FLOAT", "tensorShape": {"dim": [{"size": "320"}]}}}}}, {"name": "1622", "op": "Const", "attr": {"value": {"tensor": {"dtype": "DT_FLOAT", "tensorShape": {"dim": [{"size": "3"}, {"size": "3"}, {"size": "320"}, {"size": "320"}]}}}, "dtype": {"type": "DT_FLOAT"}}}, {"name": "1624", "op": "Const", "attr": {"dtype": {"type": "DT_FLOAT"}, "value": {"tensor": {"dtype": "DT_FLOAT", "tensorShape": {"dim": [{"size": "320"}]}}}}}, {"name": "PartitionedCall/model_1/tf.concat_3/concat/axis", "op": "Const", "attr": {"dtype": {"type": "DT_INT32"}, "value": {"tensor": {"dtype": "DT_INT32", "tensorShape": {}}}}}, {"name": "1630", "op": "Const", "attr": {"dtype": {"type": "DT_FLOAT"}, "value": {"tensor": {"dtype": "DT_FLOAT", "tensorShape": {"dim": [{"size": "1"}, {"size": "1"}, {"size": "1600"}, {"size": "640"}]}}}}}, {"name": "1632", "op": "Const", "attr": {"value": {"tensor": {"dtype": "DT_FLOAT", "tensorShape": {"dim": [{"size": "640"}]}}}, "dtype": {"type": "DT_FLOAT"}}}, {"name": "1634", "op": "Const", "attr": {"value": {"tensor": {"dtype": "DT_FLOAT", "tensorShape": {"dim": [{"size": "1"}, {"size": "1"}, {"size": "640"}, {"size": "320"}]}}}, "dtype": {"type": "DT_FLOAT"}}}, {"name": "1636", "op": "Const", "attr": {"value": {"tensor": {"dtype": "DT_FLOAT", "tensorShape": {"dim": [{"size": "320"}]}}}, "dtype": {"type": "DT_FLOAT"}}}, {"name": "PartitionedCall/model_1/tf.concat_4/concat/axis", "op": "Const", "attr": {"dtype": {"type": "DT_INT32"}, "value": {"tensor": {"dtype": "DT_INT32", "tensorShape": {}}}}}, {"name": "1638", "op": "Const", "attr": {"dtype": {"type": "DT_FLOAT"}, "value": {"tensor": {"dtype": "DT_FLOAT", "tensorShape": {"dim": [{"size": "1"}, {"size": "1"}, {"size": "1280"}, {"size": "640"}]}}}}}, {"name": "1640", "op": "Const", "attr": {"dtype": {"type": "DT_FLOAT"}, "value": {"tensor": {"dtype": "DT_FLOAT", "tensorShape": {"dim": [{"size": "640"}]}}}}}, {"name": "PartitionedCall/model_1/tf.concat_12/concat/axis", "op": "Const", "attr": {"dtype": {"type": "DT_INT32"}, "value": {"tensor": {"dtype": "DT_INT32", "tensorShape": {}}}}}, {"name": "1774", "op": "Const", "attr": {"value": {"tensor": {"dtype": "DT_FLOAT", "tensorShape": {"dim": [{"size": "1"}, {"size": "1"}, {"size": "1280"}, {"size": "640"}]}}}, "dtype": {"type": "DT_FLOAT"}}}, {"name": "1776", "op": "Const", "attr": {"dtype": {"type": "DT_FLOAT"}, "value": {"tensor": {"dtype": "DT_FLOAT", "tensorShape": {"dim": [{"size": "640"}]}}}}}, {"name": "1778", "op": "Const", "attr": {"dtype": {"type": "DT_INT64"}, "value": {"tensor": {"dtype": "DT_INT64", "tensorShape": {"dim": [{"size": "4"}]}}}}}, {"name": "1780", "op": "Const", "attr": {"value": {"tensor": {"dtype": "DT_INT64", "tensorShape": {"dim": [{"size": "4"}]}}}, "dtype": {"type": "DT_INT64"}}}, {"name": "PartitionedCall/model_1/tf.strided_slice_31/ones_like", "op": "Const", "attr": {"dtype": {"type": "DT_INT64"}, "value": {"tensor": {"dtype": "DT_INT64", "tensorShape": {"dim": [{"size": "4"}]}}}}}, {"name": "1782", "op": "Const", "attr": {"dtype": {"type": "DT_FLOAT"}, "value": {"tensor": {"dtype": "DT_FLOAT", "tensorShape": {"dim": [{"size": "3"}, {"size": "3"}, {"size": "320"}, {"size": "320"}]}}}}}, {"name": "1784", "op": "Const", "attr": {"dtype": {"type": "DT_FLOAT"}, "value": {"tensor": {"dtype": "DT_FLOAT", "tensorShape": {"dim": [{"size": "320"}]}}}}}, {"name": "1786", "op": "Const", "attr": {"dtype": {"type": "DT_FLOAT"}, "value": {"tensor": {"dtype": "DT_FLOAT", "tensorShape": {"dim": [{"size": "3"}, {"size": "3"}, {"size": "320"}, {"size": "320"}]}}}}}, {"name": "1788", "op": "Const", "attr": {"value": {"tensor": {"dtype": "DT_FLOAT", "tensorShape": {"dim": [{"size": "320"}]}}}, "dtype": {"type": "DT_FLOAT"}}}, {"name": "1790", "op": "Const", "attr": {"value": {"tensor": {"dtype": "DT_FLOAT", "tensorShape": {"dim": [{"size": "3"}, {"size": "3"}, {"size": "320"}, {"size": "320"}]}}}, "dtype": {"type": "DT_FLOAT"}}}, {"name": "1792", "op": "Const", "attr": {"value": {"tensor": {"dtype": "DT_FLOAT", "tensorShape": {"dim": [{"size": "320"}]}}}, "dtype": {"type": "DT_FLOAT"}}}, {"name": "1794", "op": "Const", "attr": {"value": {"tensor": {"dtype": "DT_FLOAT", "tensorShape": {"dim": [{"size": "3"}, {"size": "3"}, {"size": "320"}, {"size": "320"}]}}}, "dtype": {"type": "DT_FLOAT"}}}, {"name": "1796", "op": "Const", "attr": {"value": {"tensor": {"dtype": "DT_FLOAT", "tensorShape": {"dim": [{"size": "320"}]}}}, "dtype": {"type": "DT_FLOAT"}}}, {"name": "1798", "op": "Const", "attr": {"dtype": {"type": "DT_FLOAT"}, "value": {"tensor": {"dtype": "DT_FLOAT", "tensorShape": {"dim": [{"size": "3"}, {"size": "3"}, {"size": "320"}, {"size": "320"}]}}}}}, {"name": "1800", "op": "Const", "attr": {"dtype": {"type": "DT_FLOAT"}, "value": {"tensor": {"dtype": "DT_FLOAT", "tensorShape": {"dim": [{"size": "320"}]}}}}}, {"name": "1802", "op": "Const", "attr": {"value": {"tensor": {"dtype": "DT_FLOAT", "tensorShape": {"dim": [{"size": "3"}, {"size": "3"}, {"size": "320"}, {"size": "320"}]}}}, "dtype": {"type": "DT_FLOAT"}}}, {"name": "1804", "op": "Const", "attr": {"dtype": {"type": "DT_FLOAT"}, "value": {"tensor": {"dtype": "DT_FLOAT", "tensorShape": {"dim": [{"size": "320"}]}}}}}, {"name": "PartitionedCall/model_1/tf.concat_14/concat/axis", "op": "Const", "attr": {"dtype": {"type": "DT_INT32"}, "value": {"tensor": {"dtype": "DT_INT32", "tensorShape": {}}}}}, {"name": "1810", "op": "Const", "attr": {"value": {"tensor": {"dtype": "DT_FLOAT", "tensorShape": {"dim": [{"size": "1"}, {"size": "1"}, {"size": "1600"}, {"size": "640"}]}}}, "dtype": {"type": "DT_FLOAT"}}}, {"name": "1812", "op": "Const", "attr": {"dtype": {"type": "DT_FLOAT"}, "value": {"tensor": {"dtype": "DT_FLOAT", "tensorShape": {"dim": [{"size": "640"}]}}}}}, {"name": "1814", "op": "Const", "attr": {"dtype": {"type": "DT_FLOAT"}, "value": {"tensor": {"dtype": "DT_FLOAT", "tensorShape": {"dim": [{"size": "3"}, {"size": "3"}, {"size": "640"}, {"size": "320"}]}}}}}, {"name": "1826", "op": "Const", "attr": {"value": {"tensor": {"dtype": "DT_FLOAT", "tensorShape": {"dim": [{"size": "320"}]}}}, "dtype": {"type": "DT_FLOAT"}}}, {"name": "1838", "op": "Const", "attr": {"value": {"tensor": {"dtype": "DT_FLOAT", "tensorShape": {"dim": [{"size": "3"}, {"size": "3"}, {"size": "320"}, {"size": "320"}]}}}, "dtype": {"type": "DT_FLOAT"}}}, {"name": "1850", "op": "Const", "attr": {"value": {"tensor": {"dtype": "DT_FLOAT", "tensorShape": {"dim": [{"size": "320"}]}}}, "dtype": {"type": "DT_FLOAT"}}}, {"name": "1862", "op": "Const", "attr": {"dtype": {"type": "DT_FLOAT"}, "value": {"tensor": {"dtype": "DT_FLOAT", "tensorShape": {"dim": [{"size": "1"}, {"size": "1"}, {"size": "320"}, {"size": "1"}]}}}}}, {"name": "1876", "op": "Const", "attr": {"value": {"tensor": {"dtype": "DT_FLOAT", "tensorShape": {"dim": [{"size": "1"}]}}}, "dtype": {"type": "DT_FLOAT"}}}, {"name": "PartitionedCall/model_1/tf.concat_15/concat/axis", "op": "Const", "attr": {"dtype": {"type": "DT_INT32"}, "value": {"tensor": {"dtype": "DT_INT32", "tensorShape": {}}}}}, {"name": "PartitionedCall/model_1/tf.compat.v1.transpose_2/transpose/perm", "op": "Const", "attr": {"value": {"tensor": {"dtype": "DT_INT32", "tensorShape": {"dim": [{"size": "4"}]}}}, "dtype": {"type": "DT_INT32"}}}, {"name": "PartitionedCall/model_1/tf.reshape_2/Reshape/shape", "op": "Const", "attr": {"value": {"tensor": {"dtype": "DT_INT32", "tensorShape": {"dim": [{"size": "3"}]}}}, "dtype": {"type": "DT_INT32"}}}, {"name": "PartitionedCall/model_1/tf.concat_16/concat/axis", "op": "Const", "attr": {"value": {"tensor": {"dtype": "DT_INT32", "tensorShape": {}}}, "dtype": {"type": "DT_INT32"}}}, {"name": "1906", "op": "Const", "attr": {"value": {"tensor": {"dtype": "DT_INT64", "tensorShape": {"dim": [{"size": "3"}]}}}, "dtype": {"type": "DT_INT64"}}}, {"name": "1908", "op": "Const", "attr": {"dtype": {"type": "DT_INT64"}, "value": {"tensor": {"dtype": "DT_INT64", "tensorShape": {"dim": [{"size": "3"}]}}}}}, {"name": "PartitionedCall/model_1/tf.strided_slice_35/StridedSlice/strides", "op": "Const", "attr": {"value": {"tensor": {"dtype": "DT_INT64", "tensorShape": {"dim": [{"size": "3"}]}}}, "dtype": {"type": "DT_INT64"}}}, {"name": "PartitionedCall/model_1/output0/concat/axis", "op": "Const", "attr": {"value": {"tensor": {"dtype": "DT_INT32", "tensorShape": {}}}, "dtype": {"type": "DT_INT32"}}}, {"name": "x", "op": "Placeholder", "attr": {"shape": {"shape": {"dim": [{"size": "1"}, {"size": "416"}, {"size": "416"}, {"size": "3"}]}}, "dtype": {"type": "DT_FLOAT"}}}, {"name": "PartitionedCall/model_1/tf.compat.v1.pad/Pad", "op": "Pad", "input": ["x", "1396"], "attr": {"T": {"type": "DT_FLOAT"}, "Tpaddings": {"type": "DT_INT32"}}}, {"name": "PartitionedCall/model_1/tf.nn.convolution/convolution", "op": "Conv2D", "input": ["PartitionedCall/model_1/tf.compat.v1.pad/Pad", "1398"], "device": "/device:CPU:0", "attr": {"T": {"type": "DT_FLOAT"}, "explicit_paddings": {"list": {}}, "strides": {"list": {"i": ["1", "2", "2", "1"]}}, "padding": {"s": "VkFMSUQ="}, "dilations": {"list": {"i": ["1", "1", "1", "1"]}}, "data_format": {"s": "TkhXQw=="}, "use_cudnn_on_gpu": {"b": true}}}, {"name": "PartitionedCall/model_1/tf.math.add/Add", "op": "AddV2", "input": ["PartitionedCall/model_1/tf.nn.convolution/convolution", "1400"], "attr": {"T": {"type": "DT_FLOAT"}}}, {"name": "PartitionedCall/model_1/tf.math.sigmoid/Sigmoid", "op": "Sigmoid", "input": ["PartitionedCall/model_1/tf.math.add/Add"], "attr": {"T": {"type": "DT_FLOAT"}}}, {"name": "PartitionedCall/model_1/tf.math.multiply_2/Mul", "op": "Mul", "input": ["PartitionedCall/model_1/tf.math.add/Add", "PartitionedCall/model_1/tf.math.sigmoid/Sigmoid"], "attr": {"T": {"type": "DT_FLOAT"}}}, {"name": "PartitionedCall/model_1/tf.compat.v1.pad_1/Pad", "op": "Pad", "input": ["PartitionedCall/model_1/tf.math.multiply_2/Mul", "1402"], "attr": {"Tpaddings": {"type": "DT_INT32"}, "T": {"type": "DT_FLOAT"}}}, {"name": "PartitionedCall/model_1/tf.nn.convolution_1/convolution", "op": "Conv2D", "input": ["PartitionedCall/model_1/tf.compat.v1.pad_1/Pad", "1404"], "device": "/device:CPU:0", "attr": {"explicit_paddings": {"list": {}}, "strides": {"list": {"i": ["1", "2", "2", "1"]}}, "use_cudnn_on_gpu": {"b": true}, "padding": {"s": "VkFMSUQ="}, "T": {"type": "DT_FLOAT"}, "dilations": {"list": {"i": ["1", "1", "1", "1"]}}, "data_format": {"s": "TkhXQw=="}}}, {"name": "PartitionedCall/model_1/tf.math.add_1/Add", "op": "AddV2", "input": ["PartitionedCall/model_1/tf.nn.convolution_1/convolution", "1406"], "attr": {"T": {"type": "DT_FLOAT"}}}, {"name": "PartitionedCall/model_1/tf.math.sigmoid_1/Sigmoid", "op": "Sigmoid", "input": ["PartitionedCall/model_1/tf.math.add_1/Add"], "attr": {"T": {"type": "DT_FLOAT"}}}, {"name": "PartitionedCall/model_1/tf.math.multiply_5/Mul", "op": "Mul", "input": ["PartitionedCall/model_1/tf.math.add_1/Add", "PartitionedCall/model_1/tf.math.sigmoid_1/Sigmoid"], "attr": {"T": {"type": "DT_FLOAT"}}}, {"name": "PartitionedCall/model_1/tf.nn.convolution_2/convolution", "op": "Conv2D", "input": ["PartitionedCall/model_1/tf.math.multiply_5/Mul", "1408"], "device": "/device:CPU:0", "attr": {"dilations": {"list": {"i": ["1", "1", "1", "1"]}}, "explicit_paddings": {"list": {}}, "data_format": {"s": "TkhXQw=="}, "T": {"type": "DT_FLOAT"}, "use_cudnn_on_gpu": {"b": true}, "padding": {"s": "U0FNRQ=="}, "strides": {"list": {"i": ["1", "1", "1", "1"]}}}}, {"name": "PartitionedCall/model_1/tf.math.add_2/Add", "op": "AddV2", "input": ["PartitionedCall/model_1/tf.nn.convolution_2/convolution", "1410"], "attr": {"T": {"type": "DT_FLOAT"}}}, {"name": "PartitionedCall/model_1/tf.math.sigmoid_2/Sigmoid", "op": "Sigmoid", "input": ["PartitionedCall/model_1/tf.math.add_2/Add"], "attr": {"T": {"type": "DT_FLOAT"}}}, {"name": "PartitionedCall/model_1/tf.math.multiply_8/Mul", "op": "Mul", "input": ["PartitionedCall/model_1/tf.math.add_2/Add", "PartitionedCall/model_1/tf.math.sigmoid_2/Sigmoid"], "attr": {"T": {"type": "DT_FLOAT"}}}, {"name": "PartitionedCall/model_1/tf.strided_slice_1/StridedSlice", "op": "StridedSlice", "input": ["PartitionedCall/model_1/tf.math.multiply_8/Mul", "1440", "1442", "PartitionedCall/model_1/tf.strided_slice_1/ones_like"], "attr": {"ellipsis_mask": {"i": "0"}, "new_axis_mask": {"i": "0"}, "begin_mask": {"i": "15"}, "T": {"type": "DT_FLOAT"}, "shrink_axis_mask": {"i": "0"}, "end_mask": {"i": "7"}, "Index": {"type": "DT_INT64"}}}, {"name": "PartitionedCall/model_1/tf.strided_slice_3/StridedSlice", "op": "StridedSlice", "input": ["PartitionedCall/model_1/tf.math.multiply_8/Mul", "1412", "1414", "PartitionedCall/model_1/tf.strided_slice_3/ones_like"], "attr": {"begin_mask": {"i": "7"}, "T": {"type": "DT_FLOAT"}, "Index": {"type": "DT_INT64"}, "end_mask": {"i": "7"}, "ellipsis_mask": {"i": "0"}, "new_axis_mask": {"i": "0"}, "shrink_axis_mask": {"i": "0"}}}, {"name": "PartitionedCall/model_1/tf.nn.convolution_3/convolution", "op": "Conv2D", "input": ["PartitionedCall/model_1/tf.strided_slice_3/StridedSlice", "1416"], "device": "/device:CPU:0", "attr": {"padding": {"s": "U0FNRQ=="}, "dilations": {"list": {"i": ["1", "1", "1", "1"]}}, "data_format": {"s": "TkhXQw=="}, "T": {"type": "DT_FLOAT"}, "use_cudnn_on_gpu": {"b": true}, "explicit_paddings": {"list": {}}, "strides": {"list": {"i": ["1", "1", "1", "1"]}}}}, {"name": "PartitionedCall/model_1/tf.math.add_3/Add", "op": "AddV2", "input": ["PartitionedCall/model_1/tf.nn.convolution_3/convolution", "1418"], "attr": {"T": {"type": "DT_FLOAT"}}}, {"name": "PartitionedCall/model_1/tf.math.sigmoid_3/Sigmoid", "op": "Sigmoid", "input": ["PartitionedCall/model_1/tf.math.add_3/Add"], "attr": {"T": {"type": "DT_FLOAT"}}}, {"name": "PartitionedCall/model_1/tf.math.multiply_11/Mul", "op": "Mul", "input": ["PartitionedCall/model_1/tf.math.add_3/Add", "PartitionedCall/model_1/tf.math.sigmoid_3/Sigmoid"], "attr": {"T": {"type": "DT_FLOAT"}}}, {"name": "PartitionedCall/model_1/tf.nn.convolution_4/convolution", "op": "Conv2D", "input": ["PartitionedCall/model_1/tf.math.multiply_11/Mul", "1420"], "device": "/device:CPU:0", "attr": {"explicit_paddings": {"list": {}}, "dilations": {"list": {"i": ["1", "1", "1", "1"]}}, "strides": {"list": {"i": ["1", "1", "1", "1"]}}, "use_cudnn_on_gpu": {"b": true}, "data_format": {"s": "TkhXQw=="}, "T": {"type": "DT_FLOAT"}, "padding": {"s": "U0FNRQ=="}}}, {"name": "PartitionedCall/model_1/tf.math.add_4/Add", "op": "AddV2", "input": ["PartitionedCall/model_1/tf.nn.convolution_4/convolution", "1422"], "attr": {"T": {"type": "DT_FLOAT"}}}, {"name": "PartitionedCall/model_1/tf.math.sigmoid_4/Sigmoid", "op": "Sigmoid", "input": ["PartitionedCall/model_1/tf.math.add_4/Add"], "attr": {"T": {"type": "DT_FLOAT"}}}, {"name": "PartitionedCall/model_1/tf.math.multiply_14/Mul", "op": "Mul", "input": ["PartitionedCall/model_1/tf.math.add_4/Add", "PartitionedCall/model_1/tf.math.sigmoid_4/Sigmoid"], "attr": {"T": {"type": "DT_FLOAT"}}}, {"name": "PartitionedCall/model_1/tf.math.add_6/Add", "op": "AddV2", "input": ["PartitionedCall/model_1/tf.strided_slice_3/StridedSlice", "PartitionedCall/model_1/tf.math.multiply_14/Mul"], "attr": {"T": {"type": "DT_FLOAT"}}}, {"name": "PartitionedCall/model_1/tf.nn.convolution_5/convolution", "op": "Conv2D", "input": ["PartitionedCall/model_1/tf.math.add_6/Add", "1424"], "device": "/device:CPU:0", "attr": {"data_format": {"s": "TkhXQw=="}, "padding": {"s": "U0FNRQ=="}, "use_cudnn_on_gpu": {"b": true}, "T": {"type": "DT_FLOAT"}, "explicit_paddings": {"list": {}}, "dilations": {"list": {"i": ["1", "1", "1", "1"]}}, "strides": {"list": {"i": ["1", "1", "1", "1"]}}}}, {"name": "PartitionedCall/model_1/tf.math.add_7/Add", "op": "AddV2", "input": ["PartitionedCall/model_1/tf.nn.convolution_5/convolution", "1426"], "attr": {"T": {"type": "DT_FLOAT"}}}, {"name": "PartitionedCall/model_1/tf.math.sigmoid_5/Sigmoid", "op": "Sigmoid", "input": ["PartitionedCall/model_1/tf.math.add_7/Add"], "attr": {"T": {"type": "DT_FLOAT"}}}, {"name": "PartitionedCall/model_1/tf.math.multiply_18/Mul", "op": "Mul", "input": ["PartitionedCall/model_1/tf.math.add_7/Add", "PartitionedCall/model_1/tf.math.sigmoid_5/Sigmoid"], "attr": {"T": {"type": "DT_FLOAT"}}}, {"name": "PartitionedCall/model_1/tf.nn.convolution_6/convolution", "op": "Conv2D", "input": ["PartitionedCall/model_1/tf.math.multiply_18/Mul", "1428"], "device": "/device:CPU:0", "attr": {"padding": {"s": "U0FNRQ=="}, "strides": {"list": {"i": ["1", "1", "1", "1"]}}, "data_format": {"s": "TkhXQw=="}, "T": {"type": "DT_FLOAT"}, "use_cudnn_on_gpu": {"b": true}, "dilations": {"list": {"i": ["1", "1", "1", "1"]}}, "explicit_paddings": {"list": {}}}}, {"name": "PartitionedCall/model_1/tf.math.add_8/Add", "op": "AddV2", "input": ["PartitionedCall/model_1/tf.nn.convolution_6/convolution", "1430"], "attr": {"T": {"type": "DT_FLOAT"}}}, {"name": "PartitionedCall/model_1/tf.math.sigmoid_6/Sigmoid", "op": "Sigmoid", "input": ["PartitionedCall/model_1/tf.math.add_8/Add"], "attr": {"T": {"type": "DT_FLOAT"}}}, {"name": "PartitionedCall/model_1/tf.math.multiply_21/Mul", "op": "Mul", "input": ["PartitionedCall/model_1/tf.math.add_8/Add", "PartitionedCall/model_1/tf.math.sigmoid_6/Sigmoid"], "attr": {"T": {"type": "DT_FLOAT"}}}, {"name": "PartitionedCall/model_1/tf.math.add_10/Add", "op": "AddV2", "input": ["PartitionedCall/model_1/tf.math.add_6/Add", "PartitionedCall/model_1/tf.math.multiply_21/Mul"], "attr": {"T": {"type": "DT_FLOAT"}}}, {"name": "PartitionedCall/model_1/tf.nn.convolution_7/convolution", "op": "Conv2D", "input": ["PartitionedCall/model_1/tf.math.add_10/Add", "1432"], "device": "/device:CPU:0", "attr": {"data_format": {"s": "TkhXQw=="}, "use_cudnn_on_gpu": {"b": true}, "padding": {"s": "U0FNRQ=="}, "explicit_paddings": {"list": {}}, "dilations": {"list": {"i": ["1", "1", "1", "1"]}}, "T": {"type": "DT_FLOAT"}, "strides": {"list": {"i": ["1", "1", "1", "1"]}}}}, {"name": "PartitionedCall/model_1/tf.math.add_11/Add", "op": "AddV2", "input": ["PartitionedCall/model_1/tf.nn.convolution_7/convolution", "1434"], "attr": {"T": {"type": "DT_FLOAT"}}}, {"name": "PartitionedCall/model_1/tf.math.sigmoid_7/Sigmoid", "op": "Sigmoid", "input": ["PartitionedCall/model_1/tf.math.add_11/Add"], "attr": {"T": {"type": "DT_FLOAT"}}}, {"name": "PartitionedCall/model_1/tf.math.multiply_25/Mul", "op": "Mul", "input": ["PartitionedCall/model_1/tf.math.add_11/Add", "PartitionedCall/model_1/tf.math.sigmoid_7/Sigmoid"], "attr": {"T": {"type": "DT_FLOAT"}}}, {"name": "PartitionedCall/model_1/tf.nn.convolution_8/convolution", "op": "Conv2D", "input": ["PartitionedCall/model_1/tf.math.multiply_25/Mul", "1436"], "device": "/device:CPU:0", "attr": {"explicit_paddings": {"list": {}}, "strides": {"list": {"i": ["1", "1", "1", "1"]}}, "dilations": {"list": {"i": ["1", "1", "1", "1"]}}, "padding": {"s": "U0FNRQ=="}, "T": {"type": "DT_FLOAT"}, "use_cudnn_on_gpu": {"b": true}, "data_format": {"s": "TkhXQw=="}}}, {"name": "PartitionedCall/model_1/tf.math.add_12/Add", "op": "AddV2", "input": ["PartitionedCall/model_1/tf.nn.convolution_8/convolution", "1438"], "attr": {"T": {"type": "DT_FLOAT"}}}, {"name": "PartitionedCall/model_1/tf.math.sigmoid_8/Sigmoid", "op": "Sigmoid", "input": ["PartitionedCall/model_1/tf.math.add_12/Add"], "attr": {"T": {"type": "DT_FLOAT"}}}, {"name": "PartitionedCall/model_1/tf.math.multiply_28/Mul", "op": "Mul", "input": ["PartitionedCall/model_1/tf.math.add_12/Add", "PartitionedCall/model_1/tf.math.sigmoid_8/Sigmoid"], "attr": {"T": {"type": "DT_FLOAT"}}}, {"name": "PartitionedCall/model_1/tf.math.add_14/Add", "op": "AddV2", "input": ["PartitionedCall/model_1/tf.math.add_10/Add", "PartitionedCall/model_1/tf.math.multiply_28/Mul"], "attr": {"T": {"type": "DT_FLOAT"}}}, {"name": "PartitionedCall/model_1/tf.concat/concat", "op": "ConcatV2", "input": ["PartitionedCall/model_1/tf.strided_slice_1/StridedSlice", "PartitionedCall/model_1/tf.strided_slice_3/StridedSlice", "PartitionedCall/model_1/tf.math.add_6/Add", "PartitionedCall/model_1/tf.math.add_10/Add", "PartitionedCall/model_1/tf.math.add_14/Add", "PartitionedCall/model_1/tf.concat/concat/axis"], "attr": {"T": {"type": "DT_FLOAT"}, "N": {"i": "5"}, "Tidx": {"type": "DT_INT32"}}}, {"name": "PartitionedCall/model_1/tf.nn.convolution_9/convolution", "op": "Conv2D", "input": ["PartitionedCall/model_1/tf.concat/concat", "1444"], "device": "/device:CPU:0", "attr": {"data_format": {"s": "TkhXQw=="}, "dilations": {"list": {"i": ["1", "1", "1", "1"]}}, "strides": {"list": {"i": ["1", "1", "1", "1"]}}, "explicit_paddings": {"list": {}}, "T": {"type": "DT_FLOAT"}, "padding": {"s": "U0FNRQ=="}, "use_cudnn_on_gpu": {"b": true}}}, {"name": "PartitionedCall/model_1/tf.math.add_15/Add", "op": "AddV2", "input": ["PartitionedCall/model_1/tf.nn.convolution_9/convolution", "1446"], "attr": {"T": {"type": "DT_FLOAT"}}}, {"name": "PartitionedCall/model_1/tf.math.sigmoid_9/Sigmoid", "op": "Sigmoid", "input": ["PartitionedCall/model_1/tf.math.add_15/Add"], "attr": {"T": {"type": "DT_FLOAT"}}}, {"name": "PartitionedCall/model_1/tf.math.multiply_32/Mul", "op": "Mul", "input": ["PartitionedCall/model_1/tf.math.add_15/Add", "PartitionedCall/model_1/tf.math.sigmoid_9/Sigmoid"], "attr": {"T": {"type": "DT_FLOAT"}}}, {"name": "PartitionedCall/model_1/tf.compat.v1.pad_2/Pad", "op": "Pad", "input": ["PartitionedCall/model_1/tf.math.multiply_32/Mul", "1448"], "attr": {"Tpaddings": {"type": "DT_INT32"}, "T": {"type": "DT_FLOAT"}}}, {"name": "PartitionedCall/model_1/tf.nn.convolution_10/convolution", "op": "Conv2D", "input": ["PartitionedCall/model_1/tf.compat.v1.pad_2/Pad", "1450"], "device": "/device:CPU:0", "attr": {"dilations": {"list": {"i": ["1", "1", "1", "1"]}}, "explicit_paddings": {"list": {}}, "data_format": {"s": "TkhXQw=="}, "padding": {"s": "VkFMSUQ="}, "strides": {"list": {"i": ["1", "2", "2", "1"]}}, "T": {"type": "DT_FLOAT"}, "use_cudnn_on_gpu": {"b": true}}}, {"name": "PartitionedCall/model_1/tf.math.add_16/Add", "op": "AddV2", "input": ["PartitionedCall/model_1/tf.nn.convolution_10/convolution", "1452"], "attr": {"T": {"type": "DT_FLOAT"}}}, {"name": "PartitionedCall/model_1/tf.math.sigmoid_10/Sigmoid", "op": "Sigmoid", "input": ["PartitionedCall/model_1/tf.math.add_16/Add"], "attr": {"T": {"type": "DT_FLOAT"}}}, {"name": "PartitionedCall/model_1/tf.math.multiply_35/Mul", "op": "Mul", "input": ["PartitionedCall/model_1/tf.math.add_16/Add", "PartitionedCall/model_1/tf.math.sigmoid_10/Sigmoid"], "attr": {"T": {"type": "DT_FLOAT"}}}, {"name": "PartitionedCall/model_1/tf.nn.convolution_11/convolution", "op": "Conv2D", "input": ["PartitionedCall/model_1/tf.math.multiply_35/Mul", "1454"], "device": "/device:CPU:0", "attr": {"use_cudnn_on_gpu": {"b": true}, "T": {"type": "DT_FLOAT"}, "dilations": {"list": {"i": ["1", "1", "1", "1"]}}, "strides": {"list": {"i": ["1", "1", "1", "1"]}}, "data_format": {"s": "TkhXQw=="}, "padding": {"s": "U0FNRQ=="}, "explicit_paddings": {"list": {}}}}, {"name": "PartitionedCall/model_1/tf.math.add_17/Add", "op": "AddV2", "input": ["PartitionedCall/model_1/tf.nn.convolution_11/convolution", "1456"], "attr": {"T": {"type": "DT_FLOAT"}}}, {"name": "PartitionedCall/model_1/tf.math.sigmoid_11/Sigmoid", "op": "Sigmoid", "input": ["PartitionedCall/model_1/tf.math.add_17/Add"], "attr": {"T": {"type": "DT_FLOAT"}}}, {"name": "PartitionedCall/model_1/tf.math.multiply_38/Mul", "op": "Mul", "input": ["PartitionedCall/model_1/tf.math.add_17/Add", "PartitionedCall/model_1/tf.math.sigmoid_11/Sigmoid"], "attr": {"T": {"type": "DT_FLOAT"}}}, {"name": "PartitionedCall/model_1/tf.strided_slice_5/StridedSlice", "op": "StridedSlice", "input": ["PartitionedCall/model_1/tf.math.multiply_38/Mul", "1510", "1512", "PartitionedCall/model_1/tf.strided_slice_5/ones_like"], "attr": {"end_mask": {"i": "7"}, "new_axis_mask": {"i": "0"}, "begin_mask": {"i": "15"}, "T": {"type": "DT_FLOAT"}, "shrink_axis_mask": {"i": "0"}, "ellipsis_mask": {"i": "0"}, "Index": {"type": "DT_INT64"}}}, {"name": "PartitionedCall/model_1/tf.strided_slice_7/StridedSlice", "op": "StridedSlice", "input": ["PartitionedCall/model_1/tf.math.multiply_38/Mul", "1458", "1460", "PartitionedCall/model_1/tf.strided_slice_7/ones_like"], "attr": {"begin_mask": {"i": "7"}, "T": {"type": "DT_FLOAT"}, "new_axis_mask": {"i": "0"}, "shrink_axis_mask": {"i": "0"}, "Index": {"type": "DT_INT64"}, "end_mask": {"i": "7"}, "ellipsis_mask": {"i": "0"}}}, {"name": "PartitionedCall/model_1/tf.nn.convolution_12/convolution", "op": "Conv2D", "input": ["PartitionedCall/model_1/tf.strided_slice_7/StridedSlice", "1462"], "device": "/device:CPU:0", "attr": {"data_format": {"s": "TkhXQw=="}, "use_cudnn_on_gpu": {"b": true}, "T": {"type": "DT_FLOAT"}, "dilations": {"list": {"i": ["1", "1", "1", "1"]}}, "strides": {"list": {"i": ["1", "1", "1", "1"]}}, "explicit_paddings": {"list": {}}, "padding": {"s": "U0FNRQ=="}}}, {"name": "PartitionedCall/model_1/tf.math.add_18/Add", "op": "AddV2", "input": ["PartitionedCall/model_1/tf.nn.convolution_12/convolution", "1464"], "attr": {"T": {"type": "DT_FLOAT"}}}, {"name": "PartitionedCall/model_1/tf.math.sigmoid_12/Sigmoid", "op": "Sigmoid", "input": ["PartitionedCall/model_1/tf.math.add_18/Add"], "attr": {"T": {"type": "DT_FLOAT"}}}, {"name": "PartitionedCall/model_1/tf.math.multiply_41/Mul", "op": "Mul", "input": ["PartitionedCall/model_1/tf.math.add_18/Add", "PartitionedCall/model_1/tf.math.sigmoid_12/Sigmoid"], "attr": {"T": {"type": "DT_FLOAT"}}}, {"name": "PartitionedCall/model_1/tf.nn.convolution_13/convolution", "op": "Conv2D", "input": ["PartitionedCall/model_1/tf.math.multiply_41/Mul", "1466"], "device": "/device:CPU:0", "attr": {"data_format": {"s": "TkhXQw=="}, "use_cudnn_on_gpu": {"b": true}, "dilations": {"list": {"i": ["1", "1", "1", "1"]}}, "strides": {"list": {"i": ["1", "1", "1", "1"]}}, "T": {"type": "DT_FLOAT"}, "explicit_paddings": {"list": {}}, "padding": {"s": "U0FNRQ=="}}}, {"name": "PartitionedCall/model_1/tf.math.add_19/Add", "op": "AddV2", "input": ["PartitionedCall/model_1/tf.nn.convolution_13/convolution", "1468"], "attr": {"T": {"type": "DT_FLOAT"}}}, {"name": "PartitionedCall/model_1/tf.math.sigmoid_13/Sigmoid", "op": "Sigmoid", "input": ["PartitionedCall/model_1/tf.math.add_19/Add"], "attr": {"T": {"type": "DT_FLOAT"}}}, {"name": "PartitionedCall/model_1/tf.math.multiply_44/Mul", "op": "Mul", "input": ["PartitionedCall/model_1/tf.math.add_19/Add", "PartitionedCall/model_1/tf.math.sigmoid_13/Sigmoid"], "attr": {"T": {"type": "DT_FLOAT"}}}, {"name": "PartitionedCall/model_1/tf.math.add_21/Add", "op": "AddV2", "input": ["PartitionedCall/model_1/tf.strided_slice_7/StridedSlice", "PartitionedCall/model_1/tf.math.multiply_44/Mul"], "attr": {"T": {"type": "DT_FLOAT"}}}, {"name": "PartitionedCall/model_1/tf.nn.convolution_14/convolution", "op": "Conv2D", "input": ["PartitionedCall/model_1/tf.math.add_21/Add", "1470"], "device": "/device:CPU:0", "attr": {"data_format": {"s": "TkhXQw=="}, "padding": {"s": "U0FNRQ=="}, "use_cudnn_on_gpu": {"b": true}, "dilations": {"list": {"i": ["1", "1", "1", "1"]}}, "strides": {"list": {"i": ["1", "1", "1", "1"]}}, "T": {"type": "DT_FLOAT"}, "explicit_paddings": {"list": {}}}}, {"name": "PartitionedCall/model_1/tf.math.add_22/Add", "op": "AddV2", "input": ["PartitionedCall/model_1/tf.nn.convolution_14/convolution", "1472"], "attr": {"T": {"type": "DT_FLOAT"}}}, {"name": "PartitionedCall/model_1/tf.math.sigmoid_14/Sigmoid", "op": "Sigmoid", "input": ["PartitionedCall/model_1/tf.math.add_22/Add"], "attr": {"T": {"type": "DT_FLOAT"}}}, {"name": "PartitionedCall/model_1/tf.math.multiply_48/Mul", "op": "Mul", "input": ["PartitionedCall/model_1/tf.math.add_22/Add", "PartitionedCall/model_1/tf.math.sigmoid_14/Sigmoid"], "attr": {"T": {"type": "DT_FLOAT"}}}, {"name": "PartitionedCall/model_1/tf.nn.convolution_15/convolution", "op": "Conv2D", "input": ["PartitionedCall/model_1/tf.math.multiply_48/Mul", "1474"], "device": "/device:CPU:0", "attr": {"T": {"type": "DT_FLOAT"}, "data_format": {"s": "TkhXQw=="}, "use_cudnn_on_gpu": {"b": true}, "explicit_paddings": {"list": {}}, "padding": {"s": "U0FNRQ=="}, "strides": {"list": {"i": ["1", "1", "1", "1"]}}, "dilations": {"list": {"i": ["1", "1", "1", "1"]}}}}, {"name": "PartitionedCall/model_1/tf.math.add_23/Add", "op": "AddV2", "input": ["PartitionedCall/model_1/tf.nn.convolution_15/convolution", "1476"], "attr": {"T": {"type": "DT_FLOAT"}}}, {"name": "PartitionedCall/model_1/tf.math.sigmoid_15/Sigmoid", "op": "Sigmoid", "input": ["PartitionedCall/model_1/tf.math.add_23/Add"], "attr": {"T": {"type": "DT_FLOAT"}}}, {"name": "PartitionedCall/model_1/tf.math.multiply_51/Mul", "op": "Mul", "input": ["PartitionedCall/model_1/tf.math.add_23/Add", "PartitionedCall/model_1/tf.math.sigmoid_15/Sigmoid"], "attr": {"T": {"type": "DT_FLOAT"}}}, {"name": "PartitionedCall/model_1/tf.math.add_25/Add", "op": "AddV2", "input": ["PartitionedCall/model_1/tf.math.add_21/Add", "PartitionedCall/model_1/tf.math.multiply_51/Mul"], "attr": {"T": {"type": "DT_FLOAT"}}}, {"name": "PartitionedCall/model_1/tf.nn.convolution_16/convolution", "op": "Conv2D", "input": ["PartitionedCall/model_1/tf.math.add_25/Add", "1478"], "device": "/device:CPU:0", "attr": {"dilations": {"list": {"i": ["1", "1", "1", "1"]}}, "T": {"type": "DT_FLOAT"}, "data_format": {"s": "TkhXQw=="}, "strides": {"list": {"i": ["1", "1", "1", "1"]}}, "use_cudnn_on_gpu": {"b": true}, "explicit_paddings": {"list": {}}, "padding": {"s": "U0FNRQ=="}}}, {"name": "PartitionedCall/model_1/tf.math.add_26/Add", "op": "AddV2", "input": ["PartitionedCall/model_1/tf.nn.convolution_16/convolution", "1480"], "attr": {"T": {"type": "DT_FLOAT"}}}, {"name": "PartitionedCall/model_1/tf.math.sigmoid_16/Sigmoid", "op": "Sigmoid", "input": ["PartitionedCall/model_1/tf.math.add_26/Add"], "attr": {"T": {"type": "DT_FLOAT"}}}, {"name": "PartitionedCall/model_1/tf.math.multiply_55/Mul", "op": "Mul", "input": ["PartitionedCall/model_1/tf.math.add_26/Add", "PartitionedCall/model_1/tf.math.sigmoid_16/Sigmoid"], "attr": {"T": {"type": "DT_FLOAT"}}}, {"name": "PartitionedCall/model_1/tf.nn.convolution_17/convolution", "op": "Conv2D", "input": ["PartitionedCall/model_1/tf.math.multiply_55/Mul", "1482"], "device": "/device:CPU:0", "attr": {"data_format": {"s": "TkhXQw=="}, "T": {"type": "DT_FLOAT"}, "strides": {"list": {"i": ["1", "1", "1", "1"]}}, "use_cudnn_on_gpu": {"b": true}, "padding": {"s": "U0FNRQ=="}, "dilations": {"list": {"i": ["1", "1", "1", "1"]}}, "explicit_paddings": {"list": {}}}}, {"name": "PartitionedCall/model_1/tf.math.add_27/Add", "op": "AddV2", "input": ["PartitionedCall/model_1/tf.nn.convolution_17/convolution", "1484"], "attr": {"T": {"type": "DT_FLOAT"}}}, {"name": "PartitionedCall/model_1/tf.math.sigmoid_17/Sigmoid", "op": "Sigmoid", "input": ["PartitionedCall/model_1/tf.math.add_27/Add"], "attr": {"T": {"type": "DT_FLOAT"}}}, {"name": "PartitionedCall/model_1/tf.math.multiply_58/Mul", "op": "Mul", "input": ["PartitionedCall/model_1/tf.math.add_27/Add", "PartitionedCall/model_1/tf.math.sigmoid_17/Sigmoid"], "attr": {"T": {"type": "DT_FLOAT"}}}, {"name": "PartitionedCall/model_1/tf.math.add_29/Add", "op": "AddV2", "input": ["PartitionedCall/model_1/tf.math.add_25/Add", "PartitionedCall/model_1/tf.math.multiply_58/Mul"], "attr": {"T": {"type": "DT_FLOAT"}}}, {"name": "PartitionedCall/model_1/tf.nn.convolution_18/convolution", "op": "Conv2D", "input": ["PartitionedCall/model_1/tf.math.add_29/Add", "1486"], "device": "/device:CPU:0", "attr": {"data_format": {"s": "TkhXQw=="}, "T": {"type": "DT_FLOAT"}, "strides": {"list": {"i": ["1", "1", "1", "1"]}}, "use_cudnn_on_gpu": {"b": true}, "dilations": {"list": {"i": ["1", "1", "1", "1"]}}, "explicit_paddings": {"list": {}}, "padding": {"s": "U0FNRQ=="}}}, {"name": "PartitionedCall/model_1/tf.math.add_30/Add", "op": "AddV2", "input": ["PartitionedCall/model_1/tf.nn.convolution_18/convolution", "1488"], "attr": {"T": {"type": "DT_FLOAT"}}}, {"name": "PartitionedCall/model_1/tf.math.sigmoid_18/Sigmoid", "op": "Sigmoid", "input": ["PartitionedCall/model_1/tf.math.add_30/Add"], "attr": {"T": {"type": "DT_FLOAT"}}}, {"name": "PartitionedCall/model_1/tf.math.multiply_62/Mul", "op": "Mul", "input": ["PartitionedCall/model_1/tf.math.add_30/Add", "PartitionedCall/model_1/tf.math.sigmoid_18/Sigmoid"], "attr": {"T": {"type": "DT_FLOAT"}}}, {"name": "PartitionedCall/model_1/tf.nn.convolution_19/convolution", "op": "Conv2D", "input": ["PartitionedCall/model_1/tf.math.multiply_62/Mul", "1490"], "device": "/device:CPU:0", "attr": {"dilations": {"list": {"i": ["1", "1", "1", "1"]}}, "padding": {"s": "U0FNRQ=="}, "use_cudnn_on_gpu": {"b": true}, "T": {"type": "DT_FLOAT"}, "explicit_paddings": {"list": {}}, "strides": {"list": {"i": ["1", "1", "1", "1"]}}, "data_format": {"s": "TkhXQw=="}}}, {"name": "PartitionedCall/model_1/tf.math.add_31/Add", "op": "AddV2", "input": ["PartitionedCall/model_1/tf.nn.convolution_19/convolution", "1492"], "attr": {"T": {"type": "DT_FLOAT"}}}, {"name": "PartitionedCall/model_1/tf.math.sigmoid_19/Sigmoid", "op": "Sigmoid", "input": ["PartitionedCall/model_1/tf.math.add_31/Add"], "attr": {"T": {"type": "DT_FLOAT"}}}, {"name": "PartitionedCall/model_1/tf.math.multiply_65/Mul", "op": "Mul", "input": ["PartitionedCall/model_1/tf.math.add_31/Add", "PartitionedCall/model_1/tf.math.sigmoid_19/Sigmoid"], "attr": {"T": {"type": "DT_FLOAT"}}}, {"name": "PartitionedCall/model_1/tf.math.add_33/Add", "op": "AddV2", "input": ["PartitionedCall/model_1/tf.math.add_29/Add", "PartitionedCall/model_1/tf.math.multiply_65/Mul"], "attr": {"T": {"type": "DT_FLOAT"}}}, {"name": "PartitionedCall/model_1/tf.nn.convolution_20/convolution", "op": "Conv2D", "input": ["PartitionedCall/model_1/tf.math.add_33/Add", "1494"], "device": "/device:CPU:0", "attr": {"T": {"type": "DT_FLOAT"}, "data_format": {"s": "TkhXQw=="}, "use_cudnn_on_gpu": {"b": true}, "explicit_paddings": {"list": {}}, "padding": {"s": "U0FNRQ=="}, "dilations": {"list": {"i": ["1", "1", "1", "1"]}}, "strides": {"list": {"i": ["1", "1", "1", "1"]}}}}, {"name": "PartitionedCall/model_1/tf.math.add_34/Add", "op": "AddV2", "input": ["PartitionedCall/model_1/tf.nn.convolution_20/convolution", "1496"], "attr": {"T": {"type": "DT_FLOAT"}}}, {"name": "PartitionedCall/model_1/tf.math.sigmoid_20/Sigmoid", "op": "Sigmoid", "input": ["PartitionedCall/model_1/tf.math.add_34/Add"], "attr": {"T": {"type": "DT_FLOAT"}}}, {"name": "PartitionedCall/model_1/tf.math.multiply_69/Mul", "op": "Mul", "input": ["PartitionedCall/model_1/tf.math.add_34/Add", "PartitionedCall/model_1/tf.math.sigmoid_20/Sigmoid"], "attr": {"T": {"type": "DT_FLOAT"}}}, {"name": "PartitionedCall/model_1/tf.nn.convolution_21/convolution", "op": "Conv2D", "input": ["PartitionedCall/model_1/tf.math.multiply_69/Mul", "1498"], "device": "/device:CPU:0", "attr": {"strides": {"list": {"i": ["1", "1", "1", "1"]}}, "padding": {"s": "U0FNRQ=="}, "use_cudnn_on_gpu": {"b": true}, "explicit_paddings": {"list": {}}, "dilations": {"list": {"i": ["1", "1", "1", "1"]}}, "data_format": {"s": "TkhXQw=="}, "T": {"type": "DT_FLOAT"}}}, {"name": "PartitionedCall/model_1/tf.math.add_35/Add", "op": "AddV2", "input": ["PartitionedCall/model_1/tf.nn.convolution_21/convolution", "1500"], "attr": {"T": {"type": "DT_FLOAT"}}}, {"name": "PartitionedCall/model_1/tf.math.sigmoid_21/Sigmoid", "op": "Sigmoid", "input": ["PartitionedCall/model_1/tf.math.add_35/Add"], "attr": {"T": {"type": "DT_FLOAT"}}}, {"name": "PartitionedCall/model_1/tf.math.multiply_72/Mul", "op": "Mul", "input": ["PartitionedCall/model_1/tf.math.add_35/Add", "PartitionedCall/model_1/tf.math.sigmoid_21/Sigmoid"], "attr": {"T": {"type": "DT_FLOAT"}}}, {"name": "PartitionedCall/model_1/tf.math.add_37/Add", "op": "AddV2", "input": ["PartitionedCall/model_1/tf.math.add_33/Add", "PartitionedCall/model_1/tf.math.multiply_72/Mul"], "attr": {"T": {"type": "DT_FLOAT"}}}, {"name": "PartitionedCall/model_1/tf.nn.convolution_22/convolution", "op": "Conv2D", "input": ["PartitionedCall/model_1/tf.math.add_37/Add", "1502"], "device": "/device:CPU:0", "attr": {"strides": {"list": {"i": ["1", "1", "1", "1"]}}, "use_cudnn_on_gpu": {"b": true}, "data_format": {"s": "TkhXQw=="}, "explicit_paddings": {"list": {}}, "dilations": {"list": {"i": ["1", "1", "1", "1"]}}, "padding": {"s": "U0FNRQ=="}, "T": {"type": "DT_FLOAT"}}}, {"name": "PartitionedCall/model_1/tf.math.add_38/Add", "op": "AddV2", "input": ["PartitionedCall/model_1/tf.nn.convolution_22/convolution", "1504"], "attr": {"T": {"type": "DT_FLOAT"}}}, {"name": "PartitionedCall/model_1/tf.math.sigmoid_22/Sigmoid", "op": "Sigmoid", "input": ["PartitionedCall/model_1/tf.math.add_38/Add"], "attr": {"T": {"type": "DT_FLOAT"}}}, {"name": "PartitionedCall/model_1/tf.math.multiply_76/Mul", "op": "Mul", "input": ["PartitionedCall/model_1/tf.math.add_38/Add", "PartitionedCall/model_1/tf.math.sigmoid_22/Sigmoid"], "attr": {"T": {"type": "DT_FLOAT"}}}, {"name": "PartitionedCall/model_1/tf.nn.convolution_23/convolution", "op": "Conv2D", "input": ["PartitionedCall/model_1/tf.math.multiply_76/Mul", "1506"], "device": "/device:CPU:0", "attr": {"use_cudnn_on_gpu": {"b": true}, "dilations": {"list": {"i": ["1", "1", "1", "1"]}}, "explicit_paddings": {"list": {}}, "T": {"type": "DT_FLOAT"}, "data_format": {"s": "TkhXQw=="}, "padding": {"s": "U0FNRQ=="}, "strides": {"list": {"i": ["1", "1", "1", "1"]}}}}, {"name": "PartitionedCall/model_1/tf.math.add_39/Add", "op": "AddV2", "input": ["PartitionedCall/model_1/tf.nn.convolution_23/convolution", "1508"], "attr": {"T": {"type": "DT_FLOAT"}}}, {"name": "PartitionedCall/model_1/tf.math.sigmoid_23/Sigmoid", "op": "Sigmoid", "input": ["PartitionedCall/model_1/tf.math.add_39/Add"], "attr": {"T": {"type": "DT_FLOAT"}}}, {"name": "PartitionedCall/model_1/tf.math.multiply_79/Mul", "op": "Mul", "input": ["PartitionedCall/model_1/tf.math.add_39/Add", "PartitionedCall/model_1/tf.math.sigmoid_23/Sigmoid"], "attr": {"T": {"type": "DT_FLOAT"}}}, {"name": "PartitionedCall/model_1/tf.math.add_41/Add", "op": "AddV2", "input": ["PartitionedCall/model_1/tf.math.add_37/Add", "PartitionedCall/model_1/tf.math.multiply_79/Mul"], "attr": {"T": {"type": "DT_FLOAT"}}}, {"name": "PartitionedCall/model_1/tf.concat_1/concat", "op": "ConcatV2", "input": ["PartitionedCall/model_1/tf.strided_slice_5/StridedSlice", "PartitionedCall/model_1/tf.strided_slice_7/StridedSlice", "PartitionedCall/model_1/tf.math.add_21/Add", "PartitionedCall/model_1/tf.math.add_25/Add", "PartitionedCall/model_1/tf.math.add_29/Add", "PartitionedCall/model_1/tf.math.add_33/Add", "PartitionedCall/model_1/tf.math.add_37/Add", "PartitionedCall/model_1/tf.math.add_41/Add", "PartitionedCall/model_1/tf.concat_1/concat/axis"], "attr": {"N": {"i": "8"}, "T": {"type": "DT_FLOAT"}, "Tidx": {"type": "DT_INT32"}}}, {"name": "PartitionedCall/model_1/tf.nn.convolution_24/convolution", "op": "Conv2D", "input": ["PartitionedCall/model_1/tf.concat_1/concat", "1514"], "device": "/device:CPU:0", "attr": {"data_format": {"s": "TkhXQw=="}, "strides": {"list": {"i": ["1", "1", "1", "1"]}}, "explicit_paddings": {"list": {}}, "padding": {"s": "U0FNRQ=="}, "use_cudnn_on_gpu": {"b": true}, "dilations": {"list": {"i": ["1", "1", "1", "1"]}}, "T": {"type": "DT_FLOAT"}}}, {"name": "PartitionedCall/model_1/tf.math.add_42/Add", "op": "AddV2", "input": ["PartitionedCall/model_1/tf.nn.convolution_24/convolution", "1516"], "attr": {"T": {"type": "DT_FLOAT"}}}, {"name": "PartitionedCall/model_1/tf.math.sigmoid_24/Sigmoid", "op": "Sigmoid", "input": ["PartitionedCall/model_1/tf.math.add_42/Add"], "attr": {"T": {"type": "DT_FLOAT"}}}, {"name": "PartitionedCall/model_1/tf.math.multiply_83/Mul", "op": "Mul", "input": ["PartitionedCall/model_1/tf.math.add_42/Add", "PartitionedCall/model_1/tf.math.sigmoid_24/Sigmoid"], "attr": {"T": {"type": "DT_FLOAT"}}}, {"name": "PartitionedCall/model_1/tf.compat.v1.pad_3/Pad", "op": "Pad", "input": ["PartitionedCall/model_1/tf.math.multiply_83/Mul", "1518"], "attr": {"T": {"type": "DT_FLOAT"}, "Tpaddings": {"type": "DT_INT32"}}}, {"name": "PartitionedCall/model_1/tf.nn.convolution_25/convolution", "op": "Conv2D", "input": ["PartitionedCall/model_1/tf.compat.v1.pad_3/Pad", "1520"], "device": "/device:CPU:0", "attr": {"use_cudnn_on_gpu": {"b": true}, "data_format": {"s": "TkhXQw=="}, "T": {"type": "DT_FLOAT"}, "dilations": {"list": {"i": ["1", "1", "1", "1"]}}, "padding": {"s": "VkFMSUQ="}, "explicit_paddings": {"list": {}}, "strides": {"list": {"i": ["1", "2", "2", "1"]}}}}, {"name": "PartitionedCall/model_1/tf.math.add_43/Add", "op": "AddV2", "input": ["PartitionedCall/model_1/tf.nn.convolution_25/convolution", "1522"], "attr": {"T": {"type": "DT_FLOAT"}}}, {"name": "PartitionedCall/model_1/tf.math.sigmoid_25/Sigmoid", "op": "Sigmoid", "input": ["PartitionedCall/model_1/tf.math.add_43/Add"], "attr": {"T": {"type": "DT_FLOAT"}}}, {"name": "PartitionedCall/model_1/tf.math.multiply_86/Mul", "op": "Mul", "input": ["PartitionedCall/model_1/tf.math.add_43/Add", "PartitionedCall/model_1/tf.math.sigmoid_25/Sigmoid"], "attr": {"T": {"type": "DT_FLOAT"}}}, {"name": "PartitionedCall/model_1/tf.nn.convolution_26/convolution", "op": "Conv2D", "input": ["PartitionedCall/model_1/tf.math.multiply_86/Mul", "1524"], "device": "/device:CPU:0", "attr": {"dilations": {"list": {"i": ["1", "1", "1", "1"]}}, "use_cudnn_on_gpu": {"b": true}, "strides": {"list": {"i": ["1", "1", "1", "1"]}}, "explicit_paddings": {"list": {}}, "data_format": {"s": "TkhXQw=="}, "padding": {"s": "U0FNRQ=="}, "T": {"type": "DT_FLOAT"}}}, {"name": "PartitionedCall/model_1/tf.math.add_44/Add", "op": "AddV2", "input": ["PartitionedCall/model_1/tf.nn.convolution_26/convolution", "1526"], "attr": {"T": {"type": "DT_FLOAT"}}}, {"name": "PartitionedCall/model_1/tf.math.sigmoid_26/Sigmoid", "op": "Sigmoid", "input": ["PartitionedCall/model_1/tf.math.add_44/Add"], "attr": {"T": {"type": "DT_FLOAT"}}}, {"name": "PartitionedCall/model_1/tf.math.multiply_89/Mul", "op": "Mul", "input": ["PartitionedCall/model_1/tf.math.add_44/Add", "PartitionedCall/model_1/tf.math.sigmoid_26/Sigmoid"], "attr": {"T": {"type": "DT_FLOAT"}}}, {"name": "PartitionedCall/model_1/tf.strided_slice_9/StridedSlice", "op": "StridedSlice", "input": ["PartitionedCall/model_1/tf.math.multiply_89/Mul", "1580", "1582", "PartitionedCall/model_1/tf.strided_slice_9/ones_like"], "attr": {"end_mask": {"i": "7"}, "begin_mask": {"i": "15"}, "T": {"type": "DT_FLOAT"}, "shrink_axis_mask": {"i": "0"}, "new_axis_mask": {"i": "0"}, "Index": {"type": "DT_INT64"}, "ellipsis_mask": {"i": "0"}}}, {"name": "PartitionedCall/model_1/tf.strided_slice_11/StridedSlice", "op": "StridedSlice", "input": ["PartitionedCall/model_1/tf.math.multiply_89/Mul", "1528", "1530", "PartitionedCall/model_1/tf.strided_slice_11/ones_like"], "attr": {"T": {"type": "DT_FLOAT"}, "new_axis_mask": {"i": "0"}, "Index": {"type": "DT_INT64"}, "end_mask": {"i": "7"}, "ellipsis_mask": {"i": "0"}, "begin_mask": {"i": "7"}, "shrink_axis_mask": {"i": "0"}}}, {"name": "PartitionedCall/model_1/tf.nn.convolution_27/convolution", "op": "Conv2D", "input": ["PartitionedCall/model_1/tf.strided_slice_11/StridedSlice", "1532"], "device": "/device:CPU:0", "attr": {"explicit_paddings": {"list": {}}, "data_format": {"s": "TkhXQw=="}, "padding": {"s": "U0FNRQ=="}, "T": {"type": "DT_FLOAT"}, "strides": {"list": {"i": ["1", "1", "1", "1"]}}, "use_cudnn_on_gpu": {"b": true}, "dilations": {"list": {"i": ["1", "1", "1", "1"]}}}}, {"name": "PartitionedCall/model_1/tf.math.add_45/Add", "op": "AddV2", "input": ["PartitionedCall/model_1/tf.nn.convolution_27/convolution", "1534"], "attr": {"T": {"type": "DT_FLOAT"}}}, {"name": "PartitionedCall/model_1/tf.math.sigmoid_27/Sigmoid", "op": "Sigmoid", "input": ["PartitionedCall/model_1/tf.math.add_45/Add"], "attr": {"T": {"type": "DT_FLOAT"}}}, {"name": "PartitionedCall/model_1/tf.math.multiply_92/Mul", "op": "Mul", "input": ["PartitionedCall/model_1/tf.math.add_45/Add", "PartitionedCall/model_1/tf.math.sigmoid_27/Sigmoid"], "attr": {"T": {"type": "DT_FLOAT"}}}, {"name": "PartitionedCall/model_1/tf.nn.convolution_28/convolution", "op": "Conv2D", "input": ["PartitionedCall/model_1/tf.math.multiply_92/Mul", "1536"], "device": "/device:CPU:0", "attr": {"explicit_paddings": {"list": {}}, "data_format": {"s": "TkhXQw=="}, "dilations": {"list": {"i": ["1", "1", "1", "1"]}}, "use_cudnn_on_gpu": {"b": true}, "T": {"type": "DT_FLOAT"}, "padding": {"s": "U0FNRQ=="}, "strides": {"list": {"i": ["1", "1", "1", "1"]}}}}, {"name": "PartitionedCall/model_1/tf.math.add_46/Add", "op": "AddV2", "input": ["PartitionedCall/model_1/tf.nn.convolution_28/convolution", "1538"], "attr": {"T": {"type": "DT_FLOAT"}}}, {"name": "PartitionedCall/model_1/tf.math.sigmoid_28/Sigmoid", "op": "Sigmoid", "input": ["PartitionedCall/model_1/tf.math.add_46/Add"], "attr": {"T": {"type": "DT_FLOAT"}}}, {"name": "PartitionedCall/model_1/tf.math.multiply_95/Mul", "op": "Mul", "input": ["PartitionedCall/model_1/tf.math.add_46/Add", "PartitionedCall/model_1/tf.math.sigmoid_28/Sigmoid"], "attr": {"T": {"type": "DT_FLOAT"}}}, {"name": "PartitionedCall/model_1/tf.math.add_48/Add", "op": "AddV2", "input": ["PartitionedCall/model_1/tf.strided_slice_11/StridedSlice", "PartitionedCall/model_1/tf.math.multiply_95/Mul"], "attr": {"T": {"type": "DT_FLOAT"}}}, {"name": "PartitionedCall/model_1/tf.nn.convolution_29/convolution", "op": "Conv2D", "input": ["PartitionedCall/model_1/tf.math.add_48/Add", "1540"], "device": "/device:CPU:0", "attr": {"padding": {"s": "U0FNRQ=="}, "dilations": {"list": {"i": ["1", "1", "1", "1"]}}, "strides": {"list": {"i": ["1", "1", "1", "1"]}}, "explicit_paddings": {"list": {}}, "use_cudnn_on_gpu": {"b": true}, "data_format": {"s": "TkhXQw=="}, "T": {"type": "DT_FLOAT"}}}, {"name": "PartitionedCall/model_1/tf.math.add_49/Add", "op": "AddV2", "input": ["PartitionedCall/model_1/tf.nn.convolution_29/convolution", "1542"], "attr": {"T": {"type": "DT_FLOAT"}}}, {"name": "PartitionedCall/model_1/tf.math.sigmoid_29/Sigmoid", "op": "Sigmoid", "input": ["PartitionedCall/model_1/tf.math.add_49/Add"], "attr": {"T": {"type": "DT_FLOAT"}}}, {"name": "PartitionedCall/model_1/tf.math.multiply_99/Mul", "op": "Mul", "input": ["PartitionedCall/model_1/tf.math.add_49/Add", "PartitionedCall/model_1/tf.math.sigmoid_29/Sigmoid"], "attr": {"T": {"type": "DT_FLOAT"}}}, {"name": "PartitionedCall/model_1/tf.nn.convolution_30/convolution", "op": "Conv2D", "input": ["PartitionedCall/model_1/tf.math.multiply_99/Mul", "1544"], "device": "/device:CPU:0", "attr": {"use_cudnn_on_gpu": {"b": true}, "data_format": {"s": "TkhXQw=="}, "strides": {"list": {"i": ["1", "1", "1", "1"]}}, "dilations": {"list": {"i": ["1", "1", "1", "1"]}}, "explicit_paddings": {"list": {}}, "T": {"type": "DT_FLOAT"}, "padding": {"s": "U0FNRQ=="}}}, {"name": "PartitionedCall/model_1/tf.math.add_50/Add", "op": "AddV2", "input": ["PartitionedCall/model_1/tf.nn.convolution_30/convolution", "1546"], "attr": {"T": {"type": "DT_FLOAT"}}}, {"name": "PartitionedCall/model_1/tf.math.sigmoid_30/Sigmoid", "op": "Sigmoid", "input": ["PartitionedCall/model_1/tf.math.add_50/Add"], "attr": {"T": {"type": "DT_FLOAT"}}}, {"name": "PartitionedCall/model_1/tf.math.multiply_102/Mul", "op": "Mul", "input": ["PartitionedCall/model_1/tf.math.add_50/Add", "PartitionedCall/model_1/tf.math.sigmoid_30/Sigmoid"], "attr": {"T": {"type": "DT_FLOAT"}}}, {"name": "PartitionedCall/model_1/tf.math.add_52/Add", "op": "AddV2", "input": ["PartitionedCall/model_1/tf.math.add_48/Add", "PartitionedCall/model_1/tf.math.multiply_102/Mul"], "attr": {"T": {"type": "DT_FLOAT"}}}, {"name": "PartitionedCall/model_1/tf.nn.convolution_31/convolution", "op": "Conv2D", "input": ["PartitionedCall/model_1/tf.math.add_52/Add", "1548"], "device": "/device:CPU:0", "attr": {"T": {"type": "DT_FLOAT"}, "dilations": {"list": {"i": ["1", "1", "1", "1"]}}, "strides": {"list": {"i": ["1", "1", "1", "1"]}}, "use_cudnn_on_gpu": {"b": true}, "data_format": {"s": "TkhXQw=="}, "padding": {"s": "U0FNRQ=="}, "explicit_paddings": {"list": {}}}}, {"name": "PartitionedCall/model_1/tf.math.add_53/Add", "op": "AddV2", "input": ["PartitionedCall/model_1/tf.nn.convolution_31/convolution", "1550"], "attr": {"T": {"type": "DT_FLOAT"}}}, {"name": "PartitionedCall/model_1/tf.math.sigmoid_31/Sigmoid", "op": "Sigmoid", "input": ["PartitionedCall/model_1/tf.math.add_53/Add"], "attr": {"T": {"type": "DT_FLOAT"}}}, {"name": "PartitionedCall/model_1/tf.math.multiply_106/Mul", "op": "Mul", "input": ["PartitionedCall/model_1/tf.math.add_53/Add", "PartitionedCall/model_1/tf.math.sigmoid_31/Sigmoid"], "attr": {"T": {"type": "DT_FLOAT"}}}, {"name": "PartitionedCall/model_1/tf.nn.convolution_32/convolution", "op": "Conv2D", "input": ["PartitionedCall/model_1/tf.math.multiply_106/Mul", "1552"], "device": "/device:CPU:0", "attr": {"padding": {"s": "U0FNRQ=="}, "T": {"type": "DT_FLOAT"}, "data_format": {"s": "TkhXQw=="}, "use_cudnn_on_gpu": {"b": true}, "strides": {"list": {"i": ["1", "1", "1", "1"]}}, "dilations": {"list": {"i": ["1", "1", "1", "1"]}}, "explicit_paddings": {"list": {}}}}, {"name": "PartitionedCall/model_1/tf.math.add_54/Add", "op": "AddV2", "input": ["PartitionedCall/model_1/tf.nn.convolution_32/convolution", "1554"], "attr": {"T": {"type": "DT_FLOAT"}}}, {"name": "PartitionedCall/model_1/tf.math.sigmoid_32/Sigmoid", "op": "Sigmoid", "input": ["PartitionedCall/model_1/tf.math.add_54/Add"], "attr": {"T": {"type": "DT_FLOAT"}}}, {"name": "PartitionedCall/model_1/tf.math.multiply_109/Mul", "op": "Mul", "input": ["PartitionedCall/model_1/tf.math.add_54/Add", "PartitionedCall/model_1/tf.math.sigmoid_32/Sigmoid"], "attr": {"T": {"type": "DT_FLOAT"}}}, {"name": "PartitionedCall/model_1/tf.math.add_56/Add", "op": "AddV2", "input": ["PartitionedCall/model_1/tf.math.add_52/Add", "PartitionedCall/model_1/tf.math.multiply_109/Mul"], "attr": {"T": {"type": "DT_FLOAT"}}}, {"name": "PartitionedCall/model_1/tf.nn.convolution_33/convolution", "op": "Conv2D", "input": ["PartitionedCall/model_1/tf.math.add_56/Add", "1556"], "device": "/device:CPU:0", "attr": {"padding": {"s": "U0FNRQ=="}, "explicit_paddings": {"list": {}}, "use_cudnn_on_gpu": {"b": true}, "data_format": {"s": "TkhXQw=="}, "T": {"type": "DT_FLOAT"}, "strides": {"list": {"i": ["1", "1", "1", "1"]}}, "dilations": {"list": {"i": ["1", "1", "1", "1"]}}}}, {"name": "PartitionedCall/model_1/tf.math.add_57/Add", "op": "AddV2", "input": ["PartitionedCall/model_1/tf.nn.convolution_33/convolution", "1558"], "attr": {"T": {"type": "DT_FLOAT"}}}, {"name": "PartitionedCall/model_1/tf.math.sigmoid_33/Sigmoid", "op": "Sigmoid", "input": ["PartitionedCall/model_1/tf.math.add_57/Add"], "attr": {"T": {"type": "DT_FLOAT"}}}, {"name": "PartitionedCall/model_1/tf.math.multiply_113/Mul", "op": "Mul", "input": ["PartitionedCall/model_1/tf.math.add_57/Add", "PartitionedCall/model_1/tf.math.sigmoid_33/Sigmoid"], "attr": {"T": {"type": "DT_FLOAT"}}}, {"name": "PartitionedCall/model_1/tf.nn.convolution_34/convolution", "op": "Conv2D", "input": ["PartitionedCall/model_1/tf.math.multiply_113/Mul", "1560"], "device": "/device:CPU:0", "attr": {"padding": {"s": "U0FNRQ=="}, "strides": {"list": {"i": ["1", "1", "1", "1"]}}, "explicit_paddings": {"list": {}}, "dilations": {"list": {"i": ["1", "1", "1", "1"]}}, "data_format": {"s": "TkhXQw=="}, "T": {"type": "DT_FLOAT"}, "use_cudnn_on_gpu": {"b": true}}}, {"name": "PartitionedCall/model_1/tf.math.add_58/Add", "op": "AddV2", "input": ["PartitionedCall/model_1/tf.nn.convolution_34/convolution", "1562"], "attr": {"T": {"type": "DT_FLOAT"}}}, {"name": "PartitionedCall/model_1/tf.math.sigmoid_34/Sigmoid", "op": "Sigmoid", "input": ["PartitionedCall/model_1/tf.math.add_58/Add"], "attr": {"T": {"type": "DT_FLOAT"}}}, {"name": "PartitionedCall/model_1/tf.math.multiply_116/Mul", "op": "Mul", "input": ["PartitionedCall/model_1/tf.math.add_58/Add", "PartitionedCall/model_1/tf.math.sigmoid_34/Sigmoid"], "attr": {"T": {"type": "DT_FLOAT"}}}, {"name": "PartitionedCall/model_1/tf.math.add_60/Add", "op": "AddV2", "input": ["PartitionedCall/model_1/tf.math.add_56/Add", "PartitionedCall/model_1/tf.math.multiply_116/Mul"], "attr": {"T": {"type": "DT_FLOAT"}}}, {"name": "PartitionedCall/model_1/tf.nn.convolution_35/convolution", "op": "Conv2D", "input": ["PartitionedCall/model_1/tf.math.add_60/Add", "1564"], "device": "/device:CPU:0", "attr": {"use_cudnn_on_gpu": {"b": true}, "strides": {"list": {"i": ["1", "1", "1", "1"]}}, "data_format": {"s": "TkhXQw=="}, "padding": {"s": "U0FNRQ=="}, "T": {"type": "DT_FLOAT"}, "dilations": {"list": {"i": ["1", "1", "1", "1"]}}, "explicit_paddings": {"list": {}}}}, {"name": "PartitionedCall/model_1/tf.math.add_61/Add", "op": "AddV2", "input": ["PartitionedCall/model_1/tf.nn.convolution_35/convolution", "1566"], "attr": {"T": {"type": "DT_FLOAT"}}}, {"name": "PartitionedCall/model_1/tf.math.sigmoid_35/Sigmoid", "op": "Sigmoid", "input": ["PartitionedCall/model_1/tf.math.add_61/Add"], "attr": {"T": {"type": "DT_FLOAT"}}}, {"name": "PartitionedCall/model_1/tf.math.multiply_120/Mul", "op": "Mul", "input": ["PartitionedCall/model_1/tf.math.add_61/Add", "PartitionedCall/model_1/tf.math.sigmoid_35/Sigmoid"], "attr": {"T": {"type": "DT_FLOAT"}}}, {"name": "PartitionedCall/model_1/tf.nn.convolution_36/convolution", "op": "Conv2D", "input": ["PartitionedCall/model_1/tf.math.multiply_120/Mul", "1568"], "device": "/device:CPU:0", "attr": {"explicit_paddings": {"list": {}}, "data_format": {"s": "TkhXQw=="}, "padding": {"s": "U0FNRQ=="}, "dilations": {"list": {"i": ["1", "1", "1", "1"]}}, "use_cudnn_on_gpu": {"b": true}, "T": {"type": "DT_FLOAT"}, "strides": {"list": {"i": ["1", "1", "1", "1"]}}}}, {"name": "PartitionedCall/model_1/tf.math.add_62/Add", "op": "AddV2", "input": ["PartitionedCall/model_1/tf.nn.convolution_36/convolution", "1570"], "attr": {"T": {"type": "DT_FLOAT"}}}, {"name": "PartitionedCall/model_1/tf.math.sigmoid_36/Sigmoid", "op": "Sigmoid", "input": ["PartitionedCall/model_1/tf.math.add_62/Add"], "attr": {"T": {"type": "DT_FLOAT"}}}, {"name": "PartitionedCall/model_1/tf.math.multiply_123/Mul", "op": "Mul", "input": ["PartitionedCall/model_1/tf.math.add_62/Add", "PartitionedCall/model_1/tf.math.sigmoid_36/Sigmoid"], "attr": {"T": {"type": "DT_FLOAT"}}}, {"name": "PartitionedCall/model_1/tf.math.add_64/Add", "op": "AddV2", "input": ["PartitionedCall/model_1/tf.math.add_60/Add", "PartitionedCall/model_1/tf.math.multiply_123/Mul"], "attr": {"T": {"type": "DT_FLOAT"}}}, {"name": "PartitionedCall/model_1/tf.nn.convolution_37/convolution", "op": "Conv2D", "input": ["PartitionedCall/model_1/tf.math.add_64/Add", "1572"], "device": "/device:CPU:0", "attr": {"T": {"type": "DT_FLOAT"}, "explicit_paddings": {"list": {}}, "use_cudnn_on_gpu": {"b": true}, "strides": {"list": {"i": ["1", "1", "1", "1"]}}, "data_format": {"s": "TkhXQw=="}, "padding": {"s": "U0FNRQ=="}, "dilations": {"list": {"i": ["1", "1", "1", "1"]}}}}, {"name": "PartitionedCall/model_1/tf.math.add_65/Add", "op": "AddV2", "input": ["PartitionedCall/model_1/tf.nn.convolution_37/convolution", "1574"], "attr": {"T": {"type": "DT_FLOAT"}}}, {"name": "PartitionedCall/model_1/tf.math.sigmoid_37/Sigmoid", "op": "Sigmoid", "input": ["PartitionedCall/model_1/tf.math.add_65/Add"], "attr": {"T": {"type": "DT_FLOAT"}}}, {"name": "PartitionedCall/model_1/tf.math.multiply_127/Mul", "op": "Mul", "input": ["PartitionedCall/model_1/tf.math.add_65/Add", "PartitionedCall/model_1/tf.math.sigmoid_37/Sigmoid"], "attr": {"T": {"type": "DT_FLOAT"}}}, {"name": "PartitionedCall/model_1/tf.nn.convolution_38/convolution", "op": "Conv2D", "input": ["PartitionedCall/model_1/tf.math.multiply_127/Mul", "1576"], "device": "/device:CPU:0", "attr": {"dilations": {"list": {"i": ["1", "1", "1", "1"]}}, "data_format": {"s": "TkhXQw=="}, "padding": {"s": "U0FNRQ=="}, "explicit_paddings": {"list": {}}, "strides": {"list": {"i": ["1", "1", "1", "1"]}}, "use_cudnn_on_gpu": {"b": true}, "T": {"type": "DT_FLOAT"}}}, {"name": "PartitionedCall/model_1/tf.math.add_66/Add", "op": "AddV2", "input": ["PartitionedCall/model_1/tf.nn.convolution_38/convolution", "1578"], "attr": {"T": {"type": "DT_FLOAT"}}}, {"name": "PartitionedCall/model_1/tf.math.sigmoid_38/Sigmoid", "op": "Sigmoid", "input": ["PartitionedCall/model_1/tf.math.add_66/Add"], "attr": {"T": {"type": "DT_FLOAT"}}}, {"name": "PartitionedCall/model_1/tf.math.multiply_130/Mul", "op": "Mul", "input": ["PartitionedCall/model_1/tf.math.add_66/Add", "PartitionedCall/model_1/tf.math.sigmoid_38/Sigmoid"], "attr": {"T": {"type": "DT_FLOAT"}}}, {"name": "PartitionedCall/model_1/tf.math.add_68/Add", "op": "AddV2", "input": ["PartitionedCall/model_1/tf.math.add_64/Add", "PartitionedCall/model_1/tf.math.multiply_130/Mul"], "attr": {"T": {"type": "DT_FLOAT"}}}, {"name": "PartitionedCall/model_1/tf.concat_2/concat", "op": "ConcatV2", "input": ["PartitionedCall/model_1/tf.strided_slice_9/StridedSlice", "PartitionedCall/model_1/tf.strided_slice_11/StridedSlice", "PartitionedCall/model_1/tf.math.add_48/Add", "PartitionedCall/model_1/tf.math.add_52/Add", "PartitionedCall/model_1/tf.math.add_56/Add", "PartitionedCall/model_1/tf.math.add_60/Add", "PartitionedCall/model_1/tf.math.add_64/Add", "PartitionedCall/model_1/tf.math.add_68/Add", "PartitionedCall/model_1/tf.concat_2/concat/axis"], "attr": {"T": {"type": "DT_FLOAT"}, "Tidx": {"type": "DT_INT32"}, "N": {"i": "8"}}}, {"name": "PartitionedCall/model_1/tf.nn.convolution_39/convolution", "op": "Conv2D", "input": ["PartitionedCall/model_1/tf.concat_2/concat", "1584"], "device": "/device:CPU:0", "attr": {"strides": {"list": {"i": ["1", "1", "1", "1"]}}, "padding": {"s": "U0FNRQ=="}, "explicit_paddings": {"list": {}}, "use_cudnn_on_gpu": {"b": true}, "data_format": {"s": "TkhXQw=="}, "dilations": {"list": {"i": ["1", "1", "1", "1"]}}, "T": {"type": "DT_FLOAT"}}}, {"name": "PartitionedCall/model_1/tf.math.add_69/Add", "op": "AddV2", "input": ["PartitionedCall/model_1/tf.nn.convolution_39/convolution", "1586"], "attr": {"T": {"type": "DT_FLOAT"}}}, {"name": "PartitionedCall/model_1/tf.math.sigmoid_39/Sigmoid", "op": "Sigmoid", "input": ["PartitionedCall/model_1/tf.math.add_69/Add"], "attr": {"T": {"type": "DT_FLOAT"}}}, {"name": "PartitionedCall/model_1/tf.math.multiply_134/Mul", "op": "Mul", "input": ["PartitionedCall/model_1/tf.math.add_69/Add", "PartitionedCall/model_1/tf.math.sigmoid_39/Sigmoid"], "attr": {"T": {"type": "DT_FLOAT"}}}, {"name": "PartitionedCall/model_1/tf.compat.v1.pad_4/Pad", "op": "Pad", "input": ["PartitionedCall/model_1/tf.math.multiply_134/Mul", "1588"], "attr": {"T": {"type": "DT_FLOAT"}, "Tpaddings": {"type": "DT_INT32"}}}, {"name": "PartitionedCall/model_1/tf.nn.convolution_40/convolution", "op": "Conv2D", "input": ["PartitionedCall/model_1/tf.compat.v1.pad_4/Pad", "1590"], "device": "/device:CPU:0", "attr": {"T": {"type": "DT_FLOAT"}, "padding": {"s": "VkFMSUQ="}, "explicit_paddings": {"list": {}}, "use_cudnn_on_gpu": {"b": true}, "strides": {"list": {"i": ["1", "2", "2", "1"]}}, "data_format": {"s": "TkhXQw=="}, "dilations": {"list": {"i": ["1", "1", "1", "1"]}}}}, {"name": "PartitionedCall/model_1/tf.math.add_70/Add", "op": "AddV2", "input": ["PartitionedCall/model_1/tf.nn.convolution_40/convolution", "1592"], "attr": {"T": {"type": "DT_FLOAT"}}}, {"name": "PartitionedCall/model_1/tf.math.sigmoid_40/Sigmoid", "op": "Sigmoid", "input": ["PartitionedCall/model_1/tf.math.add_70/Add"], "attr": {"T": {"type": "DT_FLOAT"}}}, {"name": "PartitionedCall/model_1/tf.math.multiply_137/Mul", "op": "Mul", "input": ["PartitionedCall/model_1/tf.math.add_70/Add", "PartitionedCall/model_1/tf.math.sigmoid_40/Sigmoid"], "attr": {"T": {"type": "DT_FLOAT"}}}, {"name": "PartitionedCall/model_1/tf.nn.convolution_41/convolution", "op": "Conv2D", "input": ["PartitionedCall/model_1/tf.math.multiply_137/Mul", "1594"], "device": "/device:CPU:0", "attr": {"data_format": {"s": "TkhXQw=="}, "explicit_paddings": {"list": {}}, "use_cudnn_on_gpu": {"b": true}, "padding": {"s": "U0FNRQ=="}, "T": {"type": "DT_FLOAT"}, "dilations": {"list": {"i": ["1", "1", "1", "1"]}}, "strides": {"list": {"i": ["1", "1", "1", "1"]}}}}, {"name": "PartitionedCall/model_1/tf.math.add_71/Add", "op": "AddV2", "input": ["PartitionedCall/model_1/tf.nn.convolution_41/convolution", "1596"], "attr": {"T": {"type": "DT_FLOAT"}}}, {"name": "PartitionedCall/model_1/tf.math.sigmoid_41/Sigmoid", "op": "Sigmoid", "input": ["PartitionedCall/model_1/tf.math.add_71/Add"], "attr": {"T": {"type": "DT_FLOAT"}}}, {"name": "PartitionedCall/model_1/tf.math.multiply_140/Mul", "op": "Mul", "input": ["PartitionedCall/model_1/tf.math.add_71/Add", "PartitionedCall/model_1/tf.math.sigmoid_41/Sigmoid"], "attr": {"T": {"type": "DT_FLOAT"}}}, {"name": "PartitionedCall/model_1/tf.strided_slice_13/StridedSlice", "op": "StridedSlice", "input": ["PartitionedCall/model_1/tf.math.multiply_140/Mul", "1626", "1628", "PartitionedCall/model_1/tf.strided_slice_13/ones_like"], "attr": {"new_axis_mask": {"i": "0"}, "ellipsis_mask": {"i": "0"}, "T": {"type": "DT_FLOAT"}, "shrink_axis_mask": {"i": "0"}, "begin_mask": {"i": "15"}, "Index": {"type": "DT_INT64"}, "end_mask": {"i": "7"}}}, {"name": "PartitionedCall/model_1/tf.strided_slice_15/StridedSlice", "op": "StridedSlice", "input": ["PartitionedCall/model_1/tf.math.multiply_140/Mul", "1598", "1600", "PartitionedCall/model_1/tf.strided_slice_15/ones_like"], "attr": {"Index": {"type": "DT_INT64"}, "T": {"type": "DT_FLOAT"}, "begin_mask": {"i": "7"}, "ellipsis_mask": {"i": "0"}, "shrink_axis_mask": {"i": "0"}, "end_mask": {"i": "7"}, "new_axis_mask": {"i": "0"}}}, {"name": "PartitionedCall/model_1/tf.nn.convolution_42/convolution", "op": "Conv2D", "input": ["PartitionedCall/model_1/tf.strided_slice_15/StridedSlice", "1602"], "device": "/device:CPU:0", "attr": {"strides": {"list": {"i": ["1", "1", "1", "1"]}}, "padding": {"s": "U0FNRQ=="}, "data_format": {"s": "TkhXQw=="}, "dilations": {"list": {"i": ["1", "1", "1", "1"]}}, "T": {"type": "DT_FLOAT"}, "explicit_paddings": {"list": {}}, "use_cudnn_on_gpu": {"b": true}}}, {"name": "PartitionedCall/model_1/tf.math.add_72/Add", "op": "AddV2", "input": ["PartitionedCall/model_1/tf.nn.convolution_42/convolution", "1604"], "attr": {"T": {"type": "DT_FLOAT"}}}, {"name": "PartitionedCall/model_1/tf.math.sigmoid_42/Sigmoid", "op": "Sigmoid", "input": ["PartitionedCall/model_1/tf.math.add_72/Add"], "attr": {"T": {"type": "DT_FLOAT"}}}, {"name": "PartitionedCall/model_1/tf.math.multiply_143/Mul", "op": "Mul", "input": ["PartitionedCall/model_1/tf.math.add_72/Add", "PartitionedCall/model_1/tf.math.sigmoid_42/Sigmoid"], "attr": {"T": {"type": "DT_FLOAT"}}}, {"name": "PartitionedCall/model_1/tf.nn.convolution_43/convolution", "op": "Conv2D", "input": ["PartitionedCall/model_1/tf.math.multiply_143/Mul", "1606"], "device": "/device:CPU:0", "attr": {"strides": {"list": {"i": ["1", "1", "1", "1"]}}, "T": {"type": "DT_FLOAT"}, "dilations": {"list": {"i": ["1", "1", "1", "1"]}}, "explicit_paddings": {"list": {}}, "padding": {"s": "U0FNRQ=="}, "use_cudnn_on_gpu": {"b": true}, "data_format": {"s": "TkhXQw=="}}}, {"name": "PartitionedCall/model_1/tf.math.add_73/Add", "op": "AddV2", "input": ["PartitionedCall/model_1/tf.nn.convolution_43/convolution", "1608"], "attr": {"T": {"type": "DT_FLOAT"}}}, {"name": "PartitionedCall/model_1/tf.math.sigmoid_43/Sigmoid", "op": "Sigmoid", "input": ["PartitionedCall/model_1/tf.math.add_73/Add"], "attr": {"T": {"type": "DT_FLOAT"}}}, {"name": "PartitionedCall/model_1/tf.math.multiply_146/Mul", "op": "Mul", "input": ["PartitionedCall/model_1/tf.math.add_73/Add", "PartitionedCall/model_1/tf.math.sigmoid_43/Sigmoid"], "attr": {"T": {"type": "DT_FLOAT"}}}, {"name": "PartitionedCall/model_1/tf.math.add_75/Add", "op": "AddV2", "input": ["PartitionedCall/model_1/tf.strided_slice_15/StridedSlice", "PartitionedCall/model_1/tf.math.multiply_146/Mul"], "attr": {"T": {"type": "DT_FLOAT"}}}, {"name": "PartitionedCall/model_1/tf.nn.convolution_44/convolution", "op": "Conv2D", "input": ["PartitionedCall/model_1/tf.math.add_75/Add", "1610"], "device": "/device:CPU:0", "attr": {"use_cudnn_on_gpu": {"b": true}, "T": {"type": "DT_FLOAT"}, "data_format": {"s": "TkhXQw=="}, "strides": {"list": {"i": ["1", "1", "1", "1"]}}, "explicit_paddings": {"list": {}}, "padding": {"s": "U0FNRQ=="}, "dilations": {"list": {"i": ["1", "1", "1", "1"]}}}}, {"name": "PartitionedCall/model_1/tf.math.add_76/Add", "op": "AddV2", "input": ["PartitionedCall/model_1/tf.nn.convolution_44/convolution", "1612"], "attr": {"T": {"type": "DT_FLOAT"}}}, {"name": "PartitionedCall/model_1/tf.math.sigmoid_44/Sigmoid", "op": "Sigmoid", "input": ["PartitionedCall/model_1/tf.math.add_76/Add"], "attr": {"T": {"type": "DT_FLOAT"}}}, {"name": "PartitionedCall/model_1/tf.math.multiply_150/Mul", "op": "Mul", "input": ["PartitionedCall/model_1/tf.math.add_76/Add", "PartitionedCall/model_1/tf.math.sigmoid_44/Sigmoid"], "attr": {"T": {"type": "DT_FLOAT"}}}, {"name": "PartitionedCall/model_1/tf.nn.convolution_45/convolution", "op": "Conv2D", "input": ["PartitionedCall/model_1/tf.math.multiply_150/Mul", "1614"], "device": "/device:CPU:0", "attr": {"use_cudnn_on_gpu": {"b": true}, "padding": {"s": "U0FNRQ=="}, "dilations": {"list": {"i": ["1", "1", "1", "1"]}}, "T": {"type": "DT_FLOAT"}, "data_format": {"s": "TkhXQw=="}, "explicit_paddings": {"list": {}}, "strides": {"list": {"i": ["1", "1", "1", "1"]}}}}, {"name": "PartitionedCall/model_1/tf.math.add_77/Add", "op": "AddV2", "input": ["PartitionedCall/model_1/tf.nn.convolution_45/convolution", "1616"], "attr": {"T": {"type": "DT_FLOAT"}}}, {"name": "PartitionedCall/model_1/tf.math.sigmoid_45/Sigmoid", "op": "Sigmoid", "input": ["PartitionedCall/model_1/tf.math.add_77/Add"], "attr": {"T": {"type": "DT_FLOAT"}}}, {"name": "PartitionedCall/model_1/tf.math.multiply_153/Mul", "op": "Mul", "input": ["PartitionedCall/model_1/tf.math.add_77/Add", "PartitionedCall/model_1/tf.math.sigmoid_45/Sigmoid"], "attr": {"T": {"type": "DT_FLOAT"}}}, {"name": "PartitionedCall/model_1/tf.math.add_79/Add", "op": "AddV2", "input": ["PartitionedCall/model_1/tf.math.add_75/Add", "PartitionedCall/model_1/tf.math.multiply_153/Mul"], "attr": {"T": {"type": "DT_FLOAT"}}}, {"name": "PartitionedCall/model_1/tf.nn.convolution_46/convolution", "op": "Conv2D", "input": ["PartitionedCall/model_1/tf.math.add_79/Add", "1618"], "device": "/device:CPU:0", "attr": {"T": {"type": "DT_FLOAT"}, "strides": {"list": {"i": ["1", "1", "1", "1"]}}, "explicit_paddings": {"list": {}}, "dilations": {"list": {"i": ["1", "1", "1", "1"]}}, "padding": {"s": "U0FNRQ=="}, "use_cudnn_on_gpu": {"b": true}, "data_format": {"s": "TkhXQw=="}}}, {"name": "PartitionedCall/model_1/tf.math.add_80/Add", "op": "AddV2", "input": ["PartitionedCall/model_1/tf.nn.convolution_46/convolution", "1620"], "attr": {"T": {"type": "DT_FLOAT"}}}, {"name": "PartitionedCall/model_1/tf.math.sigmoid_46/Sigmoid", "op": "Sigmoid", "input": ["PartitionedCall/model_1/tf.math.add_80/Add"], "attr": {"T": {"type": "DT_FLOAT"}}}, {"name": "PartitionedCall/model_1/tf.math.multiply_157/Mul", "op": "Mul", "input": ["PartitionedCall/model_1/tf.math.add_80/Add", "PartitionedCall/model_1/tf.math.sigmoid_46/Sigmoid"], "attr": {"T": {"type": "DT_FLOAT"}}}, {"name": "PartitionedCall/model_1/tf.nn.convolution_47/convolution", "op": "Conv2D", "input": ["PartitionedCall/model_1/tf.math.multiply_157/Mul", "1622"], "device": "/device:CPU:0", "attr": {"dilations": {"list": {"i": ["1", "1", "1", "1"]}}, "padding": {"s": "U0FNRQ=="}, "use_cudnn_on_gpu": {"b": true}, "strides": {"list": {"i": ["1", "1", "1", "1"]}}, "data_format": {"s": "TkhXQw=="}, "explicit_paddings": {"list": {}}, "T": {"type": "DT_FLOAT"}}}, {"name": "PartitionedCall/model_1/tf.math.add_81/Add", "op": "AddV2", "input": ["PartitionedCall/model_1/tf.nn.convolution_47/convolution", "1624"], "attr": {"T": {"type": "DT_FLOAT"}}}, {"name": "PartitionedCall/model_1/tf.math.sigmoid_47/Sigmoid", "op": "Sigmoid", "input": ["PartitionedCall/model_1/tf.math.add_81/Add"], "attr": {"T": {"type": "DT_FLOAT"}}}, {"name": "PartitionedCall/model_1/tf.math.multiply_160/Mul", "op": "Mul", "input": ["PartitionedCall/model_1/tf.math.add_81/Add", "PartitionedCall/model_1/tf.math.sigmoid_47/Sigmoid"], "attr": {"T": {"type": "DT_FLOAT"}}}, {"name": "PartitionedCall/model_1/tf.math.add_83/Add", "op": "AddV2", "input": ["PartitionedCall/model_1/tf.math.add_79/Add", "PartitionedCall/model_1/tf.math.multiply_160/Mul"], "attr": {"T": {"type": "DT_FLOAT"}}}, {"name": "PartitionedCall/model_1/tf.concat_3/concat", "op": "ConcatV2", "input": ["PartitionedCall/model_1/tf.strided_slice_13/StridedSlice", "PartitionedCall/model_1/tf.strided_slice_15/StridedSlice", "PartitionedCall/model_1/tf.math.add_75/Add", "PartitionedCall/model_1/tf.math.add_79/Add", "PartitionedCall/model_1/tf.math.add_83/Add", "PartitionedCall/model_1/tf.concat_3/concat/axis"], "attr": {"T": {"type": "DT_FLOAT"}, "N": {"i": "5"}, "Tidx": {"type": "DT_INT32"}}}, {"name": "PartitionedCall/model_1/tf.nn.convolution_48/convolution", "op": "Conv2D", "input": ["PartitionedCall/model_1/tf.concat_3/concat", "1630"], "device": "/device:CPU:0", "attr": {"explicit_paddings": {"list": {}}, "use_cudnn_on_gpu": {"b": true}, "strides": {"list": {"i": ["1", "1", "1", "1"]}}, "T": {"type": "DT_FLOAT"}, "padding": {"s": "U0FNRQ=="}, "data_format": {"s": "TkhXQw=="}, "dilations": {"list": {"i": ["1", "1", "1", "1"]}}}}, {"name": "PartitionedCall/model_1/tf.math.add_84/Add", "op": "AddV2", "input": ["PartitionedCall/model_1/tf.nn.convolution_48/convolution", "1632"], "attr": {"T": {"type": "DT_FLOAT"}}}, {"name": "PartitionedCall/model_1/tf.math.sigmoid_48/Sigmoid", "op": "Sigmoid", "input": ["PartitionedCall/model_1/tf.math.add_84/Add"], "attr": {"T": {"type": "DT_FLOAT"}}}, {"name": "PartitionedCall/model_1/tf.math.multiply_164/Mul", "op": "Mul", "input": ["PartitionedCall/model_1/tf.math.add_84/Add", "PartitionedCall/model_1/tf.math.sigmoid_48/Sigmoid"], "attr": {"T": {"type": "DT_FLOAT"}}}, {"name": "PartitionedCall/model_1/tf.nn.convolution_49/convolution", "op": "Conv2D", "input": ["PartitionedCall/model_1/tf.math.multiply_164/Mul", "1634"], "device": "/device:CPU:0", "attr": {"data_format": {"s": "TkhXQw=="}, "use_cudnn_on_gpu": {"b": true}, "strides": {"list": {"i": ["1", "1", "1", "1"]}}, "T": {"type": "DT_FLOAT"}, "explicit_paddings": {"list": {}}, "padding": {"s": "U0FNRQ=="}, "dilations": {"list": {"i": ["1", "1", "1", "1"]}}}}, {"name": "PartitionedCall/model_1/tf.math.add_85/Add", "op": "AddV2", "input": ["PartitionedCall/model_1/tf.nn.convolution_49/convolution", "1636"], "attr": {"T": {"type": "DT_FLOAT"}}}, {"name": "PartitionedCall/model_1/tf.math.sigmoid_49/Sigmoid", "op": "Sigmoid", "input": ["PartitionedCall/model_1/tf.math.add_85/Add"], "attr": {"T": {"type": "DT_FLOAT"}}}, {"name": "PartitionedCall/model_1/tf.math.multiply_167/Mul", "op": "Mul", "input": ["PartitionedCall/model_1/tf.math.add_85/Add", "PartitionedCall/model_1/tf.math.sigmoid_49/Sigmoid"], "attr": {"T": {"type": "DT_FLOAT"}}}, {"name": "PartitionedCall/model_1/tf.compat.v1.nn.pool/max_pool", "op": "MaxPool", "input": ["PartitionedCall/model_1/tf.math.multiply_167/Mul"], "attr": {"T": {"type": "DT_FLOAT"}, "explicit_paddings": {"list": {}}, "ksize": {"list": {"i": ["1", "5", "5", "1"]}}, "data_format": {"s": "TkhXQw=="}, "strides": {"list": {"i": ["1", "1", "1", "1"]}}, "padding": {"s": "U0FNRQ=="}}}, {"name": "PartitionedCall/model_1/tf.compat.v1.nn.pool_1/max_pool", "op": "MaxPool", "input": ["PartitionedCall/model_1/tf.compat.v1.nn.pool/max_pool"], "attr": {"ksize": {"list": {"i": ["1", "5", "5", "1"]}}, "T": {"type": "DT_FLOAT"}, "data_format": {"s": "TkhXQw=="}, "strides": {"list": {"i": ["1", "1", "1", "1"]}}, "padding": {"s": "U0FNRQ=="}, "explicit_paddings": {"list": {}}}}, {"name": "PartitionedCall/model_1/tf.compat.v1.nn.pool_2/max_pool", "op": "MaxPool", "input": ["PartitionedCall/model_1/tf.compat.v1.nn.pool_1/max_pool"], "attr": {"explicit_paddings": {"list": {}}, "data_format": {"s": "TkhXQw=="}, "T": {"type": "DT_FLOAT"}, "ksize": {"list": {"i": ["1", "5", "5", "1"]}}, "strides": {"list": {"i": ["1", "1", "1", "1"]}}, "padding": {"s": "U0FNRQ=="}}}, {"name": "PartitionedCall/model_1/tf.concat_4/concat", "op": "ConcatV2", "input": ["PartitionedCall/model_1/tf.math.multiply_167/Mul", "PartitionedCall/model_1/tf.compat.v1.nn.pool/max_pool", "PartitionedCall/model_1/tf.compat.v1.nn.pool_1/max_pool", "PartitionedCall/model_1/tf.compat.v1.nn.pool_2/max_pool", "PartitionedCall/model_1/tf.concat_4/concat/axis"], "attr": {"T": {"type": "DT_FLOAT"}, "Tidx": {"type": "DT_INT32"}, "N": {"i": "4"}}}, {"name": "PartitionedCall/model_1/tf.nn.convolution_50/convolution", "op": "Conv2D", "input": ["PartitionedCall/model_1/tf.concat_4/concat", "1638"], "device": "/device:CPU:0", "attr": {"padding": {"s": "U0FNRQ=="}, "data_format": {"s": "TkhXQw=="}, "explicit_paddings": {"list": {}}, "strides": {"list": {"i": ["1", "1", "1", "1"]}}, "T": {"type": "DT_FLOAT"}, "dilations": {"list": {"i": ["1", "1", "1", "1"]}}, "use_cudnn_on_gpu": {"b": true}}}, {"name": "PartitionedCall/model_1/tf.math.add_86/Add", "op": "AddV2", "input": ["PartitionedCall/model_1/tf.nn.convolution_50/convolution", "1640"], "attr": {"T": {"type": "DT_FLOAT"}}}, {"name": "PartitionedCall/model_1/tf.math.sigmoid_50/Sigmoid", "op": "Sigmoid", "input": ["PartitionedCall/model_1/tf.math.add_86/Add"], "attr": {"T": {"type": "DT_FLOAT"}}}, {"name": "PartitionedCall/model_1/tf.math.multiply_170/Mul", "op": "Mul", "input": ["PartitionedCall/model_1/tf.math.add_86/Add", "PartitionedCall/model_1/tf.math.sigmoid_50/Sigmoid"], "attr": {"T": {"type": "DT_FLOAT"}}}, {"name": "PartitionedCall/model_1/lambda//model.10/Resize", "op": "ResizeNearestNeighbor", "input": ["PartitionedCall/model_1/tf.math.multiply_170/Mul", "PartitionedCall/model_1/lambda//model.10/Resize/size"], "attr": {"align_corners": {"b": false}, "half_pixel_centers": {"b": false}, "T": {"type": "DT_FLOAT"}}}, {"name": "PartitionedCall/model_1/tf.concat_5/concat", "op": "ConcatV2", "input": ["PartitionedCall/model_1/lambda//model.10/Resize", "PartitionedCall/model_1/tf.math.multiply_134/Mul", "PartitionedCall/model_1/tf.concat_5/concat/axis"], "attr": {"Tidx": {"type": "DT_INT32"}, "N": {"i": "2"}, "T": {"type": "DT_FLOAT"}}}, {"name": "PartitionedCall/model_1/tf.nn.convolution_51/convolution", "op": "Conv2D", "input": ["PartitionedCall/model_1/tf.concat_5/concat", "1642"], "device": "/device:CPU:0", "attr": {"data_format": {"s": "TkhXQw=="}, "use_cudnn_on_gpu": {"b": true}, "padding": {"s": "U0FNRQ=="}, "strides": {"list": {"i": ["1", "1", "1", "1"]}}, "T": {"type": "DT_FLOAT"}, "dilations": {"list": {"i": ["1", "1", "1", "1"]}}, "explicit_paddings": {"list": {}}}}, {"name": "PartitionedCall/model_1/tf.math.add_87/Add", "op": "AddV2", "input": ["PartitionedCall/model_1/tf.nn.convolution_51/convolution", "1644"], "attr": {"T": {"type": "DT_FLOAT"}}}, {"name": "PartitionedCall/model_1/tf.math.sigmoid_51/Sigmoid", "op": "Sigmoid", "input": ["PartitionedCall/model_1/tf.math.add_87/Add"], "attr": {"T": {"type": "DT_FLOAT"}}}, {"name": "PartitionedCall/model_1/tf.math.multiply_173/Mul", "op": "Mul", "input": ["PartitionedCall/model_1/tf.math.add_87/Add", "PartitionedCall/model_1/tf.math.sigmoid_51/Sigmoid"], "attr": {"T": {"type": "DT_FLOAT"}}}, {"name": "PartitionedCall/model_1/tf.strided_slice_17/StridedSlice", "op": "StridedSlice", "input": ["PartitionedCall/model_1/tf.math.multiply_173/Mul", "1674", "1676", "PartitionedCall/model_1/tf.strided_slice_17/ones_like"], "attr": {"shrink_axis_mask": {"i": "0"}, "ellipsis_mask": {"i": "0"}, "end_mask": {"i": "7"}, "T": {"type": "DT_FLOAT"}, "begin_mask": {"i": "15"}, "Index": {"type": "DT_INT64"}, "new_axis_mask": {"i": "0"}}}, {"name": "PartitionedCall/model_1/tf.strided_slice_19/StridedSlice", "op": "StridedSlice", "input": ["PartitionedCall/model_1/tf.math.multiply_173/Mul", "1646", "1648", "PartitionedCall/model_1/tf.strided_slice_19/ones_like"], "attr": {"T": {"type": "DT_FLOAT"}, "end_mask": {"i": "7"}, "ellipsis_mask": {"i": "0"}, "shrink_axis_mask": {"i": "0"}, "Index": {"type": "DT_INT64"}, "new_axis_mask": {"i": "0"}, "begin_mask": {"i": "7"}}}, {"name": "PartitionedCall/model_1/tf.nn.convolution_52/convolution", "op": "Conv2D", "input": ["PartitionedCall/model_1/tf.strided_slice_19/StridedSlice", "1650"], "device": "/device:CPU:0", "attr": {"strides": {"list": {"i": ["1", "1", "1", "1"]}}, "data_format": {"s": "TkhXQw=="}, "use_cudnn_on_gpu": {"b": true}, "explicit_paddings": {"list": {}}, "T": {"type": "DT_FLOAT"}, "dilations": {"list": {"i": ["1", "1", "1", "1"]}}, "padding": {"s": "U0FNRQ=="}}}, {"name": "PartitionedCall/model_1/tf.math.add_88/Add", "op": "AddV2", "input": ["PartitionedCall/model_1/tf.nn.convolution_52/convolution", "1652"], "attr": {"T": {"type": "DT_FLOAT"}}}, {"name": "PartitionedCall/model_1/tf.math.sigmoid_52/Sigmoid", "op": "Sigmoid", "input": ["PartitionedCall/model_1/tf.math.add_88/Add"], "attr": {"T": {"type": "DT_FLOAT"}}}, {"name": "PartitionedCall/model_1/tf.math.multiply_176/Mul", "op": "Mul", "input": ["PartitionedCall/model_1/tf.math.add_88/Add", "PartitionedCall/model_1/tf.math.sigmoid_52/Sigmoid"], "attr": {"T": {"type": "DT_FLOAT"}}}, {"name": "PartitionedCall/model_1/tf.nn.convolution_53/convolution", "op": "Conv2D", "input": ["PartitionedCall/model_1/tf.math.multiply_176/Mul", "1654"], "device": "/device:CPU:0", "attr": {"dilations": {"list": {"i": ["1", "1", "1", "1"]}}, "explicit_paddings": {"list": {}}, "strides": {"list": {"i": ["1", "1", "1", "1"]}}, "T": {"type": "DT_FLOAT"}, "use_cudnn_on_gpu": {"b": true}, "padding": {"s": "U0FNRQ=="}, "data_format": {"s": "TkhXQw=="}}}, {"name": "PartitionedCall/model_1/tf.math.add_89/Add", "op": "AddV2", "input": ["PartitionedCall/model_1/tf.nn.convolution_53/convolution", "1656"], "attr": {"T": {"type": "DT_FLOAT"}}}, {"name": "PartitionedCall/model_1/tf.math.sigmoid_53/Sigmoid", "op": "Sigmoid", "input": ["PartitionedCall/model_1/tf.math.add_89/Add"], "attr": {"T": {"type": "DT_FLOAT"}}}, {"name": "PartitionedCall/model_1/tf.math.multiply_179/Mul", "op": "Mul", "input": ["PartitionedCall/model_1/tf.math.add_89/Add", "PartitionedCall/model_1/tf.math.sigmoid_53/Sigmoid"], "attr": {"T": {"type": "DT_FLOAT"}}}, {"name": "PartitionedCall/model_1/tf.nn.convolution_54/convolution", "op": "Conv2D", "input": ["PartitionedCall/model_1/tf.math.multiply_179/Mul", "1658"], "device": "/device:CPU:0", "attr": {"dilations": {"list": {"i": ["1", "1", "1", "1"]}}, "T": {"type": "DT_FLOAT"}, "padding": {"s": "U0FNRQ=="}, "use_cudnn_on_gpu": {"b": true}, "data_format": {"s": "TkhXQw=="}, "explicit_paddings": {"list": {}}, "strides": {"list": {"i": ["1", "1", "1", "1"]}}}}, {"name": "PartitionedCall/model_1/tf.math.add_90/Add", "op": "AddV2", "input": ["PartitionedCall/model_1/tf.nn.convolution_54/convolution", "1660"], "attr": {"T": {"type": "DT_FLOAT"}}}, {"name": "PartitionedCall/model_1/tf.math.sigmoid_54/Sigmoid", "op": "Sigmoid", "input": ["PartitionedCall/model_1/tf.math.add_90/Add"], "attr": {"T": {"type": "DT_FLOAT"}}}, {"name": "PartitionedCall/model_1/tf.math.multiply_182/Mul", "op": "Mul", "input": ["PartitionedCall/model_1/tf.math.add_90/Add", "PartitionedCall/model_1/tf.math.sigmoid_54/Sigmoid"], "attr": {"T": {"type": "DT_FLOAT"}}}, {"name": "PartitionedCall/model_1/tf.nn.convolution_55/convolution", "op": "Conv2D", "input": ["PartitionedCall/model_1/tf.math.multiply_182/Mul", "1662"], "device": "/device:CPU:0", "attr": {"data_format": {"s": "TkhXQw=="}, "explicit_paddings": {"list": {}}, "strides": {"list": {"i": ["1", "1", "1", "1"]}}, "T": {"type": "DT_FLOAT"}, "padding": {"s": "U0FNRQ=="}, "use_cudnn_on_gpu": {"b": true}, "dilations": {"list": {"i": ["1", "1", "1", "1"]}}}}, {"name": "PartitionedCall/model_1/tf.math.add_91/Add", "op": "AddV2", "input": ["PartitionedCall/model_1/tf.nn.convolution_55/convolution", "1664"], "attr": {"T": {"type": "DT_FLOAT"}}}, {"name": "PartitionedCall/model_1/tf.math.sigmoid_55/Sigmoid", "op": "Sigmoid", "input": ["PartitionedCall/model_1/tf.math.add_91/Add"], "attr": {"T": {"type": "DT_FLOAT"}}}, {"name": "PartitionedCall/model_1/tf.math.multiply_185/Mul", "op": "Mul", "input": ["PartitionedCall/model_1/tf.math.add_91/Add", "PartitionedCall/model_1/tf.math.sigmoid_55/Sigmoid"], "attr": {"T": {"type": "DT_FLOAT"}}}, {"name": "PartitionedCall/model_1/tf.nn.convolution_56/convolution", "op": "Conv2D", "input": ["PartitionedCall/model_1/tf.math.multiply_185/Mul", "1666"], "device": "/device:CPU:0", "attr": {"T": {"type": "DT_FLOAT"}, "dilations": {"list": {"i": ["1", "1", "1", "1"]}}, "strides": {"list": {"i": ["1", "1", "1", "1"]}}, "use_cudnn_on_gpu": {"b": true}, "padding": {"s": "U0FNRQ=="}, "data_format": {"s": "TkhXQw=="}, "explicit_paddings": {"list": {}}}}, {"name": "PartitionedCall/model_1/tf.math.add_92/Add", "op": "AddV2", "input": ["PartitionedCall/model_1/tf.nn.convolution_56/convolution", "1668"], "attr": {"T": {"type": "DT_FLOAT"}}}, {"name": "PartitionedCall/model_1/tf.math.sigmoid_56/Sigmoid", "op": "Sigmoid", "input": ["PartitionedCall/model_1/tf.math.add_92/Add"], "attr": {"T": {"type": "DT_FLOAT"}}}, {"name": "PartitionedCall/model_1/tf.math.multiply_188/Mul", "op": "Mul", "input": ["PartitionedCall/model_1/tf.math.add_92/Add", "PartitionedCall/model_1/tf.math.sigmoid_56/Sigmoid"], "attr": {"T": {"type": "DT_FLOAT"}}}, {"name": "PartitionedCall/model_1/tf.nn.convolution_57/convolution", "op": "Conv2D", "input": ["PartitionedCall/model_1/tf.math.multiply_188/Mul", "1670"], "device": "/device:CPU:0", "attr": {"dilations": {"list": {"i": ["1", "1", "1", "1"]}}, "T": {"type": "DT_FLOAT"}, "data_format": {"s": "TkhXQw=="}, "explicit_paddings": {"list": {}}, "use_cudnn_on_gpu": {"b": true}, "strides": {"list": {"i": ["1", "1", "1", "1"]}}, "padding": {"s": "U0FNRQ=="}}}, {"name": "PartitionedCall/model_1/tf.math.add_93/Add", "op": "AddV2", "input": ["PartitionedCall/model_1/tf.nn.convolution_57/convolution", "1672"], "attr": {"T": {"type": "DT_FLOAT"}}}, {"name": "PartitionedCall/model_1/tf.math.sigmoid_57/Sigmoid", "op": "Sigmoid", "input": ["PartitionedCall/model_1/tf.math.add_93/Add"], "attr": {"T": {"type": "DT_FLOAT"}}}, {"name": "PartitionedCall/model_1/tf.math.multiply_191/Mul", "op": "Mul", "input": ["PartitionedCall/model_1/tf.math.add_93/Add", "PartitionedCall/model_1/tf.math.sigmoid_57/Sigmoid"], "attr": {"T": {"type": "DT_FLOAT"}}}, {"name": "PartitionedCall/model_1/tf.concat_6/concat", "op": "ConcatV2", "input": ["PartitionedCall/model_1/tf.strided_slice_17/StridedSlice", "PartitionedCall/model_1/tf.strided_slice_19/StridedSlice", "PartitionedCall/model_1/tf.math.multiply_179/Mul", "PartitionedCall/model_1/tf.math.multiply_185/Mul", "PartitionedCall/model_1/tf.math.multiply_191/Mul", "PartitionedCall/model_1/tf.concat_6/concat/axis"], "attr": {"T": {"type": "DT_FLOAT"}, "N": {"i": "5"}, "Tidx": {"type": "DT_INT32"}}}, {"name": "PartitionedCall/model_1/tf.nn.convolution_58/convolution", "op": "Conv2D", "input": ["PartitionedCall/model_1/tf.concat_6/concat", "1678"], "device": "/device:CPU:0", "attr": {"padding": {"s": "U0FNRQ=="}, "use_cudnn_on_gpu": {"b": true}, "explicit_paddings": {"list": {}}, "strides": {"list": {"i": ["1", "1", "1", "1"]}}, "T": {"type": "DT_FLOAT"}, "dilations": {"list": {"i": ["1", "1", "1", "1"]}}, "data_format": {"s": "TkhXQw=="}}}, {"name": "PartitionedCall/model_1/tf.math.add_94/Add", "op": "AddV2", "input": ["PartitionedCall/model_1/tf.nn.convolution_58/convolution", "1680"], "attr": {"T": {"type": "DT_FLOAT"}}}, {"name": "PartitionedCall/model_1/tf.math.sigmoid_58/Sigmoid", "op": "Sigmoid", "input": ["PartitionedCall/model_1/tf.math.add_94/Add"], "attr": {"T": {"type": "DT_FLOAT"}}}, {"name": "PartitionedCall/model_1/tf.math.multiply_194/Mul", "op": "Mul", "input": ["PartitionedCall/model_1/tf.math.add_94/Add", "PartitionedCall/model_1/tf.math.sigmoid_58/Sigmoid"], "attr": {"T": {"type": "DT_FLOAT"}}}, {"name": "PartitionedCall/model_1/lambda_1//model.13/Resize", "op": "ResizeNearestNeighbor", "input": ["PartitionedCall/model_1/tf.math.multiply_194/Mul", "PartitionedCall/model_1/lambda_1//model.13/Resize/size"], "attr": {"T": {"type": "DT_FLOAT"}, "half_pixel_centers": {"b": false}, "align_corners": {"b": false}}}, {"name": "PartitionedCall/model_1/tf.concat_7/concat", "op": "ConcatV2", "input": ["PartitionedCall/model_1/lambda_1//model.13/Resize", "PartitionedCall/model_1/tf.math.multiply_83/Mul", "PartitionedCall/model_1/tf.concat_7/concat/axis"], "attr": {"Tidx": {"type": "DT_INT32"}, "N": {"i": "2"}, "T": {"type": "DT_FLOAT"}}}, {"name": "PartitionedCall/model_1/tf.nn.convolution_59/convolution", "op": "Conv2D", "input": ["PartitionedCall/model_1/tf.concat_7/concat", "1682"], "device": "/device:CPU:0", "attr": {"data_format": {"s": "TkhXQw=="}, "strides": {"list": {"i": ["1", "1", "1", "1"]}}, "T": {"type": "DT_FLOAT"}, "use_cudnn_on_gpu": {"b": true}, "padding": {"s": "U0FNRQ=="}, "explicit_paddings": {"list": {}}, "dilations": {"list": {"i": ["1", "1", "1", "1"]}}}}, {"name": "PartitionedCall/model_1/tf.math.add_95/Add", "op": "AddV2", "input": ["PartitionedCall/model_1/tf.nn.convolution_59/convolution", "1684"], "attr": {"T": {"type": "DT_FLOAT"}}}, {"name": "PartitionedCall/model_1/tf.math.sigmoid_59/Sigmoid", "op": "Sigmoid", "input": ["PartitionedCall/model_1/tf.math.add_95/Add"], "attr": {"T": {"type": "DT_FLOAT"}}}, {"name": "PartitionedCall/model_1/tf.math.multiply_197/Mul", "op": "Mul", "input": ["PartitionedCall/model_1/tf.math.add_95/Add", "PartitionedCall/model_1/tf.math.sigmoid_59/Sigmoid"], "attr": {"T": {"type": "DT_FLOAT"}}}, {"name": "PartitionedCall/model_1/tf.strided_slice_21/StridedSlice", "op": "StridedSlice", "input": ["PartitionedCall/model_1/tf.math.multiply_197/Mul", "1714", "1716", "PartitionedCall/model_1/tf.strided_slice_21/ones_like"], "attr": {"end_mask": {"i": "7"}, "ellipsis_mask": {"i": "0"}, "new_axis_mask": {"i": "0"}, "Index": {"type": "DT_INT64"}, "shrink_axis_mask": {"i": "0"}, "begin_mask": {"i": "15"}, "T": {"type": "DT_FLOAT"}}}, {"name": "PartitionedCall/model_1/tf.strided_slice_23/StridedSlice", "op": "StridedSlice", "input": ["PartitionedCall/model_1/tf.math.multiply_197/Mul", "1686", "1688", "PartitionedCall/model_1/tf.strided_slice_23/ones_like"], "attr": {"new_axis_mask": {"i": "0"}, "end_mask": {"i": "7"}, "Index": {"type": "DT_INT64"}, "shrink_axis_mask": {"i": "0"}, "T": {"type": "DT_FLOAT"}, "ellipsis_mask": {"i": "0"}, "begin_mask": {"i": "7"}}}, {"name": "PartitionedCall/model_1/tf.nn.convolution_60/convolution", "op": "Conv2D", "input": ["PartitionedCall/model_1/tf.strided_slice_23/StridedSlice", "1690"], "device": "/device:CPU:0", "attr": {"explicit_paddings": {"list": {}}, "data_format": {"s": "TkhXQw=="}, "use_cudnn_on_gpu": {"b": true}, "T": {"type": "DT_FLOAT"}, "padding": {"s": "U0FNRQ=="}, "dilations": {"list": {"i": ["1", "1", "1", "1"]}}, "strides": {"list": {"i": ["1", "1", "1", "1"]}}}}, {"name": "PartitionedCall/model_1/tf.math.add_96/Add", "op": "AddV2", "input": ["PartitionedCall/model_1/tf.nn.convolution_60/convolution", "1692"], "attr": {"T": {"type": "DT_FLOAT"}}}, {"name": "PartitionedCall/model_1/tf.math.sigmoid_60/Sigmoid", "op": "Sigmoid", "input": ["PartitionedCall/model_1/tf.math.add_96/Add"], "attr": {"T": {"type": "DT_FLOAT"}}}, {"name": "PartitionedCall/model_1/tf.math.multiply_200/Mul", "op": "Mul", "input": ["PartitionedCall/model_1/tf.math.add_96/Add", "PartitionedCall/model_1/tf.math.sigmoid_60/Sigmoid"], "attr": {"T": {"type": "DT_FLOAT"}}}, {"name": "PartitionedCall/model_1/tf.nn.convolution_61/convolution", "op": "Conv2D", "input": ["PartitionedCall/model_1/tf.math.multiply_200/Mul", "1694"], "device": "/device:CPU:0", "attr": {"explicit_paddings": {"list": {}}, "dilations": {"list": {"i": ["1", "1", "1", "1"]}}, "data_format": {"s": "TkhXQw=="}, "strides": {"list": {"i": ["1", "1", "1", "1"]}}, "T": {"type": "DT_FLOAT"}, "padding": {"s": "U0FNRQ=="}, "use_cudnn_on_gpu": {"b": true}}}, {"name": "PartitionedCall/model_1/tf.math.add_97/Add", "op": "AddV2", "input": ["PartitionedCall/model_1/tf.nn.convolution_61/convolution", "1696"], "attr": {"T": {"type": "DT_FLOAT"}}}, {"name": "PartitionedCall/model_1/tf.math.sigmoid_61/Sigmoid", "op": "Sigmoid", "input": ["PartitionedCall/model_1/tf.math.add_97/Add"], "attr": {"T": {"type": "DT_FLOAT"}}}, {"name": "PartitionedCall/model_1/tf.math.multiply_203/Mul", "op": "Mul", "input": ["PartitionedCall/model_1/tf.math.add_97/Add", "PartitionedCall/model_1/tf.math.sigmoid_61/Sigmoid"], "attr": {"T": {"type": "DT_FLOAT"}}}, {"name": "PartitionedCall/model_1/tf.nn.convolution_62/convolution", "op": "Conv2D", "input": ["PartitionedCall/model_1/tf.math.multiply_203/Mul", "1698"], "device": "/device:CPU:0", "attr": {"explicit_paddings": {"list": {}}, "use_cudnn_on_gpu": {"b": true}, "strides": {"list": {"i": ["1", "1", "1", "1"]}}, "dilations": {"list": {"i": ["1", "1", "1", "1"]}}, "padding": {"s": "U0FNRQ=="}, "T": {"type": "DT_FLOAT"}, "data_format": {"s": "TkhXQw=="}}}, {"name": "PartitionedCall/model_1/tf.math.add_98/Add", "op": "AddV2", "input": ["PartitionedCall/model_1/tf.nn.convolution_62/convolution", "1700"], "attr": {"T": {"type": "DT_FLOAT"}}}, {"name": "PartitionedCall/model_1/tf.math.sigmoid_62/Sigmoid", "op": "Sigmoid", "input": ["PartitionedCall/model_1/tf.math.add_98/Add"], "attr": {"T": {"type": "DT_FLOAT"}}}, {"name": "PartitionedCall/model_1/tf.math.multiply_206/Mul", "op": "Mul", "input": ["PartitionedCall/model_1/tf.math.add_98/Add", "PartitionedCall/model_1/tf.math.sigmoid_62/Sigmoid"], "attr": {"T": {"type": "DT_FLOAT"}}}, {"name": "PartitionedCall/model_1/tf.nn.convolution_63/convolution", "op": "Conv2D", "input": ["PartitionedCall/model_1/tf.math.multiply_206/Mul", "1702"], "device": "/device:CPU:0", "attr": {"use_cudnn_on_gpu": {"b": true}, "data_format": {"s": "TkhXQw=="}, "strides": {"list": {"i": ["1", "1", "1", "1"]}}, "explicit_paddings": {"list": {}}, "padding": {"s": "U0FNRQ=="}, "dilations": {"list": {"i": ["1", "1", "1", "1"]}}, "T": {"type": "DT_FLOAT"}}}, {"name": "PartitionedCall/model_1/tf.math.add_99/Add", "op": "AddV2", "input": ["PartitionedCall/model_1/tf.nn.convolution_63/convolution", "1704"], "attr": {"T": {"type": "DT_FLOAT"}}}, {"name": "PartitionedCall/model_1/tf.math.sigmoid_63/Sigmoid", "op": "Sigmoid", "input": ["PartitionedCall/model_1/tf.math.add_99/Add"], "attr": {"T": {"type": "DT_FLOAT"}}}, {"name": "PartitionedCall/model_1/tf.math.multiply_209/Mul", "op": "Mul", "input": ["PartitionedCall/model_1/tf.math.add_99/Add", "PartitionedCall/model_1/tf.math.sigmoid_63/Sigmoid"], "attr": {"T": {"type": "DT_FLOAT"}}}, {"name": "PartitionedCall/model_1/tf.nn.convolution_64/convolution", "op": "Conv2D", "input": ["PartitionedCall/model_1/tf.math.multiply_209/Mul", "1706"], "device": "/device:CPU:0", "attr": {"explicit_paddings": {"list": {}}, "data_format": {"s": "TkhXQw=="}, "T": {"type": "DT_FLOAT"}, "dilations": {"list": {"i": ["1", "1", "1", "1"]}}, "strides": {"list": {"i": ["1", "1", "1", "1"]}}, "use_cudnn_on_gpu": {"b": true}, "padding": {"s": "U0FNRQ=="}}}, {"name": "PartitionedCall/model_1/tf.math.add_100/Add", "op": "AddV2", "input": ["PartitionedCall/model_1/tf.nn.convolution_64/convolution", "1708"], "attr": {"T": {"type": "DT_FLOAT"}}}, {"name": "PartitionedCall/model_1/tf.math.sigmoid_64/Sigmoid", "op": "Sigmoid", "input": ["PartitionedCall/model_1/tf.math.add_100/Add"], "attr": {"T": {"type": "DT_FLOAT"}}}, {"name": "PartitionedCall/model_1/tf.math.multiply_212/Mul", "op": "Mul", "input": ["PartitionedCall/model_1/tf.math.add_100/Add", "PartitionedCall/model_1/tf.math.sigmoid_64/Sigmoid"], "attr": {"T": {"type": "DT_FLOAT"}}}, {"name": "PartitionedCall/model_1/tf.nn.convolution_65/convolution", "op": "Conv2D", "input": ["PartitionedCall/model_1/tf.math.multiply_212/Mul", "1710"], "device": "/device:CPU:0", "attr": {"padding": {"s": "U0FNRQ=="}, "strides": {"list": {"i": ["1", "1", "1", "1"]}}, "data_format": {"s": "TkhXQw=="}, "dilations": {"list": {"i": ["1", "1", "1", "1"]}}, "explicit_paddings": {"list": {}}, "use_cudnn_on_gpu": {"b": true}, "T": {"type": "DT_FLOAT"}}}, {"name": "PartitionedCall/model_1/tf.math.add_101/Add", "op": "AddV2", "input": ["PartitionedCall/model_1/tf.nn.convolution_65/convolution", "1712"], "attr": {"T": {"type": "DT_FLOAT"}}}, {"name": "PartitionedCall/model_1/tf.math.sigmoid_65/Sigmoid", "op": "Sigmoid", "input": ["PartitionedCall/model_1/tf.math.add_101/Add"], "attr": {"T": {"type": "DT_FLOAT"}}}, {"name": "PartitionedCall/model_1/tf.math.multiply_215/Mul", "op": "Mul", "input": ["PartitionedCall/model_1/tf.math.add_101/Add", "PartitionedCall/model_1/tf.math.sigmoid_65/Sigmoid"], "attr": {"T": {"type": "DT_FLOAT"}}}, {"name": "PartitionedCall/model_1/tf.concat_8/concat", "op": "ConcatV2", "input": ["PartitionedCall/model_1/tf.strided_slice_21/StridedSlice", "PartitionedCall/model_1/tf.strided_slice_23/StridedSlice", "PartitionedCall/model_1/tf.math.multiply_203/Mul", "PartitionedCall/model_1/tf.math.multiply_209/Mul", "PartitionedCall/model_1/tf.math.multiply_215/Mul", "PartitionedCall/model_1/tf.concat_8/concat/axis"], "attr": {"N": {"i": "5"}, "T": {"type": "DT_FLOAT"}, "Tidx": {"type": "DT_INT32"}}}, {"name": "PartitionedCall/model_1/tf.nn.convolution_66/convolution", "op": "Conv2D", "input": ["PartitionedCall/model_1/tf.concat_8/concat", "1718"], "device": "/device:CPU:0", "attr": {"padding": {"s": "U0FNRQ=="}, "T": {"type": "DT_FLOAT"}, "dilations": {"list": {"i": ["1", "1", "1", "1"]}}, "data_format": {"s": "TkhXQw=="}, "strides": {"list": {"i": ["1", "1", "1", "1"]}}, "use_cudnn_on_gpu": {"b": true}, "explicit_paddings": {"list": {}}}}, {"name": "PartitionedCall/model_1/tf.math.add_102/Add", "op": "AddV2", "input": ["PartitionedCall/model_1/tf.nn.convolution_66/convolution", "1720"], "attr": {"T": {"type": "DT_FLOAT"}}}, {"name": "PartitionedCall/model_1/tf.math.sigmoid_66/Sigmoid", "op": "Sigmoid", "input": ["PartitionedCall/model_1/tf.math.add_102/Add"], "attr": {"T": {"type": "DT_FLOAT"}}}, {"name": "PartitionedCall/model_1/tf.math.multiply_218/Mul", "op": "Mul", "input": ["PartitionedCall/model_1/tf.math.add_102/Add", "PartitionedCall/model_1/tf.math.sigmoid_66/Sigmoid"], "attr": {"T": {"type": "DT_FLOAT"}}}, {"name": "PartitionedCall/model_1/tf.nn.convolution_68/convolution", "op": "Conv2D", "input": ["PartitionedCall/model_1/tf.math.multiply_218/Mul", "1824"], "device": "/device:CPU:0", "attr": {"use_cudnn_on_gpu": {"b": true}, "data_format": {"s": "TkhXQw=="}, "explicit_paddings": {"list": {}}, "T": {"type": "DT_FLOAT"}, "dilations": {"list": {"i": ["1", "1", "1", "1"]}}, "strides": {"list": {"i": ["1", "1", "1", "1"]}}, "padding": {"s": "U0FNRQ=="}}}, {"name": "PartitionedCall/model_1/tf.nn.convolution_69/convolution", "op": "Conv2D", "input": ["PartitionedCall/model_1/tf.math.multiply_218/Mul", "1822"], "device": "/device:CPU:0", "attr": {"explicit_paddings": {"list": {}}, "padding": {"s": "U0FNRQ=="}, "strides": {"list": {"i": ["1", "1", "1", "1"]}}, "T": {"type": "DT_FLOAT"}, "dilations": {"list": {"i": ["1", "1", "1", "1"]}}, "data_format": {"s": "TkhXQw=="}, "use_cudnn_on_gpu": {"b": true}}}, {"name": "PartitionedCall/model_1/tf.compat.v1.pad_5/Pad", "op": "Pad", "input": ["PartitionedCall/model_1/tf.math.multiply_218/Mul", "1722"], "attr": {"Tpaddings": {"type": "DT_INT32"}, "T": {"type": "DT_FLOAT"}}}, {"name": "PartitionedCall/model_1/tf.math.add_104/Add", "op": "AddV2", "input": ["PartitionedCall/model_1/tf.nn.convolution_68/convolution", "1836"], "attr": {"T": {"type": "DT_FLOAT"}}}, {"name": "PartitionedCall/model_1/tf.math.add_105/Add", "op": "AddV2", "input": ["PartitionedCall/model_1/tf.nn.convolution_69/convolution", "1834"], "attr": {"T": {"type": "DT_FLOAT"}}}, {"name": "PartitionedCall/model_1/tf.nn.convolution_67/convolution", "op": "Conv2D", "input": ["PartitionedCall/model_1/tf.compat.v1.pad_5/Pad", "1724"], "device": "/device:CPU:0", "attr": {"strides": {"list": {"i": ["1", "2", "2", "1"]}}, "use_cudnn_on_gpu": {"b": true}, "T": {"type": "DT_FLOAT"}, "padding": {"s": "VkFMSUQ="}, "data_format": {"s": "TkhXQw=="}, "explicit_paddings": {"list": {}}, "dilations": {"list": {"i": ["1", "1", "1", "1"]}}}}, {"name": "PartitionedCall/model_1/tf.math.sigmoid_68/Sigmoid", "op": "Sigmoid", "input": ["PartitionedCall/model_1/tf.math.add_104/Add"], "attr": {"T": {"type": "DT_FLOAT"}}}, {"name": "PartitionedCall/model_1/tf.math.sigmoid_69/Sigmoid", "op": "Sigmoid", "input": ["PartitionedCall/model_1/tf.math.add_105/Add"], "attr": {"T": {"type": "DT_FLOAT"}}}, {"name": "PartitionedCall/model_1/tf.math.add_103/Add", "op": "AddV2", "input": ["PartitionedCall/model_1/tf.nn.convolution_67/convolution", "1726"], "attr": {"T": {"type": "DT_FLOAT"}}}, {"name": "PartitionedCall/model_1/tf.math.multiply_224/Mul", "op": "Mul", "input": ["PartitionedCall/model_1/tf.math.add_104/Add", "PartitionedCall/model_1/tf.math.sigmoid_68/Sigmoid"], "attr": {"T": {"type": "DT_FLOAT"}}}, {"name": "PartitionedCall/model_1/tf.math.multiply_227/Mul", "op": "Mul", "input": ["PartitionedCall/model_1/tf.math.add_105/Add", "PartitionedCall/model_1/tf.math.sigmoid_69/Sigmoid"], "attr": {"T": {"type": "DT_FLOAT"}}}, {"name": "PartitionedCall/model_1/tf.math.sigmoid_67/Sigmoid", "op": "Sigmoid", "input": ["PartitionedCall/model_1/tf.math.add_103/Add"], "attr": {"T": {"type": "DT_FLOAT"}}}, {"name": "PartitionedCall/model_1/tf.nn.convolution_70/convolution", "op": "Conv2D", "input": ["PartitionedCall/model_1/tf.math.multiply_224/Mul", "1848"], "device": "/device:CPU:0", "attr": {"explicit_paddings": {"list": {}}, "dilations": {"list": {"i": ["1", "1", "1", "1"]}}, "strides": {"list": {"i": ["1", "1", "1", "1"]}}, "data_format": {"s": "TkhXQw=="}, "padding": {"s": "U0FNRQ=="}, "T": {"type": "DT_FLOAT"}, "use_cudnn_on_gpu": {"b": true}}}, {"name": "PartitionedCall/model_1/tf.nn.convolution_71/convolution", "op": "Conv2D", "input": ["PartitionedCall/model_1/tf.math.multiply_227/Mul", "1846"], "device": "/device:CPU:0", "attr": {"data_format": {"s": "TkhXQw=="}, "padding": {"s": "U0FNRQ=="}, "explicit_paddings": {"list": {}}, "strides": {"list": {"i": ["1", "1", "1", "1"]}}, "use_cudnn_on_gpu": {"b": true}, "dilations": {"list": {"i": ["1", "1", "1", "1"]}}, "T": {"type": "DT_FLOAT"}}}, {"name": "PartitionedCall/model_1/tf.math.multiply_221/Mul", "op": "Mul", "input": ["PartitionedCall/model_1/tf.math.add_103/Add", "PartitionedCall/model_1/tf.math.sigmoid_67/Sigmoid"], "attr": {"T": {"type": "DT_FLOAT"}}}, {"name": "PartitionedCall/model_1/tf.math.add_106/Add", "op": "AddV2", "input": ["PartitionedCall/model_1/tf.nn.convolution_70/convolution", "1860"], "attr": {"T": {"type": "DT_FLOAT"}}}, {"name": "PartitionedCall/model_1/tf.math.add_107/Add", "op": "AddV2", "input": ["PartitionedCall/model_1/tf.nn.convolution_71/convolution", "1858"], "attr": {"T": {"type": "DT_FLOAT"}}}, {"name": "PartitionedCall/model_1/tf.concat_9/concat", "op": "ConcatV2", "input": ["PartitionedCall/model_1/tf.math.multiply_221/Mul", "PartitionedCall/model_1/tf.math.multiply_194/Mul", "PartitionedCall/model_1/tf.concat_9/concat/axis"], "attr": {"T": {"type": "DT_FLOAT"}, "N": {"i": "2"}, "Tidx": {"type": "DT_INT32"}}}, {"name": "PartitionedCall/model_1/tf.math.sigmoid_70/Sigmoid", "op": "Sigmoid", "input": ["PartitionedCall/model_1/tf.math.add_106/Add"], "attr": {"T": {"type": "DT_FLOAT"}}}, {"name": "PartitionedCall/model_1/tf.math.sigmoid_71/Sigmoid", "op": "Sigmoid", "input": ["PartitionedCall/model_1/tf.math.add_107/Add"], "attr": {"T": {"type": "DT_FLOAT"}}}, {"name": "PartitionedCall/model_1/tf.nn.convolution_72/convolution", "op": "Conv2D", "input": ["PartitionedCall/model_1/tf.concat_9/concat", "1728"], "device": "/device:CPU:0", "attr": {"use_cudnn_on_gpu": {"b": true}, "T": {"type": "DT_FLOAT"}, "data_format": {"s": "TkhXQw=="}, "explicit_paddings": {"list": {}}, "padding": {"s": "U0FNRQ=="}, "strides": {"list": {"i": ["1", "1", "1", "1"]}}, "dilations": {"list": {"i": ["1", "1", "1", "1"]}}}}, {"name": "PartitionedCall/model_1/tf.math.multiply_230/Mul", "op": "Mul", "input": ["PartitionedCall/model_1/tf.math.add_106/Add", "PartitionedCall/model_1/tf.math.sigmoid_70/Sigmoid"], "attr": {"T": {"type": "DT_FLOAT"}}}, {"name": "PartitionedCall/model_1/tf.math.multiply_233/Mul", "op": "Mul", "input": ["PartitionedCall/model_1/tf.math.add_107/Add", "PartitionedCall/model_1/tf.math.sigmoid_71/Sigmoid"], "attr": {"T": {"type": "DT_FLOAT"}}}, {"name": "PartitionedCall/model_1/tf.math.add_108/Add", "op": "AddV2", "input": ["PartitionedCall/model_1/tf.nn.convolution_72/convolution", "1730"], "attr": {"T": {"type": "DT_FLOAT"}}}, {"name": "PartitionedCall/model_1/tf.nn.convolution_73/convolution", "op": "Conv2D", "input": ["PartitionedCall/model_1/tf.math.multiply_230/Mul", "1872"], "device": "/device:CPU:0", "attr": {"data_format": {"s": "TkhXQw=="}, "strides": {"list": {"i": ["1", "1", "1", "1"]}}, "T": {"type": "DT_FLOAT"}, "use_cudnn_on_gpu": {"b": true}, "explicit_paddings": {"list": {}}, "dilations": {"list": {"i": ["1", "1", "1", "1"]}}, "padding": {"s": "U0FNRQ=="}}}, {"name": "PartitionedCall/model_1/tf.nn.convolution_74/convolution", "op": "Conv2D", "input": ["PartitionedCall/model_1/…
moid", "input": ["PartitionedCall/model_1/tf.math.add_120/Add"], "attr": {"T": {"type": "DT_FLOAT"}}}, {"name": "PartitionedCall/model_1/tf.math.add_118/Add", "op": "AddV2", "input": ["PartitionedCall/model_1/tf.nn.convolution_82/convolution", "1772"], "attr": {"T": {"type": "DT_FLOAT"}}}, {"name": "PartitionedCall/model_1/tf.math.multiply_263/Mul", "op": "Mul", "input": ["PartitionedCall/model_1/tf.math.add_119/Add", "PartitionedCall/model_1/tf.math.sigmoid_81/Sigmoid"], "attr": {"T": {"type": "DT_FLOAT"}}}, {"name": "PartitionedCall/model_1/tf.math.multiply_266/Mul", "op": "Mul", "input": ["PartitionedCall/model_1/tf.math.add_120/Add", "PartitionedCall/model_1/tf.math.sigmoid_82/Sigmoid"], "attr": {"T": {"type": "DT_FLOAT"}}}, {"name": "PartitionedCall/model_1/tf.math.sigmoid_80/Sigmoid", "op": "Sigmoid", "input": ["PartitionedCall/model_1/tf.math.add_118/Add"], "attr": {"T": {"type": "DT_FLOAT"}}}, {"name": "PartitionedCall/model_1/tf.nn.convolution_85/convolution", "op": "Conv2D", "input": ["PartitionedCall/model_1/tf.math.multiply_263/Mul", "1844"], "device": "/device:CPU:0", "attr": {"data_format": {"s": "TkhXQw=="}, "strides": {"list": {"i": ["1", "1", "1", "1"]}}, "dilations": {"list": {"i": ["1", "1", "1", "1"]}}, "explicit_paddings": {"list": {}}, "padding": {"s": "U0FNRQ=="}, "use_cudnn_on_gpu": {"b": true}, "T": {"type": "DT_FLOAT"}}}, {"name": "PartitionedCall/model_1/tf.nn.convolution_86/convolution", "op": "Conv2D", "input": ["PartitionedCall/model_1/tf.math.multiply_266/Mul", "1842"], "device": "/device:CPU:0", "attr": {"strides": {"list": {"i": ["1", "1", "1", "1"]}}, "padding": {"s": "U0FNRQ=="}, "use_cudnn_on_gpu": {"b": true}, "explicit_paddings": {"list": {}}, "data_format": {"s": "TkhXQw=="}, "dilations": {"list": {"i": ["1", "1", "1", "1"]}}, "T": {"type": "DT_FLOAT"}}}, {"name": "PartitionedCall/model_1/tf.math.multiply_260/Mul", "op": "Mul", "input": ["PartitionedCall/model_1/tf.math.add_118/Add", "PartitionedCall/model_1/tf.math.sigmoid_80/Sigmoid"], "attr": {"T": {"type": "DT_FLOAT"}}}, {"name": "PartitionedCall/model_1/tf.math.add_121/Add", "op": "AddV2", "input": ["PartitionedCall/model_1/tf.nn.convolution_85/convolution", "1856"], "attr": {"T": {"type": "DT_FLOAT"}}}, {"name": "PartitionedCall/model_1/tf.math.add_122/Add", "op": "AddV2", "input": ["PartitionedCall/model_1/tf.nn.convolution_86/convolution", "1854"], "attr": {"T": {"type": "DT_FLOAT"}}}, {"name": "PartitionedCall/model_1/tf.concat_12/concat", "op": "ConcatV2", "input": ["PartitionedCall/model_1/tf.math.multiply_260/Mul", "PartitionedCall/model_1/tf.math.multiply_170/Mul", "PartitionedCall/model_1/tf.concat_12/concat/axis"], "attr": {"Tidx": {"type": "DT_INT32"}, "N": {"i": "2"}, "T": {"type": "DT_FLOAT"}}}, {"name": "PartitionedCall/model_1/tf.math.sigmoid_83/Sigmoid", "op": "Sigmoid", "input": ["PartitionedCall/model_1/tf.math.add_121/Add"], "attr": {"T": {"type": "DT_FLOAT"}}}, {"name": "PartitionedCall/model_1/tf.math.sigmoid_84/Sigmoid", "op": "Sigmoid", "input": ["PartitionedCall/model_1/tf.math.add_122/Add"], "attr": {"T": {"type": "DT_FLOAT"}}}, {"name": "PartitionedCall/model_1/tf.nn.convolution_87/convolution", "op": "Conv2D", "input": ["PartitionedCall/model_1/tf.concat_12/concat", "1774"], "device": "/device:CPU:0", "attr": {"data_format": {"s": "TkhXQw=="}, "T": {"type": "DT_FLOAT"}, "explicit_paddings": {"list": {}}, "dilations": {"list": {"i": ["1", "1", "1", "1"]}}, "padding": {"s": "U0FNRQ=="}, "strides": {"list": {"i": ["1", "1", "1", "1"]}}, "use_cudnn_on_gpu": {"b": true}}}, {"name": "PartitionedCall/model_1/tf.math.multiply_269/Mul", "op": "Mul", "input": ["PartitionedCall/model_1/tf.math.add_121/Add", "PartitionedCall/model_1/tf.math.sigmoid_83/Sigmoid"], "attr": {"T": {"type": "DT_FLOAT"}}}, {"name": "PartitionedCall/model_1/tf.math.multiply_272/Mul", "op": "Mul", "input": ["PartitionedCall/model_1/tf.math.add_122/Add", "PartitionedCall/model_1/tf.math.sigmoid_84/Sigmoid"], "attr": {"T": {"type": "DT_FLOAT"}}}, {"name": "PartitionedCall/model_1/tf.math.add_123/Add", "op": "AddV2", "input": ["PartitionedCall/model_1/tf.nn.convolution_87/convolution", "1776"], "attr": {"T": {"type": "DT_FLOAT"}}}, {"name": "PartitionedCall/model_1/tf.nn.convolution_88/convolution", "op": "Conv2D", "input": ["PartitionedCall/model_1/tf.math.multiply_269/Mul", "1868"], "device": "/device:CPU:0", "attr": {"dilations": {"list": {"i": ["1", "1", "1", "1"]}}, "padding": {"s": "U0FNRQ=="}, "use_cudnn_on_gpu": {"b": true}, "strides": {"list": {"i": ["1", "1", "1", "1"]}}, "explicit_paddings": {"list": {}}, "T": {"type": "DT_FLOAT"}, "data_format": {"s": "TkhXQw=="}}}, {"name": "PartitionedCall/model_1/tf.nn.convolution_89/convolution", "op": "Conv2D", "input": ["PartitionedCall/model_1/tf.math.multiply_272/Mul", "1866"], "device": "/device:CPU:0", "attr": {"strides": {"list": {"i": ["1", "1", "1", "1"]}}, "explicit_paddings": {"list": {}}, "padding": {"s": "U0FNRQ=="}, "use_cudnn_on_gpu": {"b": true}, "T": {"type": "DT_FLOAT"}, "data_format": {"s": "TkhXQw=="}, "dilations": {"list": {"i": ["1", "1", "1", "1"]}}}}, {"name": "PartitionedCall/model_1/tf.math.sigmoid_85/Sigmoid", "op": "Sigmoid", "input": ["PartitionedCall/model_1/tf.math.add_123/Add"], "attr": {"T": {"type": "DT_FLOAT"}}}, {"name": "PartitionedCall/model_1/tf.math.add_124/Add", "op": "AddV2", "input": ["PartitionedCall/model_1/tf.nn.convolution_88/convolution", "1878"], "attr": {"T": {"type": "DT_FLOAT"}}}, {"name": "PartitionedCall/model_1/tf.math.add_125/Add", "op": "AddV2", "input": ["PartitionedCall/model_1/tf.nn.convolution_89/convolution", "1880"], "attr": {"T": {"type": "DT_FLOAT"}}}, {"name": "PartitionedCall/model_1/tf.math.multiply_275/Mul", "op": "Mul", "input": ["PartitionedCall/model_1/tf.math.add_123/Add", "PartitionedCall/model_1/tf.math.sigmoid_85/Sigmoid"], "attr": {"T": {"type": "DT_FLOAT"}}}, {"name": "PartitionedCall/model_1/tf.concat_13/concat", "op": "ConcatV2", "input": ["PartitionedCall/model_1/tf.math.add_124/Add", "PartitionedCall/model_1/tf.math.add_125/Add", "PartitionedCall/model_1/tf.concat_13/concat/axis"], "attr": {"N": {"i": "2"}, "Tidx": {"type": "DT_INT32"}, "T": {"type": "DT_FLOAT"}}}, {"name": "PartitionedCall/model_1/tf.strided_slice_29/StridedSlice", "op": "StridedSlice", "input": ["PartitionedCall/model_1/tf.math.multiply_275/Mul", "1806", "1808", "PartitionedCall/model_1/tf.strided_slice_29/ones_like"], "attr": {"begin_mask": {"i": "15"}, "new_axis_mask": {"i": "0"}, "end_mask": {"i": "7"}, "Index": {"type": "DT_INT64"}, "shrink_axis_mask": {"i": "0"}, "T": {"type": "DT_FLOAT"}, "ellipsis_mask": {"i": "0"}}}, {"name": "PartitionedCall/model_1/tf.strided_slice_31/StridedSlice", "op": "StridedSlice", "input": ["PartitionedCall/model_1/tf.math.multiply_275/Mul", "1778", "1780", "PartitionedCall/model_1/tf.strided_slice_31/ones_like"], "attr": {"end_mask": {"i": "7"}, "Index": {"type": "DT_INT64"}, "new_axis_mask": {"i": "0"}, "ellipsis_mask": {"i": "0"}, "shrink_axis_mask": {"i": "0"}, "T": {"type": "DT_FLOAT"}, "begin_mask": {"i": "7"}}}, {"name": "PartitionedCall/model_1/tf.compat.v1.transpose_1/transpose", "op": "Transpose", "input": ["PartitionedCall/model_1/tf.concat_13/concat", "PartitionedCall/model_1/tf.compat.v1.transpose_1/transpose/perm"], "attr": {"Tperm": {"type": "DT_INT32"}, "T": {"type": "DT_FLOAT"}}}, {"name": "PartitionedCall/model_1/tf.nn.convolution_90/convolution", "op": "Conv2D", "input": ["PartitionedCall/model_1/tf.strided_slice_31/StridedSlice", "1782"], "device": "/device:CPU:0", "attr": {"dilations": {"list": {"i": ["1", "1", "1", "1"]}}, "use_cudnn_on_gpu": {"b": true}, "strides": {"list": {"i": ["1", "1", "1", "1"]}}, "T": {"type": "DT_FLOAT"}, "data_format": {"s": "TkhXQw=="}, "padding": {"s": "U0FNRQ=="}, "explicit_paddings": {"list": {}}}}, {"name": "PartitionedCall/model_1/tf.reshape_1/Reshape", "op": "Reshape", "input": ["PartitionedCall/model_1/tf.compat.v1.transpose_1/transpose", "PartitionedCall/model_1/tf.reshape_1/Reshape/shape"], "attr": {"T": {"type": "DT_FLOAT"}, "Tshape": {"type": "DT_INT32"}}}, {"name": "PartitionedCall/model_1/tf.math.add_126/Add", "op": "AddV2", "input": ["PartitionedCall/model_1/tf.nn.convolution_90/convolution", "1784"], "attr": {"T": {"type": "DT_FLOAT"}}}, {"name": "PartitionedCall/model_1/tf.math.sigmoid_86/Sigmoid", "op": "Sigmoid", "input": ["PartitionedCall/model_1/tf.math.add_126/Add"], "attr": {"T": {"type": "DT_FLOAT"}}}, {"name": "PartitionedCall/model_1/tf.math.multiply_278/Mul", "op": "Mul", "input": ["PartitionedCall/model_1/tf.math.add_126/Add", "PartitionedCall/model_1/tf.math.sigmoid_86/Sigmoid"], "attr": {"T": {"type": "DT_FLOAT"}}}, {"name": "PartitionedCall/model_1/tf.nn.convolution_91/convolution", "op": "Conv2D", "input": ["PartitionedCall/model_1/tf.math.multiply_278/Mul", "1786"], "device": "/device:CPU:0", "attr": {"use_cudnn_on_gpu": {"b": true}, "data_format": {"s": "TkhXQw=="}, "padding": {"s": "U0FNRQ=="}, "dilations": {"list": {"i": ["1", "1", "1", "1"]}}, "strides": {"list": {"i": ["1", "1", "1", "1"]}}, "explicit_paddings": {"list": {}}, "T": {"type": "DT_FLOAT"}}}, {"name": "PartitionedCall/model_1/tf.math.add_127/Add", "op": "AddV2", "input": ["PartitionedCall/model_1/tf.nn.convolution_91/convolution", "1788"], "attr": {"T": {"type": "DT_FLOAT"}}}, {"name": "PartitionedCall/model_1/tf.math.sigmoid_87/Sigmoid", "op": "Sigmoid", "input": ["PartitionedCall/model_1/tf.math.add_127/Add"], "attr": {"T": {"type": "DT_FLOAT"}}}, {"name": "PartitionedCall/model_1/tf.math.multiply_281/Mul", "op": "Mul", "input": ["PartitionedCall/model_1/tf.math.add_127/Add", "PartitionedCall/model_1/tf.math.sigmoid_87/Sigmoid"], "attr": {"T": {"type": "DT_FLOAT"}}}, {"name": "PartitionedCall/model_1/tf.nn.convolution_92/convolution", "op": "Conv2D", "input": ["PartitionedCall/model_1/tf.math.multiply_281/Mul", "1790"], "device": "/device:CPU:0", "attr": {"explicit_paddings": {"list": {}}, "strides": {"list": {"i": ["1", "1", "1", "1"]}}, "data_format": {"s": "TkhXQw=="}, "T": {"type": "DT_FLOAT"}, "padding": {"s": "U0FNRQ=="}, "dilations": {"list": {"i": ["1", "1", "1", "1"]}}, "use_cudnn_on_gpu": {"b": true}}}, {"name": "PartitionedCall/model_1/tf.math.add_128/Add", "op": "AddV2", "input": ["PartitionedCall/model_1/tf.nn.convolution_92/convolution", "1792"], "attr": {"T": {"type": "DT_FLOAT"}}}, {"name": "PartitionedCall/model_1/tf.math.sigmoid_88/Sigmoid", "op": "Sigmoid", "input": ["PartitionedCall/model_1/tf.math.add_128/Add"], "attr": {"T": {"type": "DT_FLOAT"}}}, {"name": "PartitionedCall/model_1/tf.math.multiply_284/Mul", "op": "Mul", "input": ["PartitionedCall/model_1/tf.math.add_128/Add", "PartitionedCall/model_1/tf.math.sigmoid_88/Sigmoid"], "attr": {"T": {"type": "DT_FLOAT"}}}, {"name": "PartitionedCall/model_1/tf.nn.convolution_93/convolution", "op": "Conv2D", "input": ["PartitionedCall/model_1/tf.math.multiply_284/Mul", "1794"], "device": "/device:CPU:0", "attr": {"padding": {"s": "U0FNRQ=="}, "T": {"type": "DT_FLOAT"}, "strides": {"list": {"i": ["1", "1", "1", "1"]}}, "dilations": {"list": {"i": ["1", "1", "1", "1"]}}, "use_cudnn_on_gpu": {"b": true}, "explicit_paddings": {"list": {}}, "data_format": {"s": "TkhXQw=="}}}, {"name": "PartitionedCall/model_1/tf.math.add_129/Add", "op": "AddV2", "input": ["PartitionedCall/model_1/tf.nn.convolution_93/convolution", "1796"], "attr": {"T": {"type": "DT_FLOAT"}}}, {"name": "PartitionedCall/model_1/tf.math.sigmoid_89/Sigmoid", "op": "Sigmoid", "input": ["PartitionedCall/model_1/tf.math.add_129/Add"], "attr": {"T": {"type": "DT_FLOAT"}}}, {"name": "PartitionedCall/model_1/tf.math.multiply_287/Mul", "op": "Mul", "input": ["PartitionedCall/model_1/tf.math.add_129/Add", "PartitionedCall/model_1/tf.math.sigmoid_89/Sigmoid"], "attr": {"T": {"type": "DT_FLOAT"}}}, {"name": "PartitionedCall/model_1/tf.nn.convolution_94/convolution", "op": "Conv2D", "input": ["PartitionedCall/model_1/tf.math.multiply_287/Mul", "1798"], "device": "/device:CPU:0", "attr": {"use_cudnn_on_gpu": {"b": true}, "padding": {"s": "U0FNRQ=="}, "data_format": {"s": "TkhXQw=="}, "explicit_paddings": {"list": {}}, "T": {"type": "DT_FLOAT"}, "dilations": {"list": {"i": ["1", "1", "1", "1"]}}, "strides": {"list": {"i": ["1", "1", "1", "1"]}}}}, {"name": "PartitionedCall/model_1/tf.math.add_130/Add", "op": "AddV2", "input": ["PartitionedCall/model_1/tf.nn.convolution_94/convolution", "1800"], "attr": {"T": {"type": "DT_FLOAT"}}}, {"name": "PartitionedCall/model_1/tf.math.sigmoid_90/Sigmoid", "op": "Sigmoid", "input": ["PartitionedCall/model_1/tf.math.add_130/Add"], "attr": {"T": {"type": "DT_FLOAT"}}}, {"name": "PartitionedCall/model_1/tf.math.multiply_290/Mul", "op": "Mul", "input": ["PartitionedCall/model_1/tf.math.add_130/Add", "PartitionedCall/model_1/tf.math.sigmoid_90/Sigmoid"], "attr": {"T": {"type": "DT_FLOAT"}}}, {"name": "PartitionedCall/model_1/tf.nn.convolution_95/convolution", "op": "Conv2D", "input": ["PartitionedCall/model_1/tf.math.multiply_290/Mul", "1802"], "device": "/device:CPU:0", "attr": {"strides": {"list": {"i": ["1", "1", "1", "1"]}}, "use_cudnn_on_gpu": {"b": true}, "dilations": {"list": {"i": ["1", "1", "1", "1"]}}, "data_format": {"s": "TkhXQw=="}, "explicit_paddings": {"list": {}}, "padding": {"s": "U0FNRQ=="}, "T": {"type": "DT_FLOAT"}}}, {"name": "PartitionedCall/model_1/tf.math.add_131/Add", "op": "AddV2", "input": ["PartitionedCall/model_1/tf.nn.convolution_95/convolution", "1804"], "attr": {"T": {"type": "DT_FLOAT"}}}, {"name": "PartitionedCall/model_1/tf.math.sigmoid_91/Sigmoid", "op": "Sigmoid", "input": ["PartitionedCall/model_1/tf.math.add_131/Add"], "attr": {"T": {"type": "DT_FLOAT"}}}, {"name": "PartitionedCall/model_1/tf.math.multiply_293/Mul", "op": "Mul", "input": ["PartitionedCall/model_1/tf.math.add_131/Add", "PartitionedCall/model_1/tf.math.sigmoid_91/Sigmoid"], "attr": {"T": {"type": "DT_FLOAT"}}}, {"name": "PartitionedCall/model_1/tf.concat_14/concat", "op": "ConcatV2", "input": ["PartitionedCall/model_1/tf.strided_slice_29/StridedSlice", "PartitionedCall/model_1/tf.strided_slice_31/StridedSlice", "PartitionedCall/model_1/tf.math.multiply_281/Mul", "PartitionedCall/model_1/tf.math.multiply_287/Mul", "PartitionedCall/model_1/tf.math.multiply_293/Mul", "PartitionedCall/model_1/tf.concat_14/concat/axis"], "attr": {"T": {"type": "DT_FLOAT"}, "N": {"i": "5"}, "Tidx": {"type": "DT_INT32"}}}, {"name": "PartitionedCall/model_1/tf.nn.convolution_96/convolution", "op": "Conv2D", "input": ["PartitionedCall/model_1/tf.concat_14/concat", "1810"], "device": "/device:CPU:0", "attr": {"data_format": {"s": "TkhXQw=="}, "dilations": {"list": {"i": ["1", "1", "1", "1"]}}, "explicit_paddings": {"list": {}}, "T": {"type": "DT_FLOAT"}, "strides": {"list": {"i": ["1", "1", "1", "1"]}}, "padding": {"s": "U0FNRQ=="}, "use_cudnn_on_gpu": {"b": true}}}, {"name": "PartitionedCall/model_1/tf.math.add_132/Add", "op": "AddV2", "input": ["PartitionedCall/model_1/tf.nn.convolution_96/convolution", "1812"], "attr": {"T": {"type": "DT_FLOAT"}}}, {"name": "PartitionedCall/model_1/tf.math.sigmoid_92/Sigmoid", "op": "Sigmoid", "input": ["PartitionedCall/model_1/tf.math.add_132/Add"], "attr": {"T": {"type": "DT_FLOAT"}}}, {"name": "PartitionedCall/model_1/tf.math.multiply_296/Mul", "op": "Mul", "input": ["PartitionedCall/model_1/tf.math.add_132/Add", "PartitionedCall/model_1/tf.math.sigmoid_92/Sigmoid"], "attr": {"T": {"type": "DT_FLOAT"}}}, {"name": "PartitionedCall/model_1/tf.nn.convolution_97/convolution", "op": "Conv2D", "input": ["PartitionedCall/model_1/tf.math.multiply_296/Mul", "1816"], "device": "/device:CPU:0", "attr": {"explicit_paddings": {"list": {}}, "T": {"type": "DT_FLOAT"}, "padding": {"s": "U0FNRQ=="}, "data_format": {"s": "TkhXQw=="}, "dilations": {"list": {"i": ["1", "1", "1", "1"]}}, "use_cudnn_on_gpu": {"b": true}, "strides": {"list": {"i": ["1", "1", "1", "1"]}}}}, {"name": "PartitionedCall/model_1/tf.nn.convolution_98/convolution", "op": "Conv2D", "input": ["PartitionedCall/model_1/tf.math.multiply_296/Mul", "1814"], "device": "/device:CPU:0", "attr": {"dilations": {"list": {"i": ["1", "1", "1", "1"]}}, "explicit_paddings": {"list": {}}, "padding": {"s": "U0FNRQ=="}, "T": {"type": "DT_FLOAT"}, "data_format": {"s": "TkhXQw=="}, "strides": {"list": {"i": ["1", "1", "1", "1"]}}, "use_cudnn_on_gpu": {"b": true}}}, {"name": "PartitionedCall/model_1/tf.math.add_133/Add", "op": "AddV2", "input": ["PartitionedCall/model_1/tf.nn.convolution_97/convolution", "1828"], "attr": {"T": {"type": "DT_FLOAT"}}}, {"name": "PartitionedCall/model_1/tf.math.add_134/Add", "op": "AddV2", "input": ["PartitionedCall/model_1/tf.nn.convolution_98/convolution", "1826"], "attr": {"T": {"type": "DT_FLOAT"}}}, {"name": "PartitionedCall/model_1/tf.math.sigmoid_93/Sigmoid", "op": "Sigmoid", "input": ["PartitionedCall/model_1/tf.math.add_133/Add"], "attr": {"T": {"type": "DT_FLOAT"}}}, {"name": "PartitionedCall/model_1/tf.math.sigmoid_94/Sigmoid", "op": "Sigmoid", "input": ["PartitionedCall/model_1/tf.math.add_134/Add"], "attr": {"T": {"type": "DT_FLOAT"}}}, {"name": "PartitionedCall/model_1/tf.math.multiply_299/Mul", "op": "Mul", "input": ["PartitionedCall/model_1/tf.math.add_133/Add", "PartitionedCall/model_1/tf.math.sigmoid_93/Sigmoid"], "attr": {"T": {"type": "DT_FLOAT"}}}, {"name": "PartitionedCall/model_1/tf.math.multiply_302/Mul", "op": "Mul", "input": ["PartitionedCall/model_1/tf.math.add_134/Add", "PartitionedCall/model_1/tf.math.sigmoid_94/Sigmoid"], "attr": {"T": {"type": "DT_FLOAT"}}}, {"name": "PartitionedCall/model_1/tf.nn.convolution_99/convolution", "op": "Conv2D", "input": ["PartitionedCall/model_1/tf.math.multiply_299/Mul", "1840"], "device": "/device:CPU:0", "attr": {"use_cudnn_on_gpu": {"b": true}, "strides": {"list": {"i": ["1", "1", "1", "1"]}}, "padding": {"s": "U0FNRQ=="}, "data_format": {"s": "TkhXQw=="}, "dilations": {"list": {"i": ["1", "1", "1", "1"]}}, "explicit_paddings": {"list": {}}, "T": {"type": "DT_FLOAT"}}}, {"name": "PartitionedCall/model_1/tf.nn.convolution_100/convolution", "op": "Conv2D", "input": ["PartitionedCall/model_1/tf.math.multiply_302/Mul", "1838"], "device": "/device:CPU:0", "attr": {"use_cudnn_on_gpu": {"b": true}, "padding": {"s": "U0FNRQ=="}, "T": {"type": "DT_FLOAT"}, "strides": {"list": {"i": ["1", "1", "1", "1"]}}, "explicit_paddings": {"list": {}}, "dilations": {"list": {"i": ["1", "1", "1", "1"]}}, "data_format": {"s": "TkhXQw=="}}}, {"name": "PartitionedCall/model_1/tf.math.add_135/Add", "op": "AddV2", "input": ["PartitionedCall/model_1/tf.nn.convolution_99/convolution", "1852"], "attr": {"T": {"type": "DT_FLOAT"}}}, {"name": "PartitionedCall/model_1/tf.math.add_136/Add", "op": "AddV2", "input": ["PartitionedCall/model_1/tf.nn.convolution_100/convolution", "1850"], "attr": {"T": {"type": "DT_FLOAT"}}}, {"name": "PartitionedCall/model_1/tf.math.sigmoid_95/Sigmoid", "op": "Sigmoid", "input": ["PartitionedCall/model_1/tf.math.add_135/Add"], "attr": {"T": {"type": "DT_FLOAT"}}}, {"name": "PartitionedCall/model_1/tf.math.sigmoid_96/Sigmoid", "op": "Sigmoid", "input": ["PartitionedCall/model_1/tf.math.add_136/Add"], "attr": {"T": {"type": "DT_FLOAT"}}}, {"name": "PartitionedCall/model_1/tf.math.multiply_305/Mul", "op": "Mul", "input": ["PartitionedCall/model_1/tf.math.add_135/Add", "PartitionedCall/model_1/tf.math.sigmoid_95/Sigmoid"], "attr": {"T": {"type": "DT_FLOAT"}}}, {"name": "PartitionedCall/model_1/tf.math.multiply_308/Mul", "op": "Mul", "input": ["PartitionedCall/model_1/tf.math.add_136/Add", "PartitionedCall/model_1/tf.math.sigmoid_96/Sigmoid"], "attr": {"T": {"type": "DT_FLOAT"}}}, {"name": "PartitionedCall/model_1/tf.nn.convolution_101/convolution", "op": "Conv2D", "input": ["PartitionedCall/model_1/tf.math.multiply_305/Mul", "1864"], "device": "/device:CPU:0", "attr": {"T": {"type": "DT_FLOAT"}, "strides": {"list": {"i": ["1", "1", "1", "1"]}}, "padding": {"s": "U0FNRQ=="}, "data_format": {"s": "TkhXQw=="}, "explicit_paddings": {"list": {}}, "use_cudnn_on_gpu": {"b": true}, "dilations": {"list": {"i": ["1", "1", "1", "1"]}}}}, {"name": "PartitionedCall/model_1/tf.nn.convolution_102/convolution", "op": "Conv2D", "input": ["PartitionedCall/model_1/tf.math.multiply_308/Mul", "1862"], "device": "/device:CPU:0", "attr": {"dilations": {"list": {"i": ["1", "1", "1", "1"]}}, "explicit_paddings": {"list": {}}, "strides": {"list": {"i": ["1", "1", "1", "1"]}}, "use_cudnn_on_gpu": {"b": true}, "padding": {"s": "U0FNRQ=="}, "T": {"type": "DT_FLOAT"}, "data_format": {"s": "TkhXQw=="}}}, {"name": "PartitionedCall/model_1/tf.math.add_137/Add", "op": "AddV2", "input": ["PartitionedCall/model_1/tf.nn.convolution_101/convolution", "1874"], "attr": {"T": {"type": "DT_FLOAT"}}}, {"name": "PartitionedCall/model_1/tf.math.add_138/Add", "op": "AddV2", "input": ["PartitionedCall/model_1/tf.nn.convolution_102/convolution", "1876"], "attr": {"T": {"type": "DT_FLOAT"}}}, {"name": "PartitionedCall/model_1/tf.concat_15/concat", "op": "ConcatV2", "input": ["PartitionedCall/model_1/tf.math.add_137/Add", "PartitionedCall/model_1/tf.math.add_138/Add", "PartitionedCall/model_1/tf.concat_15/concat/axis"], "attr": {"Tidx": {"type": "DT_INT32"}, "T": {"type": "DT_FLOAT"}, "N": {"i": "2"}}}, {"name": "PartitionedCall/model_1/tf.compat.v1.transpose_2/transpose", "op": "Transpose", "input": ["PartitionedCall/model_1/tf.concat_15/concat", "PartitionedCall/model_1/tf.compat.v1.transpose_2/transpose/perm"], "attr": {"T": {"type": "DT_FLOAT"}, "Tperm": {"type": "DT_INT32"}}}, {"name": "PartitionedCall/model_1/tf.reshape_2/Reshape", "op": "Reshape", "input": ["PartitionedCall/model_1/tf.compat.v1.transpose_2/transpose", "PartitionedCall/model_1/tf.reshape_2/Reshape/shape"], "attr": {"Tshape": {"type": "DT_INT32"}, "T": {"type": "DT_FLOAT"}}}, {"name": "PartitionedCall/model_1/tf.concat_16/concat", "op": "ConcatV2", "input": ["PartitionedCall/model_1/tf.reshape/Reshape", "PartitionedCall/model_1/tf.reshape_1/Reshape", "PartitionedCall/model_1/tf.reshape_2/Reshape", "PartitionedCall/model_1/tf.concat_16/concat/axis"], "attr": {"N": {"i": "3"}, "T": {"type": "DT_FLOAT"}, "Tidx": {"type": "DT_INT32"}}}, {"name": "PartitionedCall/model_1/tf.strided_slice_33/StridedSlice", "op": "StridedSlice", "input": ["PartitionedCall/model_1/tf.concat_16/concat", "1886", "1888", "PartitionedCall/model_1/tf.strided_slice_33/StridedSlice/strides"], "attr": {"shrink_axis_mask": {"i": "0"}, "Index": {"type": "DT_INT64"}, "ellipsis_mask": {"i": "0"}, "new_axis_mask": {"i": "0"}, "end_mask": {"i": "5"}, "begin_mask": {"i": "7"}, "T": {"type": "DT_FLOAT"}}}, {"name": "PartitionedCall/model_1/tf.strided_slice_35/StridedSlice", "op": "StridedSlice", "input": ["PartitionedCall/model_1/tf.concat_16/concat", "1906", "1908", "PartitionedCall/model_1/tf.strided_slice_35/StridedSlice/strides"], "attr": {"ellipsis_mask": {"i": "0"}, "begin_mask": {"i": "5"}, "T": {"type": "DT_FLOAT"}, "new_axis_mask": {"i": "0"}, "shrink_axis_mask": {"i": "0"}, "Index": {"type": "DT_INT64"}, "end_mask": {"i": "5"}}}, {"name": "PartitionedCall/model_1/tf.reshape_3/Reshape", "op": "Reshape", "input": ["PartitionedCall/model_1/tf.strided_slice_33/StridedSlice", "PartitionedCall/model_1/tf.reshape_3/Reshape/shape"], "attr": {"T": {"type": "DT_FLOAT"}, "Tshape": {"type": "DT_INT32"}}}, {"name": "PartitionedCall/model_1/tf.math.sigmoid_97/Sigmoid", "op": "Sigmoid", "input": ["PartitionedCall/model_1/tf.strided_slice_35/StridedSlice"], "attr": {"T": {"type": "DT_FLOAT"}}}, {"name": "PartitionedCall/model_1/tf.compat.v1.transpose_4/transpose", "op": "Transpose", "input": ["PartitionedCall/model_1/tf.reshape_3/Reshape", "PartitionedCall/model_1/tf.compat.v1.transpose_4/transpose/perm"], "attr": {"Tperm": {"type": "DT_INT32"}, "T": {"type": "DT_FLOAT"}}}, {"name": "PartitionedCall/model_1/tf.compat.v1.transpose_5/transpose", "op": "Transpose", "input": ["PartitionedCall/model_1/tf.compat.v1.transpose_4/transpose", "PartitionedCall/model_1/tf.compat.v1.transpose_5/transpose/perm"], "attr": {"Tperm": {"type": "DT_INT32"}, "T": {"type": "DT_FLOAT"}}}, {"name": "PartitionedCall/model_1/tf.nn.softmax/Softmax", "op": "Softmax", "input": ["PartitionedCall/model_1/tf.compat.v1.transpose_5/transpose"], "attr": {"T": {"type": "DT_FLOAT"}}}, {"name": "PartitionedCall/model_1/tf.nn.convolution_103/convolution", "op": "Conv2D", "input": ["PartitionedCall/model_1/tf.nn.softmax/Softmax", "1890"], "device": "/device:CPU:0", "attr": {"dilations": {"list": {"i": ["1", "1", "1", "1"]}}, "padding": {"s": "U0FNRQ=="}, "explicit_paddings": {"list": {}}, "strides": {"list": {"i": ["1", "1", "1", "1"]}}, "use_cudnn_on_gpu": {"b": true}, "data_format": {"s": "TkhXQw=="}, "T": {"type": "DT_FLOAT"}}}, {"name": "PartitionedCall/model_1/tf.compat.v1.transpose_8/transpose", "op": "Transpose", "input": ["PartitionedCall/model_1/tf.nn.convolution_103/convolution", "PartitionedCall/model_1/tf.compat.v1.transpose_8/transpose/perm"], "attr": {"Tperm": {"type": "DT_INT32"}, "T": {"type": "DT_FLOAT"}}}, {"name": "PartitionedCall/model_1/tf.reshape_4/Reshape", "op": "Reshape", "input": ["PartitionedCall/model_1/tf.compat.v1.transpose_8/transpose", "PartitionedCall/model_1/tf.reshape_4/Reshape/shape"], "attr": {"Tshape": {"type": "DT_INT32"}, "T": {"type": "DT_FLOAT"}}}, {"name": "PartitionedCall/model_1/tf.strided_slice_39/StridedSlice", "op": "StridedSlice", "input": ["PartitionedCall/model_1/tf.reshape_4/Reshape", "1892", "1894", "PartitionedCall/model_1/tf.strided_slice_39/ones_like"], "attr": {"Index": {"type": "DT_INT64"}, "end_mask": {"i": "5"}, "T": {"type": "DT_FLOAT"}, "begin_mask": {"i": "5"}, "ellipsis_mask": {"i": "0"}, "new_axis_mask": {"i": "0"}, "shrink_axis_mask": {"i": "0"}}}, {"name": "PartitionedCall/model_1/tf.strided_slice_37/StridedSlice", "op": "StridedSlice", "input": ["PartitionedCall/model_1/tf.reshape_4/Reshape", "1896", "1898", "PartitionedCall/model_1/tf.strided_slice_37/ones_like"], "attr": {"end_mask": {"i": "5"}, "ellipsis_mask": {"i": "0"}, "new_axis_mask": {"i": "0"}, "Index": {"type": "DT_INT64"}, "begin_mask": {"i": "7"}, "T": {"type": "DT_FLOAT"}, "shrink_axis_mask": {"i": "0"}}}, {"name": "PartitionedCall/model_1/tf.math.add_139/Add", "op": "AddV2", "input": ["1900", "PartitionedCall/model_1/tf.strided_slice_39/StridedSlice"], "attr": {"T": {"type": "DT_FLOAT"}}}, {"name": "PartitionedCall/model_1/tf.math.subtract/Sub", "op": "Sub", "input": ["1902", "PartitionedCall/model_1/tf.strided_slice_37/StridedSlice"], "attr": {"T": {"type": "DT_FLOAT"}}}, {"name": "PartitionedCall/model_1/tf.math.add_140/Add", "op": "AddV2", "input": ["PartitionedCall/model_1/tf.math.subtract/Sub", "PartitionedCall/model_1/tf.math.add_139/Add"], "attr": {"T": {"type": "DT_FLOAT"}}}, {"name": "PartitionedCall/model_1/tf.math.subtract_1/Sub", "op": "Sub", "input": ["PartitionedCall/model_1/tf.math.add_139/Add", "PartitionedCall/model_1/tf.math.subtract/Sub"], "attr": {"T": {"type": "DT_FLOAT"}}}, {"name": "PartitionedCall/model_1/tf.math.divide/truediv", "op": "Mul", "input": ["PartitionedCall/model_1/tf.math.add_140/Add", "ConstantFolding/PartitionedCall/model_1/tf.math.divide/truediv_recip"], "attr": {"T": {"type": "DT_FLOAT"}}}, {"name": "PartitionedCall/model_1/tf.concat_17/concat", "op": "ConcatV2", "input": ["PartitionedCall/model_1/tf.math.divide/truediv", "PartitionedCall/model_1/tf.math.subtract_1/Sub", "PartitionedCall/model_1/tf.concat_17/concat/axis"], "attr": {"T": {"type": "DT_FLOAT"}, "Tidx": {"type": "DT_INT32"}, "N": {"i": "2"}}}, {"name": "PartitionedCall/model_1/tf.math.multiply_317/Mul", "op": "Mul", "input": ["PartitionedCall/model_1/tf.concat_17/concat", "PartitionedCall/model_1/tf.math.multiply_317/Mul/y"], "attr": {"T": {"type": "DT_FLOAT"}}}, {"name": "PartitionedCall/model_1/output0/concat", "op": "ConcatV2", "input": ["PartitionedCall/model_1/tf.math.multiply_317/Mul", "PartitionedCall/model_1/tf.math.sigmoid_97/Sigmoid", "PartitionedCall/model_1/output0/concat/axis"], "attr": {"N": {"i": "2"}, "Tidx": {"type": "DT_INT32"}, "T": {"type": "DT_FLOAT"}}}, {"name": "Identity", "op": "Identity", "input": ["PartitionedCall/model_1/output0/concat"], "attr": {"T": {"type": "DT_FLOAT"}}}], "library": {}, "versions": {"producer": 1395}}, "weightsManifest": [{"paths": ["group1-shard1of65.bin", "group1-shard2of65.bin", "group1-shard3of65.bin", "group1-shard4of65.bin", "group1-shard5of65.bin", "group1-shard6of65.bin", "group1-shard7of65.bin", "group1-shard8of65.bin", "group1-shard9of65.bin", "group1-shard10of65.bin", "group1-shard11of65.bin", "group1-shard12of65.bin", "group1-shard13of65.bin", "group1-shard14of65.bin", "group1-shard15of65.bin", "group1-shard16of65.bin", "group1-shard17of65.bin", "group1-shard18of65.bin", "group1-shard19of65.bin", "group1-shard20of65.bin", "group1-shard21of65.bin", "group1-shard22of65.bin", "group1-shard23of65.bin", "group1-shard24of65.bin", "group1-shard25of65.bin", "group1-shard26of65.bin", "group1-shard27of65.bin", "group1-shard28of65.bin", "group1-shard29of65.bin", "group1-shard30of65.bin", "group1-shard31of65.bin", "group1-shard32of65.bin", "group1-shard33of65.bin", "group1-shard34of65.bin", "group1-shard35of65.bin", "group1-shard36of65.bin", "group1-shard37of65.bin", "group1-shard38of65.bin", "group1-shard39of65.bin", "group1-shard40of65.bin", "group1-shard41of65.bin", "group1-shard42of65.bin", "group1-shard43of65.bin", "group1-shard44of65.bin", "group1-shard45of65.bin", "group1-shard46of65.bin", "group1-shard47of65.bin", "group1-shard48of65.bin", "group1-shard49of65.bin", "group1-shard50of65.bin", "group1-shard51of65.bin", "group1-shard52of65.bin", "group1-shard53of65.bin", "group1-shard54of65.bin", "group1-shard55of65.bin", "group1-shard56of65.bin", "group1-shard57of65.bin", "group1-shard58of65.bin", "group1-shard59of65.bin", "group1-shard60of65.bin", "group1-shard61of65.bin", "group1-shard62of65.bin", "group1-shard63of65.bin", "group1-shard64of65.bin", "group1-shard65of65.bin"], "weights": [{"name": "ConstantFolding/PartitionedCall/model_1/tf.math.divide/truediv_recip", "shape": [1, 1, 1], "dtype": "float32"}, {"name": "1900", "shape": [1, 2, 3549], "dtype": "float32"}, {"name": "1892", "shape": [3], "dtype": "int32"}, {"name": "1894", "shape": [3], "dtype": "int32"}, {"name": "PartitionedCall/model_1/tf.strided_slice_39/ones_like", "shape": [3], "dtype": "int32"}, {"name": "1902", "shape": [1, 2, 3549], "dtype": "float32"}, {"name": "1886", "shape": [3], "dtype": "int32"}, {"name": "1888", "shape": [3], "dtype": "int32"}, {"name": "PartitionedCall/model_1/tf.strided_slice_33/StridedSlice/strides", "shape": [3], "dtype": "int32"}, {"name": "PartitionedCall/model_1/tf.reshape_3/Reshape/shape", "shape": [4], "dtype": "int32"}, {"name": "PartitionedCall/model_1/tf.compat.v1.transpose_4/transpose/perm", "shape": [4], "dtype": "int32"}, {"name": "PartitionedCall/model_1/tf.compat.v1.transpose_5/transpose/perm", "shape": [4], "dtype": "int32"}, {"name": "1890", "shape": [1, 1, 16, 1], "dtype": "float32"}, {"name": "PartitionedCall/model_1/tf.compat.v1.transpose_8/transpose/perm", "shape": [4], "dtype": "int32"}, {"name": "PartitionedCall/model_1/tf.reshape_4/Reshape/shape", "shape": [3], "dtype": "int32"}, {"name": "1896", "shape": [3], "dtype": "int32"}, {"name": "1898", "shape": [3], "dtype": "int32"}, {"name": "PartitionedCall/model_1/tf.strided_slice_37/ones_like", "shape": [3], "dtype": "int32"}, {"name": "PartitionedCall/model_1/tf.concat_17/concat/axis", "shape": [], "dtype": "int32"}, {"name": "PartitionedCall/model_1/tf.math.multiply_317/Mul/y", "shape": [1, 1, 3549], "dtype": "float32"}, {"name": "1824", "shape": [3, 3, 320, 80], "dtype": "float32"}, {"name": "1836", "shape": [80], "dtype": "float32"}, {"name": "1848", "shape": [3, 3, 80, 80], "dtype": "float32"}, {"name": "1860", "shape": [80], "dtype": "float32"}, {"name": "1872", "shape": [1, 1, 80, 64], "dtype": "float32"}, {"name": "1882", "shape": [64], "dtype": "float32"}, {"name": "1822", "shape": [3, 3, 320, 320], "dtype": "float32"}, {"name": "1834", "shape": [320], "dtype": "float32"}, {"name": "1846", "shape": [3, 3, 320, 320], "dtype": "float32"}, {"name": "1858", "shape": [320], "dtype": "float32"}, {"name": "1870", "shape": [1, 1, 320, 1], "dtype": "float32"}, {"name": "1884", "shape": [1], "dtype": "float32"}, {"name": "PartitionedCall/model_1/tf.concat_10/concat/axis", "shape": [], "dtype": "int32"}, {"name": "PartitionedCall/model_1/tf.compat.v1.transpose/transpose/perm", "shape": [4], "dtype": "int32"}, {"name": "PartitionedCall/model_1/tf.reshape/Reshape/shape", "shape": [3], "dtype": "int32"}, {"name": "1820", "shape": [3, 3, 640, 80], "dtype": "float32"}, {"name": "1832", "shape": [80], "dtype": "float32"}, {"name": "1844", "shape": [3, 3, 80, 80], "dtype": "float32"}, {"name": "1856", "shape": [80], "dtype": "float32"}, {"name": "1868", "shape": [1, 1, 80, 64], "dtype": "float32"}, {"name": "1878", "shape": [64], "dtype": "float32"}, {"name": "1818", "shape": [3, 3, 640, 320], "dtype": "float32"}, {"name": "1830", "shape": [320], "dtype": "float32"}, {"name": "1842", "shape": [3, 3, 320, 320], "dtype": "float32"}, {"name": "1854", "shape": [320], "dtype": "float32"}, {"name": "1866", "shape": [1, 1, 320, 1], "dtype": "float32"}, {"name": "1880", "shape": [1], "dtype": "float32"}, {"name": "PartitionedCall/model_1/tf.concat_13/concat/axis", "shape": [], "dtype": "int32"}, {"name": "PartitionedCall/model_1/tf.compat.v1.transpose_1/transpose/perm", "shape": [4], "dtype": "int32"}, {"name": "PartitionedCall/model_1/tf.reshape_1/Reshape/shape", "shape": [3], "dtype": "int32"}, {"name": "1816", "shape": [3, 3, 640, 80], "dtype": "float32"}, {"name": "1828", "shape": [80], "dtype": "float32"}, {"name": "1840", "shape": [3, 3, 80, 80], "dtype": "float32"}, {"name": "1852", "shape": [80], "dtype": "float32"}, {"name": "1864", "shape": [1, 1, 80, 64], "dtype": "float32"}, {"name": "1874", "shape": [64], "dtype": "float32"}, {"name": "1806", "shape": [4], "dtype": "int32"}, {"name": "1808", "shape": [4], "dtype": "int32"}, {"name": "PartitionedCall/model_1/tf.strided_slice_29/ones_like", "shape": [4], "dtype": "int32"}, {"name": "1760", "shape": [4], "dtype": "int32"}, {"name": "1762", "shape": [4], "dtype": "int32"}, {"name": "PartitionedCall/model_1/tf.strided_slice_25/ones_like", "shape": [4], "dtype": "int32"}, {"name": "1714", "shape": [4], "dtype": "int32"}, {"name": "1716", "shape": [4], "dtype": "int32"}, {"name": "PartitionedCall/model_1/tf.strided_slice_21/ones_like", "shape": [4], "dtype": "int32"}, {"name": "PartitionedCall/model_1/lambda_1//model.13/Resize/size", "shape": [2], "dtype": "int32"}, {"name": "PartitionedCall/model_1/tf.concat_7/concat/axis", "shape": [], "dtype": "int32"}, {"name": "1682", "shape": [1, 1, 960, 320], "dtype": "float32"}, {"name": "1684", "shape": [320], "dtype": "float32"}, {"name": "1686", "shape": [4], "dtype": "int32"}, {"name": "1688", "shape": [4], "dtype": "int32"}, {"name": "PartitionedCall/model_1/tf.strided_slice_23/ones_like", "shape": [4], "dtype": "int32"}, {"name": "1690", "shape": [3, 3, 160, 160], "dtype": "float32"}, {"name": "1692", "shape": [160], "dtype": "float32"}, {"name": "1694", "shape": [3, 3, 160, 160], "dtype": "float32"}, {"name": "1696", "shape": [160], "dtype": "float32"}, {"name": "1698", "shape": [3, 3, 160, 160], "dtype": "float32"}, {"name": "1700", "shape": [160], "dtype": "float32"}, {"name": "1702", "shape": [3, 3, 160, 160], "dtype": "float32"}, {"name": "1704", "shape": [160], "dtype": "float32"}, {"name": "1706", "shape": [3, 3, 160, 160], "dtype": "float32"}, {"name": "1708", "shape": [160], "dtype": "float32"}, {"name": "1710", "shape": [3, 3, 160, 160], "dtype": "float32"}, {"name": "1712", "shape": [160], "dtype": "float32"}, {"name": "PartitionedCall/model_1/tf.concat_8/concat/axis", "shape": [], "dtype": "int32"}, {"name": "1718", "shape": [1, 1, 800, 320], "dtype": "float32"}, {"name": "1720", "shape": [320], "dtype": "float32"}, {"name": "1722", "shape": [4, 2], "dtype": "int32"}, {"name": "1724", "shape": [3, 3, 320, 320], "dtype": "float32"}, {"name": "1726", "shape": [320], "dtype": "float32"}, {"name": "1674", "shape": [4], "dtype": "int32"}, {"name": "1676", "shape": [4], "dtype": "int32"}, {"name": "PartitionedCall/model_1/tf.strided_slice_17/ones_like", "shape": [4], "dtype": "int32"}, {"name": "PartitionedCall/model_1/lambda//model.10/Resize/size", "shape": [2], "dtype": "int32"}, {"name": "PartitionedCall/model_1/tf.concat_5/concat/axis", "shape": [], "dtype": "int32"}, {"name": "1642", "shape": [1, 1, 1280, 640], "dtype": "float32"}, {"name": "1644", "shape": [640], "dtype": "float32"}, {"name": "1646", "shape": [4], "dtype": "int32"}, {"name": "1648", "shape": [4], "dtype": "int32"}, {"name": "PartitionedCall/model_1/tf.strided_slice_19/ones_like", "shape": [4], "dtype": "int32"}, {"name": "1650", "shape": [3, 3, 320, 320], "dtype": "float32"}, {"name": "1652", "shape": [320], "dtype": "float32"}, {"name": "1654", "shape": [3, 3, 320, 320], "dtype": "float32"}, {"name": "1656", "shape": [320], "dtype": "float32"}, {"name": "1658", "shape": [3, 3, 320, 320], "dtype": "float32"}, {"name": "1660", "shape": [320], "dtype": "float32"}, {"name": "1662", "shape": [3, 3, 320, 320], "dtype": "float32"}, {"name": "1664", "shape": [320], "dtype": "float32"}, {"name": "1666", "shape": [3, 3, 320, 320], "dtype": "float32"}, {"name": "1668", "shape": [320], "dtype": "float32"}, {"name": "1670", "shape": [3, 3, 320, 320], "dtype": "float32"}, {"name": "1672", "shape": [320], "dtype": "float32"}, {"name": "PartitionedCall/model_1/tf.concat_6/concat/axis", "shape": [], "dtype": "int32"}, {"name": "1678", "shape": [1, 1, 1600, 640], "dtype": "float32"}, {"name": "1680", "shape": [640], "dtype": "float32"}, {"name": "PartitionedCall/model_1/tf.concat_9/concat/axis", "shape": [], "dtype": "int32"}, {"name": "1728", "shape": [1, 1, 960, 640], "dtype": "float32"}, {"name": "1730", "shape": [640], "dtype": "float32"}, {"name": "1732", "shape": [4], "dtype": "int32"}, {"name": "1734", "shape": [4], "dtype": "int32"}, {"name": "PartitionedCall/model_1/tf.strided_slice_27/ones_like", "shape": [4], "dtype": "int32"}, {"name": "1736", "shape": [3, 3, 320, 320], "dtype": "float32"}, {"name": "1738", "shape": [320], "dtype": "float32"}, {"name": "1740", "shape": [3, 3, 320, 320], "dtype": "float32"}, {"name": "1742", "shape": [320], "dtype": "float32"}, {"name": "1744", "shape": [3, 3, 320, 320], "dtype": "float32"}, {"name": "1746", "shape": [320], "dtype": "float32"}, {"name": "1748", "shape": [3, 3, 320, 320], "dtype": "float32"}, {"name": "1750", "shape": [320], "dtype": "float32"}, {"name": "1752", "shape": [3, 3, 320, 320], "dtype": "float32"}, {"name": "1754", "shape": [320], "dtype": "float32"}, {"name": "1756", "shape": [3, 3, 320, 320], "dtype": "float32"}, {"name": "1758", "shape": [320], "dtype": "float32"}, {"name": "PartitionedCall/model_1/tf.concat_11/concat/axis", "shape": [], "dtype": "int32"}, {"name": "1764", "shape": [1, 1, 1600, 640], "dtype": "float32"}, {"name": "1766", "shape": [640], "dtype": "float32"}, {"name": "1768", "shape": [4, 2], "dtype": "int32"}, {"name": "1770", "shape": [3, 3, 640, 640], "dtype": "float32"}, {"name": "1772", "shape": [640], "dtype": "float32"}, {"name": "1626", "shape": [4], "dtype": "int32"}, {"name": "1628", "shape": [4], "dtype": "int32"}, {"name": "PartitionedCall/model_1/tf.strided_slice_13/ones_like", "shape": [4], "dtype": "int32"}, {"name": "1580", "shape": [4], "dtype": "int32"}, {"name": "1582", "shape": [4], "dtype": "int32"}, {"name": "PartitionedCall/model_1/tf.strided_slice_9/ones_like", "shape": [4], "dtype": "int32"}, {"name": "1510", "shape": [4], "dtype": "int32"}, {"name": "1512", "shape": [4], "dtype": "int32"}, {"name": "PartitionedCall/model_1/tf.strided_slice_5/ones_like", "shape": [4], "dtype": "int32"}, {"name": "1440", "shape": [4], "dtype": "int32"}, {"name": "1442", "shape": [4], "dtype": "int32"}, {"name": "PartitionedCall/model_1/tf.strided_slice_1/ones_like", "shape": [4], "dtype": "int32"}, {"name": "1396", "shape": [4, 2], "dtype": "int32"}, {"name": "1398", "shape": [3, 3, 3, 80], "dtype": "float32"}, {"name": "1400", "shape": [80], "dtype": "float32"}, {"name": "1402", "shape": [4, 2], "dtype": "int32"}, {"name": "1404", "shape": [3, 3, 80, 160], "dtype": "float32"}, {"name": "1406", "shape": [160], "dtype": "float32"}, {"name": "1408", "shape": [1, 1, 160, 160], "dtype": "float32"}, {"name": "1410", "shape": [160], "dtype": "float32"}, {"name": "1412", "shape": [4], "dtype": "int32"}, {"name": "1414", "shape": [4], "dtype": "int32"}, {"name": "PartitionedCall/model_1/tf.strided_slice_3/ones_like", "shape": [4], "dtype": "int32"}, {"name": "1416", "shape": [3, 3, 80, 80], "dtype": "float32"}, {"name": "1418", "shape": [80], "dtype": "float32"}, {"name": "1420", "shape": [3, 3, 80, 80], "dtype": "float32"}, {"name": "1422", "shape": [80], "dtype": "float32"}, {"name": "1424", "shape": [3, 3, 80, 80], "dtype": "float32"}, {"name": "1426", "shape": [80], "dtype": "float32"}, {"name": "1428", "shape": [3, 3, 80, 80], "dtype": "float32"}, {"name": "1430", "shape": [80], "dtype": "float32"}, {"name": "1432", "shape": [3, 3, 80, 80], "dtype": "float32"}, {"name": "1434", "shape": [80], "dtype": "float32"}, {"name": "1436", "shape": [3, 3, 80, 80], "dtype": "float32"}, {"name": "1438", "shape": [80], "dtype": "float32"}, {"name": "PartitionedCall/model_1/tf.concat/concat/axis", "shape": [], "dtype": "int32"}, {"name": "1444", "shape": [1, 1, 400, 160], "dtype": "float32"}, {"name": "1446", "shape": [160], "dtype": "float32"}, {"name": "1448", "shape": [4, 2], "dtype": "int32"}, {"name": "1450", "shape": [3, 3, 160, 320], "dtype": "float32"}, {"name": "1452", "shape": [320], "dtype": "float32"}, {"name": "1454", "shape": [1, 1, 320, 320], "dtype": "float32"}, {"name": "1456", "shape": [320], "dtype": "float32"}, {"name": "1458", "shape": [4], "dtype": "int32"}, {"name": "1460", "shape": [4], "dtype": "int32"}, {"name": "PartitionedCall/model_1/tf.strided_slice_7/ones_like", "shape": [4], "dtype": "int32"}, {"name": "1462", "shape": [3, 3, 160, 160], "dtype": "float32"}, {"name": "1464", "shape": [160], "dtype": "float32"}, {"name": "1466", "shape": [3, 3, 160, 160], "dtype": "float32"}, {"name": "1468", "shape": [160], "dtype": "float32"}, {"name": "1470", "shape": [3, 3, 160, 160], "dtype": "float32"}, {"name": "1472", "shape": [160], "dtype": "float32"}, {"name": "1474", "shape": [3, 3, 160, 160], "dtype": "float32"}, {"name": "1476", "shape": [160], "dtype": "float32"}, {"name": "1478", "shape": [3, 3, 160, 160], "dtype": "float32"}, {"name": "1480", "shape": [160], "dtype": "float32"}, {"name": "1482", "shape": [3, 3, 160, 160], "dtype": "float32"}, {"name": "1484", "shape": [160], "dtype": "float32"}, {"name": "1486", "shape": [3, 3, 160, 160], "dtype": "float32"}, {"name": "1488", "shape": [160], "dtype": "float32"}, {"name": "1490", "shape": [3, 3, 160, 160], "dtype": "float32"}, {"name": "1492", "shape": [160], "dtype": "float32"}, {"name": "1494", "shape": [3, 3, 160, 160], "dtype": "float32"}, {"name": "1496", "shape": [160], "dtype": "float32"}, {"name": "1498", "shape": [3, 3, 160, 160], "dtype": "float32"}, {"name": "1500", "shape": [160], "dtype": "float32"}, {"name": "1502", "shape": [3, 3, 160, 160], "dtype": "float32"}, {"name": "1504", "shape": [160], "dtype": "float32"}, {"name": "1506", "shape": [3, 3, 160, 160], "dtype": "float32"}, {"name": "1508", "shape": [160], "dtype": "float32"}, {"name": "PartitionedCall/model_1/tf.concat_1/concat/axis", "shape": [], "dtype": "int32"}, {"name": "1514", "shape": [1, 1, 1280, 320], "dtype": "float32"}, {"name": "1516", "shape": [320], "dtype": "float32"}, {"name": "1518", "shape": [4, 2], "dtype": "int32"}, {"name": "1520", "shape": [3, 3, 320, 640], "dtype": "float32"}, {"name": "1522", "shape": [640], "dtype": "float32"}, {"name": "1524", "shape": [1, 1, 640, 640], "dtype": "float32"}, {"name": "1526", "shape": [640], "dtype": "float32"}, {"name": "1528", "shape": [4], "dtype": "int32"}, {"name": "1530", "shape": [4], "dtype": "int32"}, {"name": "PartitionedCall/model_1/tf.strided_slice_11/ones_like", "shape": [4], "dtype": "int32"}, {"name": "1532", "shape": [3, 3, 320, 320], "dtype": "float32"}, {"name": "1534", "shape": [320], "dtype": "float32"}, {"name": "1536", "shape": [3, 3, 320, 320], "dtype": "float32"}, {"name": "1538", "shape": [320], "dtype": "float32"}, {"name": "1540", "shape": [3, 3, 320, 320], "dtype": "float32"}, {"name": "1542", "shape": [320], "dtype": "float32"}, {"name": "1544", "shape": [3, 3, 320, 320], "dtype": "float32"}, {"name": "1546", "shape": [320], "dtype": "float32"}, {"name": "1548", "shape": [3, 3, 320, 320], "dtype": "float32"}, {"name": "1550", "shape": [320], "dtype": "float32"}, {"name": "1552", "shape": [3, 3, 320, 320], "dtype": "float32"}, {"name": "1554", "shape": [320], "dtype": "float32"}, {"name": "1556", "shape": [3, 3, 320, 320], "dtype": "float32"}, {"name": "1558", "shape": [320], "dtype": "float32"}, {"name": "1560", "shape": [3, 3, 320, 320], "dtype": "float32"}, {"name": "1562", "shape": [320], "dtype": "float32"}, {"name": "1564", "shape": [3, 3, 320, 320], "dtype": "float32"}, {"name": "1566", "shape": [320], "dtype": "float32"}, {"name": "1568", "shape": [3, 3, 320, 320], "dtype": "float32"}, {"name": "1570", "shape": [320], "dtype": "float32"}, {"name": "1572", "shape": [3, 3, 320, 320], "dtype": "float32"}, {"name": "1574", "shape": [320], "dtype": "float32"}, {"name": "1576", "shape": [3, 3, 320, 320], "dtype": "float32"}, {"name": "1578", "shape": [320], "dtype": "float32"}, {"name": "PartitionedCall/model_1/tf.concat_2/concat/axis", "shape": [], "dtype": "int32"}, {"name": "1584", "shape": [1, 1, 2560, 640], "dtype": "float32"}, {"name": "1586", "shape": [640], "dtype": "float32"}, {"name": "1588", "shape": [4, 2], "dtype": "int32"}, {"name": "1590", "shape": [3, 3, 640, 640], "dtype": "float32"}, {"name": "1592", "shape": [640], "dtype": "float32"}, {"name": "1594", "shape": [1, 1, 640, 640], "dtype": "float32"}, {"name": "1596", "shape": [640], "dtype": "float32"}, {"name": "1598", "shape": [4], "dtype": "int32"}, {"name": "1600", "shape": [4], "dtype": "int32"}, {"name": "PartitionedCall/model_1/tf.strided_slice_15/ones_like", "shape": [4], "dtype": "int32"}, {"name": "1602", "shape": [3, 3, 320, 320], "dtype": "float32"}, {"name": "1604", "shape": [320], "dtype": "float32"}, {"name": "1606", "shape": [3, 3, 320, 320], "dtype": "float32"}, {"name": "1608", "shape": [320], "dtype": "float32"}, {"name": "1610", "shape": [3, 3, 320, 320], "dtype": "float32"}, {"name": "1612", "shape": [320], "dtype": "float32"}, {"name": "1614", "shape": [3, 3, 320, 320], "dtype": "float32"}, {"name": "1616", "shape": [320], "dtype": "float32"}, {"name": "1618", "shape": [3, 3, 320, 320], "dtype": "float32"}, {"name": "1620", "shape": [320], "dtype": "float32"}, {"name": "1622", "shape": [3, 3, 320, 320], "dtype": "float32"}, {"name": "1624", "shape": [320], "dtype": "float32"}, {"name": "PartitionedCall/model_1/tf.concat_3/concat/axis", "shape": [], "dtype": "int32"}, {"name": "1630", "shape": [1, 1, 1600, 640], "dtype": "float32"}, {"name": "1632", "shape": [640], "dtype": "float32"}, {"name": "1634", "shape": [1, 1, 640, 320], "dtype": "float32"}, {"name": "1636", "shape": [320], "dtype": "float32"}, {"name": "PartitionedCall/model_1/tf.concat_4/concat/axis", "shape": [], "dtype": "int32"}, {"name": "1638", "shape": [1, 1, 1280, 640], "dtype": "float32"}, {"name": "1640", "shape": [640], "dtype": "float32"}, {"name": "PartitionedCall/model_1/tf.concat_12/concat/axis", "shape": [], "dtype": "int32"}, {"name": "1774", "shape": [1, 1, 1280, 640], "dtype": "float32"}, {"name": "1776", "shape": [640], "dtype": "float32"}, {"name": "1778", "shape": [4], "dtype": "int32"}, {"name": "1780", "shape": [4], "dtype": "int32"}, {"name": "PartitionedCall/model_1/tf.strided_slice_31/ones_like", "shape": [4], "dtype": "int32"}, {"name": "1782", "shape": [3, 3, 320, 320], "dtype": "float32"}, {"name": "1784", "shape": [320], "dtype": "float32"}, {"name": "1786", "shape": [3, 3, 320, 320], "dtype": "float32"}, {"name": "1788", "shape": [320], "dtype": "float32"}, {"name": "1790", "shape": [3, 3, 320, 320], "dtype": "float32"}, {"name": "1792", "shape": [320], "dtype": "float32"}, {"name": "1794", "shape": [3, 3, 320, 320], "dtype": "float32"}, {"name": "1796", "shape": [320], "dtype": "float32"}, {"name": "1798", "shape": [3, 3, 320, 320], "dtype": "float32"}, {"name": "1800", "shape": [320], "dtype": "float32"}, {"name": "1802", "shape": [3, 3, 320, 320], "dtype": "float32"}, {"name": "1804", "shape": [320], "dtype": "float32"}, {"name": "PartitionedCall/model_1/tf.concat_14/concat/axis", "shape": [], "dtype": "int32"}, {"name": "1810", "shape": [1, 1, 1600, 640], "dtype": "float32"}, {"name": "1812", "shape": [640], "dtype": "float32"}, {"name": "1814", "shape": [3, 3, 640, 320], "dtype": "float32"}, {"name": "1826", "shape": [320], "dtype": "float32"}, {"name": "1838", "shape": [3, 3, 320, 320], "dtype": "float32"}, {"name": "1850", "shape": [320], "dtype": "float32"}, {"name": "1862", "shape": [1, 1, 320, 1], "dtype": "float32"}, {"name": "1876", "shape": [1], "dtype": "float32"}, {"name": "PartitionedCall/model_1/tf.concat_15/concat/axis", "shape": [], "dtype": "int32"}, {"name": "PartitionedCall/model_1/tf.compat.v1.transpose_2/transpose/perm", "shape": [4], "dtype": "int32"}, {"name": "PartitionedCall/model_1/tf.reshape_2/Reshape/shape", "shape": [3], "dtype": "int32"}, {"name": "PartitionedCall/model_1/tf.concat_16/concat/axis", "shape": [], "dtype": "int32"}, {"name": "1906", "shape": [3], "dtype": "int32"}, {"name": "1908", "shape": [3], "dtype": "int32"}, {"name": "PartitionedCall/model_1/tf.strided_slice_35/StridedSlice/strides", "shape": [3], "dtype": "int32"}, {"name": "PartitionedCall/model_1/output0/concat/axis", "shape": [], "dtype": "int32"}]}]}